checkpoint_critic.pth (torch_old, 435484 bytes, 7 tensors)

fcs1.weight f4 [256, 33]
000000 04 39 8c bd 34 95 61 3c ff 9d df bd 5a f7 14 be
       -0.06846812 0.013768483 -0.10918807 -0.14547482
000010 3e 2e 0b 3e bc 4e da 3b 14 22 86 3e 38 27 8a 3b
       0.13591859 0.006662218 0.26197875 0.004216101
000020 47 ea e1 3d b0 17 5b 3c 24 cb c9 3c 8b 91 9f bc
       0.11031013 0.013372347 0.024632998 -0.01947858
000030 42 d2 28 3c e9 ef f5 bc 58 b2 18 3d 32 1a 2e 3e
       0.010304036 -0.030021625 0.037279457 0.1700218
000040 6d 48 85 3e 69 a8 56 be e3 34 82 be 04 48 9c bd
       0.2603182 -0.20962681 -0.25430974 -0.076309234
000050 34 13 6f bc 5e 88 31 3c 7f e4 b9 3c 0c ef 29 bd
       -0.014591981 0.010835735 0.022691963 -0.04148774
000060 4b a9 b4 3c 1d 87 40 3d 52 de 20 3d 58 87 ef 3d
       0.022053381 0.047003854 0.03927452 0.11695737
000070 dc af 1a be 4e 6a 00 80 d4 3a ee bd 9c b6 00 00
       -0.15106148 -3.8135e-41 -0.11632314 6.5508e-41
000080 08 8c 36 be e9 ec 98 bb f0 9f ed 3d 30 3d 99 bd
       -0.17826855 -0.0046669138 0.11602771 -0.07482374
000090 fb a1 b0 bd 00 b0 89 3e e7 97 0a be 77 4d 3e bd
       -0.08624645 0.2689209 -0.13534509 -0.046460595
0000a0 58 30 05 3d ae 75 30 3d ff 47 03 3d c7 5e 48 3c
       0.032516807 0.043080978 0.032051083 0.012229628
0000b0 46 4a 1d bb b4 de a7 bc 16 56 0d 3e 7e 0f 39 bc
       -0.002400057 -0.020491935 0.1380237 -0.0112951975
0000c0 c1 87 cc 3c 27 bd b1 bd 21 db cb 3d 5b b6 fe ba
       0.024967076 -0.08678656 0.09953905 -0.0019433008
0000d0 a1 8b 05 bd 5c 79 df 3c 30 39 03 3d c2 c9 9e 3b
       -0.032603864 0.027279548 0.03203696 0.0048458287
0000e0 7d 83 86 3d 20 72 ff 3c 97 5d 6d 3c 8d 22 a1 bd
       0.06568048 0.031182349 0.014487646 -0.07867918
0000f0 c9 a3 1f 3e d3 32 88 bc cb 39 00 00 38 62 20 be
       0.15589823 -0.016625797 2.0732e-41 -0.15662467
000100 65 73 00 80 b8 c4 b1 3e 3f 04 6c 3b 10 7a 16 3d
       -4.1396e-41 0.34720397 0.0036013273 0.0367375
000110 f2 21 10 3d 4b 7c 9e bd 22 49 18 3d 97 57 22 bc
       0.035188623 -0.07738551 0.03717912 -0.009908578
000120 44 9f a2 3d d6 c2 a7 3b e4 e4 25 3c 6a bc 16 3d
       0.07940534 0.005119662 0.010125373 0.03680078
000130 d7 22 2f 3d 68 da 2b 3d e3 8b e1 bb 21 59 c5 3d
       0.042757835 0.041956335 -0.006883131 0.096361406
000140 15 c2 40 3c 21 b1 23 be 85 f0 e8 3d 64 a1 23 bd
       0.011765023 -0.15985538 0.113740005 -0.039948836
000150 34 f9 d2 bd aa 61 ee bd 39 60 fb bb 4b 21 1c 3d
       -0.10301438 -0.11639722 -0.0076713827 0.03811769
000160 17 47 51 bc fc 53 c0 3a 4a 3d 84 bc a3 fd 39 bd
       -0.012773297 0.0014673467 -0.016142506 -0.045407902
000170 0b bd 4f 3c ab 07 08 3e 98 f9 22 bc 8b a9 01 00
       0.012679349 0.13284175 -0.009947203 1.52656e-40
000180 16 40 08 be 57 5f 00 00 79 8f 0e bd 22 d2 1a b9
       -0.13305697 3.4201e-41 -0.034804795 -0.00014764865
000190 0d 3b 07 3e 15 3c 1b 3d 55 b8 e8 bc b9 fc 09 3e
       0.1320612 0.037899096 -0.028408209 0.13475312
0001a0 53 28 6f bd f2 b4 0a be d2 58 c6 3b 10 cb d5 3c
       -0.058388066 -0.13545588 0.0060530687 0.026097804
0001b0 ef ed 09 be 89 c5 82 bd 1a d3 14 3d 61 b8 b3 bd
       -0.1346967 -0.06385333 0.036334135 -0.08775402
0001c0 f5 92 58 3d 80 fd 39 3c 28 b4 cd 3d 48 82 83 3e
       0.052874524 0.011351943 0.10044128 0.25685334
0001d0 d8 16 67 bd d2 c1 c7 bd 14 99 81 3d d7 ce 90 bb
       -0.05641827 -0.09753765 0.063280255 -0.0044191885
0001e0 a4 4f 4c bd c1 48 4f bd 93 ab e9 3b d2 5d be 3c
       -0.04988064 -0.050606493 0.007131049 0.023238096
0001f0 5b 60 04 bd c5 32 e0 bb c9 1f 00 3e 2a cd 8e bd
       -0.032318454 -0.0068419897 0.12512125 -0.06972726
000200 36 5a 00 80 8b ff fe bd e6 71 00 80 b6 87 19 be
       -3.2362e-41 -0.12451085 -4.0859e-41 -0.14993176
000210 0c f8 23 3c bc bc 10 3d 81 f2 ba bd f7 7c 5f 3d
       0.010007869 0.03533624 -0.09128285 0.054562535
000220 3c 2c b8 3d de 28 54 3e 7c dc 9e be cd b5 1c 3d
       0.08992812 0.20718715 -0.3102759 0.038259316
000230 e9 e4 94 3d 83 65 a6 bd 47 6a 03 3d e4 15 18 3c
       0.07270224 -0.081248306 0.032083776 0.009282563
000240 94 56 66 bc 87 d2 6f bb 13 c6 48 3d aa 5d a3 3b
       -0.014058728 -0.003659399 0.049017023 0.004985531
000250 3c c6 6b 3e 75 a6 5b be e9 18 d4 3d f3 e0 bf bd
       0.23024839 -0.21450217 0.10356314 -0.093690775
000260 6a af 4d 3c 5b 56 1a 3a 5b 25 20 3c e6 fa 2a 3c
       0.012554029 0.0005887502 0.009774531 0.010435795
000270 c7 56 57 3c a3 77 e9 bc 7b 60 ce 3d a9 4e 84 3d
       0.013143248 -0.02849943 0.10076996 0.06460316
000280 47 9c 64 3d 53 3b 01 80 99 a5 8a bd f6 81 00 80
       0.0558131 -1.13117e-40 -0.067698665 -4.6621e-41
000290 97 6e f2 3e d1 dd 0b 3d ce 58 d7 3d 66 24 1a 3d
       0.47349998 0.034147087 0.10514985 0.03763237
0002a0 d1 2a 6d bd 8c ef 10 3e f3 43 12 be 01 70 98 bd
       -0.05790216 0.1415388 -0.14283733 -0.07443238
0002b0 47 72 a9 3c 69 5d 20 be 25 e1 b3 3d 9e e9 78 bd
       0.020684374 -0.15660633 0.08783177 -0.06076967
0002c0 98 4f 43 bd c0 4f 03 3d c2 6b 47 bd e3 2f cf bc
       -0.04768333 0.032058477 -0.04868675 -0.025291389
0002d0 86 47 71 3d 02 93 14 3e 59 c8 40 bc 48 1b 04 bd
       0.0589061 0.14509204 -0.011766517 -0.03225258
0002e0 93 5c 85 bd 60 bd ed 3c 5e 38 c1 3c c5 fd e2 3c
       -0.06511798 0.029020965 0.023586448 0.027708897
0002f0 f4 ec 91 bc 19 b3 80 bc 2f c1 91 bd 47 03 5f bc
       -0.017813183 -0.0157104 -0.07116925 -0.013611621
000300 f3 8e b9 3d ad d1 b8 bd a2 5b 01 00 3d 52 b8 bd
       0.090604685 -0.090243675 1.24707e-40 -0.09000061
000310 bc c6 00 80 99 f1 07 3e 42 da 86 bd 2b 8e 64 3d
       -7.1292e-41 0.13275756 -0.06584598 0.055799644
000320 05 93 28 be 7a 2a 58 be 90 74 1b 3d af 03 06 3e
       -0.16462334 -0.21109954 0.03795296 0.13087343
000330 45 ec a3 bd b5 d8 e6 bc 2a 45 1c bd d4 a1 ad bd
       -0.08004049 -0.028179506 -0.038151897 -0.08478132
000340 fd 30 8e bc 43 61 29 3c 2f ea 0d bd 1d 8e ce 3d
       -0.017357344 0.01033813 -0.034647163 0.100857
000350 6c 66 f3 bc ba ef 40 3d a4 eb f3 bd b8 63 26 be
       -0.029711924 0.04710362 -0.11910179 -0.16248977
000360 57 70 73 bd 28 48 2f 3d b5 3c a8 3c 23 19 e4 3c
       -0.059433307 0.042793423 0.02053676 0.027844017
000370 1c a3 3c bc 86 2e 00 bc 11 33 97 3d 82 f6 48 3d
       -0.011513498 -0.007823592 0.07382787 0.049063213
000380 e3 fb a0 3b ff 90 28 3e 1e b1 71 bd 8e 06 02 00
       0.0049128397 0.16461562 -0.059006803 1.86022e-40
000390 77 72 27 be f6 75 01 80 19 88 f6 3d 41 53 d9 bc
       -0.16352259 -1.34152e-40 0.12037677 -0.026528956
0003a0 1c 40 05 bb 27 5f e5 bc d8 af 40 be f0 61 d1 3d
       -0.0020332402 -0.027999474 -0.18817079 0.10223758
0003b0 2e 48 72 be 6b e8 26 3d 3e 9b 37 bd c5 19 69 3d
       -0.23660347 0.040748995 -0.044825785 0.05690934
0003c0 57 ea 0f bd b7 5d 98 bc 6c 85 88 3c 6f df e1 3c
       -0.035135593 -0.018599374 0.016665183 0.027572362
0003d0 3b ef 34 bd 46 4b a1 3d c9 de 01 3d e1 78 db 3d
       -0.04417346 0.078756854 0.031706605 0.10716415
0003e0 75 b4 7d bc 4f 12 56 bd 40 fa 25 3b 34 3f 7d b8
       -0.015484919 -0.052263554 0.0025326163 -6.0378763e-05
0003f0 8b cc 87 bc 73 dd 83 bd ee 79 ad bd 0c 9c 98 3c
       -0.016577026 -0.064387225 -0.08470522 0.018629096

fcs1.bias f4 [256]
000000 e9 32 dd bd 7a f9 14 be cd 6c 08 be be f8 e8 bd
       -0.10800726 -0.14548293 -0.13322754 -0.11375569
000010 e4 5d 87 bd 55 19 ca bd 15 db 2d be aa 07 d1 bd
       -0.06609705 -0.09868113 -0.16978104 -0.1020654
000020 88 b7 8f bd bc 7b 19 be 36 46 c0 bc c6 49 11 be
       -0.07017428 -0.14988607 -0.02347098 -0.14188299
000030 11 58 81 bd cc 97 90 bd 83 85 43 bd d6 54 ce bd
       -0.063156255 -0.07060203 -0.04773475 -0.10074775
000040 a5 c4 4c be 98 a2 ff bd 04 fd 07 be 26 b8 bd bd
       -0.19996889 -0.12482184 -0.13280112 -0.09263639
000050 7f 62 21 3b 75 b1 16 bd f9 cb e4 bd 04 e3 df bd
       0.0024625359 -0.03679033 -0.11171717 -0.10931972
000060 1b a9 e1 bd aa 29 3b be 28 0d c5 bd 2a 87 29 be
       -0.110185824 -0.18277612 -0.0962165 -0.16555467
000070 56 39 a0 bd 08 c9 05 bd 40 17 f5 bd 50 d9 fb bd
       -0.07823436 -0.03266242 -0.11967325 -0.122973084
000080 21 58 3d be 7b 55 fb bd 4e 23 e6 bd 5e 13 b1 bd
       -0.1849065 -0.122721635 -0.112372026 -0.08646272
000090 03 16 19 be 63 d4 8a bc 52 07 8f bd c7 f6 da 3c
       -0.14949803 -0.016946977 -0.06983818 0.026729
0000a0 f4 78 20 be ba e1 a2 bc 54 94 77 bd e2 cf 01 be
       -0.1567114 -0.019883025 -0.06044419 -0.12676957
0000b0 b7 6f bf bc b7 a0 39 be f4 6b 98 bd 71 f1 43 be
       -0.0233687 -0.18127714 -0.074424654 -0.19135071
0000c0 d1 bd 30 3c a3 59 cb bd 24 f0 ce bd 77 db c1 bd
       0.010787443 -0.09929206 -0.10104397 -0.09465688
0000d0 b4 68 5d be 9c b3 a8 bd 5f 4e 33 be 6a 3c 13 be
       -0.21621972 -0.08237383 -0.17510365 -0.14378515
0000e0 ea f8 74 bd f0 f2 8b bd f4 ac 73 bd 71 28 d2 bd
       -0.059807695 -0.06833446 -0.059491113 -0.1026162
0000f0 00 4a e1 bd 18 9e 82 bd aa 2e 25 be c2 0a 35 be
       -0.110004425 -0.0637781 -0.16131082 -0.17679885
000100 16 70 0f be df 75 1a be 52 03 1b bc 3e ae e7 bd
       -0.14007601 -0.15084027 -0.009461241 -0.11312531
000110 c3 39 64 be 2c 88 a5 bd 72 db b9 bd 16 a8 b4 3b
       -0.2228766 -0.08082613 -0.09075059 0.0055132015
000120 d1 ba df bd 5b 18 1e be b9 5e ab bc 4c b4 b8 3d
       -0.10924304 -0.15438978 -0.02091919 0.09018764
000130 e8 48 7a bd bc 55 95 bd 66 59 85 bd 06 f2 15 be
       -0.061104685 -0.07291743 -0.06511192 -0.14643106
000140 6c ba a9 bc 8c f0 bf bd 77 74 ef bd 7f 4f c3 bd
       -0.020718776 -0.093720526 -0.11692136 -0.09536647
000150 19 73 da bd 0f 22 aa bd 09 87 0f be 1f 7d b2 bd
       -0.106664844 -0.083072774 -0.14016356 -0.08715271
000160 03 71 ed bd 28 57 fd bd d8 be 55 bd a6 10 b3 bd
       -0.11593821 -0.12370139 -0.052183956 -0.0874341
000170 40 86 15 be f9 33 28 be bd e6 0a be 90 b0 14 be
       -0.14601994 -0.16426076 -0.13564582 -0.14520478
000180 ab 9f 87 bc b8 be 47 be bc 00 0b bd cc 5f f7 3c
       -0.016555628 -0.19506347 -0.033936247 0.030197047
000190 ab c7 9c bd 08 5c bb bd 0b 2a 0d bd a9 92 08 be
       -0.07655271 -0.09148413 -0.034463923 -0.13337196
0001a0 92 7e 37 be 1d aa 54 bc a4 52 b9 bd 2a 30 cc bd
       -0.17919376 -0.012980011 -0.090489656 -0.09970124
0001b0 49 7f aa bd 69 a5 52 bd 88 99 c4 bd e4 c7 60 bd
       -0.08325059 -0.05142728 -0.09599596 -0.05487813
0001c0 bc 63 b2 bd f0 94 ad bd 6b ca ce bb 06 63 f2 bc
       -0.08710429 -0.08475673 -0.006310751 -0.029588234
0001d0 61 b9 b5 bd 17 62 04 be 04 1a d1 bd 1c 28 bd bd
       -0.08873249 -0.12928043 -0.1021004 -0.09236166
0001e0 f2 c6 b3 bd 6f 8e f1 bd 8f 9e 0a bd cc f4 cf 3a
       -0.0877818 -0.11794745 -0.03384262 0.0015865802
0001f0 51 63 2e be c3 dd 52 3d cd a6 67 3d e9 89 b4 bd
       -0.17030074 0.05148102 0.056555558 -0.08815367
000200 3c 3a ac bc 26 71 d9 bc d8 11 bb 3c ef 0c 0e 3c
       -0.021023862 -0.026543211 0.022835657 0.008670076
000210 fa 66 30 bd fe 0d e4 3b ea 1d 27 be 53 1d 0d be
       -0.043066956 0.006959676 -0.16320005 -0.13780718
000220 7c 93 f7 bd 9b b2 a4 bd ea 67 06 be 30 91 46 3c
       -0.12088677 -0.08041879 -0.13125578 0.012119576
000230 bd 89 b2 bd 49 20 d2 bd 6a 2d d6 bd 05 07 96 bd
       -0.08717678 -0.10260064 -0.10457881 -0.073255576
000240 22 74 00 3d 34 46 74 bd 23 ef e5 bd 8c 83 b4 bd
       0.031360753 -0.059637263 -0.11227252 -0.08814153
000250 05 88 e4 bd 39 24 cb 3c 19 e7 59 bd 0a 00 d7 bd
       -0.11158756 0.024797546 -0.053198908 -0.10498054
000260 23 16 f2 3c e9 1f b0 bd 3a fd d3 bd 8e 98 21 be
       0.029551571 -0.085998364 -0.103510335 -0.15780851
000270 83 10 1f be ba e0 a8 bd c9 c7 3f 3a e4 e3 37 bd
       -0.15533642 -0.08245988 0.0007315842 -0.044895068
000280 e0 b8 81 bd 7c da f9 bd 55 7f 2c be 5a 35 48 3a
       -0.0633409 -0.12199876 -0.16845448 0.00076373445
000290 71 63 90 bd c4 42 e8 bd cc 1e 96 bd dd 67 24 be
       -0.07050217 -0.113408595 -0.07330093 -0.16055246
0002a0 63 21 3b bb 8d d5 31 3d 78 80 e2 bd 0d db 8b bd
       -0.0028553836 0.04341655 -0.1105966 -0.0682889
0002b0 5a e1 49 bd 3c a1 f3 bd 7b 79 6d be 2e d3 c5 3b
       -0.049287178 -0.118959874 -0.23190872 0.0060371375
0002c0 ae 68 2d 3c de 1b 2d bd 96 2a be bc fc 23 19 bd
       0.01058404 -0.042262904 -0.023213666 -0.037387833
0002d0 8b cd d1 bc b5 51 6d bd 8e ef be bd 53 9e bf bd
       -0.025610706 -0.05793925 -0.09323035 -0.0935637
0002e0 67 af 09 bd 66 1b b9 bd 4d 2f aa bd 15 ba ab bd
       -0.033614542 -0.09038429 -0.08309803 -0.08385102
0002f0 5b d2 26 be 57 61 99 bd f6 58 97 bd 22 2b 07 be
       -0.16291182 -0.07489269 -0.07390015 -0.13200048
000300 a3 58 6e 3d 48 ed 01 be 20 0e f7 bc f0 d7 e3 bd
       0.05819 -0.12688172 -0.030158103 -0.11125171
000310 19 5f ab bd 0f fe 36 be 00 60 c3 bc fd 24 8e bc
       -0.08367748 -0.17870353 -0.023849487 -0.017351622
000320 be 45 d7 bc ba 3c f3 bc be 01 0b be 48 8a 96 bc
       -0.026278373 -0.029692043 -0.13574883 -0.018376485
000330 67 6d fd bc 9d 0c 96 bd 1e fe 86 bd 97 a5 37 be
       -0.030935956 -0.073266245 -0.06591438 -0.17934261
000340 58 ad 50 bd 7b 72 b0 bd 99 c8 c2 bc 9a d1 6f bd
       -0.050946563 -0.086155854 -0.023777293 -0.0585495
000350 06 06 9d bd 19 35 ba bd 23 36 9b bd dc ea 04 bc
       -0.076671645 -0.09092159 -0.07578685 -0.008112635
000360 be 11 0c be 84 47 7f bc ab 98 9d 3d a0 dd 12 3c
       -0.13678643 -0.0155810155 0.07695135 0.008963972
000370 11 f6 58 bd 33 b2 67 bd 61 9e c1 bd a7 50 4a bd
       -0.052969042 -0.05656643 -0.094540365 -0.049393322
000380 b7 1a 1e bd d0 8d ab bc 35 4d 68 bd fa 3e 19 3d
       -0.038599696 -0.020941645 -0.056714255 0.037413575
000390 d7 c8 bc 3c 84 05 c1 bc 9d 8d 9a bd 8a 5b 86 bc
       0.023044987 -0.0235622 -0.07546542 -0.016401071
0003a0 08 c9 23 be 62 52 1c be 39 f9 98 bd 35 89 08 bd
       -0.15994656 -0.15265802 -0.074694104 -0.033333976
0003b0 53 1e 30 3d 9b d8 b1 bd 25 70 75 bd b5 a3 c5 bc
       0.04299767 -0.08683892 -0.059921402 -0.024125913
0003c0 e2 83 d4 bc 65 3b 27 be 5f 91 1c be 9c 46 b9 bd
       -0.025941793 -0.16331251 -0.1528983 -0.09046671
0003d0 ca 15 84 be bd 7b ba bd 52 96 68 3c 72 09 03 be
       -0.25797874 -0.091056325 0.014195995 -0.12796572
0003e0 94 26 b4 bb e8 24 bb bd 03 32 38 be 8f e7 a8 bd
       -0.005497763 -0.09137899 -0.17987828 -0.08247291
0003f0 38 33 18 be 87 65 59 bd 08 6c e4 bd da e2 df bd
       -0.14863288 -0.05307534 -0.11153418 -0.109319404

fc2.weight f4 [256, 260]
000000 9c da de bc 9b 7e 18 3c 26 cf 42 3d f8 fa c2 bc
       -0.02720385 0.009307529 0.047560833 -0.023801312
000010 fa 64 72 3d 70 c5 49 bd 80 70 a3 3c cb fb aa bc
       0.05917833 -0.049260557 0.019951105 -0.020872017
000020 76 85 e0 bc e1 6c db 3c 07 05 4c be 88 e3 e7 bc
       -0.02740739 0.026785316 -0.19923793 -0.028306738
000030 0b 1e f4 bc c9 e5 de bd 26 0a 6a bd ce ae 82 3c
       -0.029799482 -0.10883672 -0.057138585 0.015952494
000040 e3 fa 95 bc 9f 9f 92 bd 5e e4 ed 3c 6b 38 30 bd
       -0.018308109 -0.071593516 0.029039558 -0.043022554
000050 8b d8 b5 3c c0 39 a5 bc a2 7f 0e 3b 1c 96 c4 3d
       0.022197982 -0.020169139 0.0021743556 0.095989436
000060 1c 76 87 3d 91 31 9d 3b 12 46 36 3c dd 20 35 3d
       0.066143245 0.0047971685 0.0111251045 0.044220794
000070 86 cd 16 3d 80 99 b9 bc f4 d5 c2 bb ab d1 8e bb
       0.036817096 -0.022656202 -0.0059459154 -0.0043584905
000080 ee 95 63 bd f1 0a 4f 3c 1c 4c b0 3d ee be a9 bc
       -0.055562906 0.012636886 0.08608267 -0.020720925
000090 fe 51 32 bd ff 42 3c bd 79 2e 1f bb 6e 0e c3 3d
       -0.043535225 -0.04596233 -0.0024289174 0.095242366
0000a0 e9 ba 0b bd 90 8d 02 be d9 36 68 3d 92 4d ab 3c
       -0.0341138 -0.12749314 0.05669293 0.020911012
0000b0 fd 8e 5c bc 8f b8 0b bd d1 76 49 3d b1 9a e0 3c
       -0.013461825 -0.034111556 0.049185578 0.027417513
0000c0 8a 1d 45 bd 30 35 df bc 6f b3 66 bc ac 6e f6 3b
       -0.048123874 -0.027247041 -0.014080866 0.0075205173
0000d0 86 14 09 bd 4c 50 3f bb 58 38 2f bc 88 e3 3f 3c
       -0.03346684 -0.0029192148 -0.010694586 0.0117119625
0000e0 03 3e 4c bb 9c cc d1 bc aa ec f5 bd 19 8d a2 bc
       -0.0031164892 -0.02561026 -0.12008031 -0.019842671
0000f0 5a 32 3e bd e4 9d a1 bc 1f 28 48 bd b8 88 28 3d
       -0.046434738 -0.019728608 -0.048866387 0.04114601
000100 59 97 17 bd c8 a8 bc bd c9 58 d9 bd 8d 92 bd bd
       -0.03700957 -0.0921188 -0.106126375 -0.09256468
000110 16 6b 59 bd 4a a0 08 3e be 67 2a bd be 23 8d bc
       -0.05308064 0.13342395 -0.041602843 -0.017228957
000120 55 02 7c bd af 10 07 3c c2 57 db bd bb 8c 01 be
       -0.06152566 0.008243724 -0.10710098 -0.1265134
000130 c0 6a a0 3d 76 d2 3d bd 9c 01 90 3d b5 84 a7 3a
       0.07832861 -0.04634329 0.07031557 0.0012780639
000140 f0 7d e0 bb 60 74 37 bd bd de 0a bd fe f4 a8 bd
       -0.0068509504 -0.04478872 -0.033903826 -0.082498536
000150 37 d2 aa bd 0b ba 12 bd 65 7f ef 3a a9 c8 9b 3c
       -0.083408765 -0.035821956 0.001827222 0.01901658
000160 04 3f c7 bb 0b b0 a0 bc 5b bc 95 3c 42 5f 5e bd
       -0.00608051 -0.019615194 0.018278291 -0.054290064
000170 f2 dc 26 bc 8d 2d 00 3e 58 5d 3b 3d d0 69 22 bd
       -0.010184513 0.12517376 0.045743316 -0.039651692
000180 44 d3 16 bd f8 f9 93 bc 70 92 0b bd 92 10 fe bd
       -0.036822572 -0.01806353 -0.0340752 -0.12405504
000190 ff 19 49 bc 4e dd 88 3d cd 9c 28 bd 80 ba 93 3b
       -0.012274264 0.066828355 -0.041165162 0.0045083165
0001a0 86 aa 3f bd 9d cd 4f bc 0b 95 36 3c 2f 6e f7 bc
       -0.046793483 -0.012683299 0.011143933 -0.030203907
0001b0 0e 96 c1 bd fd 43 a1 3c 7b 0c a1 bd 86 3a 36 3c
       -0.09452449 0.01968574 -0.078637086 0.0111223515
0001c0 27 e4 19 bd a7 83 c7 bb ea 81 87 3d 72 8f 9a 3c
       -0.0375711 -0.006088692 0.06616576 0.018867228
0001d0 18 a6 0f 3d 49 c3 1f bc 93 26 49 3d 7e 80 ed 3c
       0.03507051 -0.009751149 0.049109053 0.028991934
0001e0 ef 84 c3 3c d1 cc 5a bd be 6c 8f 3d 0d f8 e9 3d
       0.023867099 -0.053417984 0.07003163 0.11424265
0001f0 d8 31 12 3d 35 81 40 be 14 0a 22 3d d0 b4 ea 3b
       0.035692066 -0.18799289 0.039560392 0.007162668
000200 58 2f 05 be f2 b6 13 bd 83 95 4c bc f7 a6 2b be
       -0.13006341 -0.036063142 -0.012486818 -0.16762911
000210 2c 6f cf 3c 8c 66 31 bc ed ff a0 bd 34 5f 24 3c
       0.025321566 -0.010827672 -0.07861314 0.010032464
000220 6d 10 b6 bc 40 2d 62 3d ad 75 8c 3d 5f 20 b8 3d
       -0.02222463 0.055218935 0.068583824 0.08990549
000230 b0 9e 50 3b de 74 9c 3a 32 b2 94 bb 6c 18 5a 3d
       0.0031832866 0.0011936685 -0.004537844 0.053245947
000240 16 8b 83 3c 20 c5 3b 3d 0c 0a 90 bc b5 1f 75 bd
       0.016057532 0.04584229 -0.017582916 -0.05984469
000250 1e 37 f2 3c 92 5b 10 bd b5 38 a0 3c 09 dd d5 ba
       0.029567298 -0.03524358 0.01955829 -0.0016316484
000260 56 a7 a4 bc af d5 5e bb f6 e8 47 3c 0e 5f 13 bd
       -0.020099323 -0.0034001877 0.012201538 -0.035979323
000270 cd a1 55 3c 03 07 25 3c 8f 9b 36 3a 85 d7 2e bc
       0.013039065 0.0100724725 0.0006965929 -0.010671501
000280 b3 8c 0d 3c ea 16 91 bc ef 4f 7a bc 9f 23 da 3c
       0.008639502 -0.017711122 -0.015277847 0.026628314
000290 09 61 cf bd 50 e0 a8 bc 27 ad d5 bd 31 9f 38 bd
       -0.1012593 -0.020614773 -0.10433417 -0.04507369
0002a0 6d b0 c0 bc 44 ac 52 3d b1 b4 b0 bb 92 4b 40 3d
       -0.023521626 0.051433817 -0.005392634 0.04694707
0002b0 4e c1 4a 3d d0 16 b5 bd 48 d3 dd 3c 54 c0 f7 bc
       0.049500756 -0.08842242 0.027078286 -0.030243076
0002c0 89 74 99 3d cb 4a ce 3c 86 25 0a bd 19 57 22 bd
       0.074929304 0.025182148 -0.03372719 -0.039633844
0002d0 07 7c 9b 3d 1d 13 4b bd 7f a3 7f bd 62 ca 68 3c
       0.07592016 -0.049578775 -0.06241178 0.014208408
0002e0 7c b8 a6 3c 05 5f 92 bd 32 83 f8 3b 6f 12 b7 bc
       0.02035164 -0.0714703 0.007583999 -0.022347657
0002f0 7f 25 56 3d 17 c3 cc bc 9a 78 f9 3c f1 68 18 3b
       0.052281853 -0.02499537 0.030453015 0.002325591
000300 db ac e1 bd 5a d7 c3 bd 80 52 4c 3d e0 1a f6 3b
       -0.11019298 -0.095625594 0.049883366 0.007510528
000310 6c 26 aa 3c a3 eb 96 bd 3e 21 ce bd dd a5 ab 3c
       0.020770274 -0.07369163 -0.10064934 0.020953113
000320 40 7e 4f ba 32 08 15 bd ef d8 fb 3d 96 e6 a0 bc
       -0.0007915236 -0.03638477 0.12297236 -0.019641202
000330 f5 4c 30 3d ad 35 af bc a4 fb 73 3d 89 7e af 3d
       0.043042142 -0.0213879 0.059566155 0.085690565
000340 3b e5 20 bd fa 30 aa bd be a4 6e 3d 2e 90 86 3c
       -0.03928111 -0.08310123 0.05826258 0.016426172
000350 48 9a 98 bc a6 4c 74 3b bc b9 58 bc b3 87 55 3d
       -0.018628255 0.0037277131 -0.013227876 0.052131366
000360 f2 83 fb bb c5 98 f0 bb a1 46 b5 3b 59 b4 49 3d
       -0.007675641 -0.0073424303 0.0055321013 0.04924426
000370 f1 16 b5 bb 64 9f 5b 3d 41 f1 4b 3d dc 92 5b bd
       -0.0055264165 0.053618804 0.049790625 -0.053606853
000380 d8 c5 d6 bc 4c 4f b6 3b 3a 34 79 bd 56 31 90 bd
       -0.026217386 0.005563652 -0.060840823 -0.0704066
000390 52 c4 f2 3c a8 fb 6a bd 1b ce ce 3c 54 e8 13 be
       0.029634628 -0.057368904 0.025244763 -0.14444095
0003a0 f3 ad 75 3d 8e 34 70 3d 26 8a f4 bc ac 8d 70 3d
       0.059980344 0.05864387 -0.02985103 0.05872886
0003b0 a8 1d c3 bb 3c 21 af bc 66 7a b5 3d 05 16 8a 3d
       -0.005954463 -0.021378152 0.08861236 0.06742481
0003c0 9b 0f 24 3d 16 ea 21 3d 2a 12 7c bd 9a 0a 34 3c
       0.040053945 0.039529882 -0.06154076 0.010988856
0003d0 f9 96 ba 3d 2a 80 34 bd 75 59 b1 bd 04 15 10 3d
       0.09110827 -0.04406754 -0.08659641 0.035176292
0003e0 6d 2a 82 bb c1 48 b8 bc 72 f8 6f bd 76 7a 98 3d
       -0.0039723427 -0.02249563 -0.058586545 0.074452326
0003f0 c9 5a 99 bd 8f 59 50 bb 57 01 69 3c 6e ad d4 3d
       -0.07488019 -0.0031791662 0.014221511 0.103846416

fc2.bias f4 [256]
000000 20 10 27 bd 0b 71 b1 3c eb f0 a0 bd db 3c 47 be
       -0.040786862 0.021660348 -0.078584515 -0.19456808
000010 31 0f 2e bd 7a 7b c2 bc eb a5 fa bc 46 d0 10 bd
       -0.042494956 -0.023740519 -0.030596694 -0.035354875
000020 5d 59 ed bd 6e 36 8a bd b7 20 b0 3d fb 19 13 be
       -0.1158931 -0.06748663 0.0859999 -0.1436538
000030 30 72 3f 3d fc 67 4d 3d e9 26 dc bd 29 9a 2e bd
       0.046739757 0.050147995 -0.10749609 -0.042627487
000040 35 83 0b bd 86 4d 21 3e 9d 0f fd bc b8 d0 1e be
       -0.034060676 0.15752229 -0.030891234 -0.15509307
000050 bc a5 f4 3b 9b 00 fa 3d a4 d7 49 bd 25 3a 1a be
       0.007466046 0.12207147 -0.049277917 -0.15061243
000060 1e 01 d7 3d 37 98 88 bd 92 80 b2 bd f2 7d 24 bd
       0.1049826 -0.06669658 -0.08715929 -0.040159173
000070 ae 1c 10 be 65 75 e7 bd 36 af 15 be cb 07 3e be
       -0.1407344 -0.11301688 -0.14617619 -0.1855766
000080 f5 e5 32 bd 14 7d b4 bd e3 af 47 3c 3a 93 92 3b
       -0.043676335 -0.08812919 0.012187931 0.004473117
000090 7b 4c be 3d 7e 18 2e be 05 c1 ff 3d bb 30 2e bd
       0.09291931 -0.1700153 0.124879874 -0.04252694
0000a0 d7 42 f8 bc bd 1e 38 bc 70 d0 fb 3c 01 ec 33 bc
       -0.03030531 -0.011237797 0.03073904 -0.010981561
0000b0 50 d0 83 3c 5a c9 8d bd 27 03 61 3d e9 b6 f8 3d
       0.016090542 -0.069231704 0.054934647 0.12144262
0000c0 2a f9 d4 3d 38 cf c4 3d f9 7c 03 be 12 a5 58 bc
       0.10399087 0.09609836 -0.12840642 -0.01322295
0000d0 72 21 c4 bd 66 7e c1 bc 55 30 40 be 02 06 e0 3d
       -0.09576692 -0.023619842 -0.18768437 0.10938646
0000e0 e1 c8 69 bd 2c 64 9e bd 36 71 67 3d 77 27 df bc
       -0.05707634 -0.0773395 0.05650445 -0.027240498
0000f0 37 be aa bd 84 95 e3 bd 74 6c b3 3b 60 33 26 bc
       -0.08337062 -0.11112502 0.005475575 -0.010144085
000100 83 ce bf bd 81 8f 8d 3d d6 09 27 be cd 28 82 3d
       -0.09365561 0.06912137 -0.16312346 0.063554384
000110 cd b4 a0 bc 3f 4b 73 bd d4 51 ab 3d d0 f6 94 bd
       -0.019617463 -0.059397932 0.08365217 -0.07273638
000120 a4 5c 2d bd 0f 1a ec bd e2 ab 71 bd c7 d4 92 bd
       -0.042324677 -0.11528408 -0.05900181 -0.0716949
000130 3f fd 42 bd 0c bf 7a bd 4d 16 d6 bd 39 ba 25 be
       -0.047604796 -0.061217353 -0.10453472 -0.1618432
000140 92 10 a1 3d 57 df aa bc 1f 5d 2c 3e cf 57 93 bd
       0.07864489 -0.02085845 0.16832398 -0.071944825
000150 ad e9 b1 bd 10 a5 82 3d 0f 88 a9 3d fc 26 d4 bc
       -0.08687148 0.063791394 0.08277904 -0.025897495
000160 4f db 01 bd a6 e6 ef 3d 69 81 72 bc f7 87 51 3d
       -0.03170329 0.117139146 -0.014801362 0.051155057
000170 ed 8b e9 3b e8 d5 95 3d eb 42 f9 bc 49 31 a8 3d
       0.007127276 0.0731619 -0.030427417 0.082125254
000180 73 84 b3 bc 81 08 a5 3c e6 e5 ca bd 46 81 83 bc
       -0.021913743 0.020145657 -0.09907131 -0.016052853
000190 ca 69 36 be 50 02 bd 3d 2c 67 64 3d ac 72 52 be
       -0.17813793 0.09228957 0.055762455 -0.20551556
0001a0 a9 af 3d 3d 70 b7 ea 3d fc 92 e7 3d ba c7 9b 3d
       0.0463101 0.11460769 0.11307332 0.07606454
0001b0 49 07 ae bc 08 c1 39 be 2d 24 3d 3d 49 17 21 3d
       -0.021243708 -0.18140042 0.046177078 0.039328847
0001c0 56 3b 23 3d 7e 1f 29 be e0 52 17 be 7d a0 1e be
       0.03985151 -0.1651592 -0.14777708 -0.15490909
0001d0 21 44 85 3d 56 24 44 be 89 6e da 3d 3c be 0c 3d
       0.06507135 -0.19154486 0.10665614 0.03436111
0001e0 1d f7 bb bd 9b ff fa bb 8f b5 a1 3d 50 18 15 3d
       -0.091779925 -0.007659865 0.07895958 0.03640014
0001f0 cb 65 55 3a c5 98 67 3d d6 31 38 bd 79 97 d1 3d
       0.00081404735 0.056542177 -0.044969402 0.10233969
000200 a9 73 44 3d f1 66 10 be e2 1b 8c bd 42 80 18 bc
       0.047961865 -0.14101769 -0.06841256 -0.009307923
000210 20 b2 08 3d 06 72 30 bd af 0d e6 3d c5 26 b6 bd
       0.033373 -0.04307749 0.11233079 -0.088941135
000220 b2 fe 0d 3d 56 0f 06 be 82 38 3b 3d 97 88 de bd
       0.034666725 -0.13091788 0.045708187 -0.10865896
000230 a8 52 3a 3d e1 5b 93 3d de 74 dd bc c2 df 0f bd
       0.045488983 0.07195259 -0.027033266 -0.0351255
000240 4e 96 1d be 92 4f 93 be 37 85 d2 bc 31 b3 55 3c
       -0.15389368 -0.28771645 -0.025698287 0.013043211
000250 d6 2a 52 3d 2c 46 2e 3d 0f c8 93 3d cd 84 bf bd
       0.051310383 0.04254739 0.072158925 -0.093515016
000260 d4 ae c2 3c 11 4e 15 be 93 1b 8b bd a2 c2 a0 3d
       0.023765005 -0.14580561 -0.06792369 0.07849623
000270 0e 7f c6 3c ef 71 a6 3c c3 f9 ec bd 64 3f 8d bd
       0.024230506 0.020318 -0.11571076 -0.068968564
000280 c2 89 ae 3d eb 0a a4 bd 24 46 04 3d a3 a2 27 3d
       0.08522369 -0.08009895 0.032293454 0.040926587
000290 ab 13 88 3d 34 b7 2f bd 38 1b 85 bd 35 ef 58 3d
       0.06644376 -0.042899325 -0.06499332 0.0529625
0002a0 cf 50 1e be 41 e6 70 bd e5 de 0f be c6 6a aa 3d
       -0.15460514 -0.058813337 -0.14049871 0.08321147
0002b0 0a 4e 3c bc a6 db 2b bd 28 bd f8 bd 0d 11 1e 3d
       -0.011493215 -0.04195752 -0.12145454 0.03859048
0002c0 d9 f5 45 be 3f b9 01 3c bb 3e 8c bd 5d 92 e5 3d
       -0.19332065 0.007917701 -0.068479024 0.11209557
0002d0 44 04 6f bd 66 ab b7 3d d2 d0 83 3d 2d 7d 23 3d
       -0.058353677 0.089682385 0.06436314 0.0399143
0002e0 82 a9 13 be 0c 49 81 3c b8 b5 d1 bd 41 01 fa 3c
       -0.14420131 0.015781902 -0.10239738 0.030518176
0002f0 4a 66 cb bc c8 e1 10 bd 6f bd 54 bd ec fa 8b bd
       -0.024829049 -0.03537157 -0.05193847 -0.06834969
000300 36 bd 01 3e 2d 06 51 bd a2 ad 44 be a5 58 93 3d
       0.12669834 -0.05103128 -0.1920686 0.07194642
000310 64 5e 1d bd db c9 0a 3d 7d aa 6b 3d 8a fe ca 3d
       -0.038420096 0.03388391 0.057535637 0.09911831
000320 93 80 37 bd 83 f4 b7 3d 1e bc 49 bd fb 30 de bc
       -0.044800352 0.08982184 -0.04925167 -0.027122965
000330 cb 36 f9 3d 31 41 b7 3a f9 37 6b bc 4b 75 a0 bd
       0.12168654 0.001398122 -0.014356607 -0.07834872
000340 23 13 01 3e 2b 6d 00 be 96 ed cc 3d bd 27 0c 3e
       0.12604956 -0.12541644 0.100062534 0.13687034
000350 c8 e9 1e bc 7c 6b 69 3d c3 11 87 3b b9 4a b9 3c
       -0.0096992925 0.05698727 0.0041219904 0.022618638
000360 71 31 7a 3d 2d 93 c7 bd ae d8 52 3d ba 78 c1 bc
       0.061082307 -0.097448684 0.051476173 -0.023617137
000370 f7 d5 0b be 11 bd 36 be 11 d0 48 bd b2 3f 11 3d
       -0.1365584 -0.1784556 -0.049026553 0.035461135
000380 d9 10 38 3e 49 68 21 3c 5a 6f 1c 3e 09 78 ca 3d
       0.17975177 0.009851524 0.15276852 0.09886176
000390 71 f6 4a bd a9 7b 33 3d 9d 67 f3 3d fe c6 cf 3d
       -0.04955143 0.043819103 0.11884997 0.101453766
0003a0 1c 5f 30 bd e4 71 8c 3d a7 84 9c bd 6d 8e 0e 3b
       -0.043059453 0.068576604 -0.07642489 0.0021752373
0003b0 a3 ce 0d 3d 3d 80 ed bc cb ea e6 3c 5f 6a 86 3d
       0.034620892 -0.028991813 0.02818813 0.065632574
0003c0 68 d4 a3 3d 2c af 92 bd 74 1d dd 3d 45 0a ba bd
       0.07999498 -0.07162318 0.10796633 -0.0908399
0003d0 02 5d 0f 3e 7c 72 06 3d 7f 4e 69 3d a4 ae 61 3b
       0.14000323 0.032824025 0.056959625 0.003443637
0003e0 ec 4a 07 be b8 22 17 be 97 4b 66 3d 5b 35 f1 3d
       -0.13212174 -0.14759338 0.05622443 0.11777755
0003f0 6f 5e a1 3d 24 93 73 3d ef 70 82 3d cd 4d f2 3d
       0.0787934 0.059466496 0.063691966 0.118312456

fc3.weight f4 [128, 256]
000000 88 fc 08 bd c5 26 bc bc 8a ff e8 bc a0 e3 15 be
       -0.033443958 -0.022967706 -0.028442163 -0.14637613
000010 e0 94 22 3c 04 36 46 bd ad 2b 60 3c cc f7 69 bc
       0.00992319 -0.048391357 0.013682288 -0.014280271
000020 be f9 fc ba a5 ad 23 3d 89 18 2d bc 4a 67 e6 bd
       -0.0019300503 0.039960522 -0.010564932 -0.112501696
000030 11 a6 95 bb 51 6b 47 3d c7 33 1d bb db 82 df 3c
       -0.004566916 0.04868633 -0.002398716 0.027284076
000040 b5 c5 82 bd 26 d9 a0 3c 7c 93 f8 3b 22 da 97 bc
       -0.06385366 0.019634794 0.007585941 -0.018536631
000050 56 f1 28 3d 51 a0 bb bc 12 19 82 bc b1 11 8f bd
       0.04124578 -0.022903593 -0.015881095 -0.06985796
000060 38 7a 4e bb 5d 28 9d bc 0c 79 45 3c dc 14 9e 3c
       -0.0031505954 -0.019184286 0.012052786 0.019297056
000070 6b 25 ec bb fd 18 90 bd fd ca 17 3c 9e 7d c4 bd
       -0.007206609 -0.07036016 0.009264705 -0.09594272
000080 80 ca 23 3d bf 7f 8c 3c 18 bf de 3c 58 d9 81 bd
       0.03998804 0.017150758 0.02719073 -0.06340283
000090 5a 87 b8 bc eb 97 9e bc bb 7c 1a 3d 80 be 5a bd
       -0.022525478 -0.01935955 0.03771661 -0.05340433
0000a0 f0 54 2d bd a3 86 38 bd 2f 44 73 bd 7e 8f 70 3d
       -0.04231733 -0.045050275 -0.059391197 0.058730595
0000b0 ae 91 42 3d 74 ce 07 bd 02 6a 91 3c da 8a 6f 3d
       0.047502212 -0.033155873 0.017750744 0.05848203
0000c0 a7 3d 6b 3d 89 2b ad 3d c6 38 02 bc d0 c4 f3 bc
       0.057431843 0.08455569 -0.007948106 -0.029756933
0000d0 32 8a 04 bd 6e 63 07 3d 0e 30 b2 3c db 83 70 3d
       -0.032358356 0.033053808 0.02175143 0.058719497
0000e0 be 47 4b 3d c5 cc 88 bd 07 f9 26 3d 05 89 19 bd
       0.049628966 -0.06679682 0.040764835 -0.037484188
0000f0 0b 76 01 b9 a0 21 38 3d 43 cd 42 3c 63 ee 47 bd
       -0.00012346373 0.044953942 0.0118897585 -0.048811328
000100 25 93 ac 3d 58 6c 0d 3d c1 0b 8d bd 57 fd 0f 3d
       0.08426503 0.034527153 -0.068870075 0.035153713
000110 27 12 2f bb 10 7f 48 bd f9 1d 97 3d e5 34 ba bd
       -0.00267137 -0.0489493 0.07378764 -0.0909212
000120 a0 6f 9e 3b c6 72 a2 bd 8f 2b a9 bc 0b 14 06 be
       0.004835084 -0.079320475 -0.020650653 -0.13093583
000130 77 92 ca bd 06 1c b3 bc 2a 7f c1 bc 2d 7e 22 bd
       -0.09891217 -0.021863949 -0.023620207 -0.03967111
000140 75 3b ce bb 56 8d a4 bd b4 0b 57 3c f4 9f aa 3c
       -0.006293709 -0.0803477 0.013125349 0.020828225
000150 77 be e0 3b 64 9e 8b 3c 94 b0 48 3d 3b 5b 20 bd
       0.0068586427 0.0170433 0.048996523 -0.039149504
000160 79 da 6d 3c a2 58 17 bd 37 a0 06 bd b2 e5 8c 3d
       0.01451742 -0.03694976 -0.032867637 0.068797484
000170 84 3b f0 bc 87 91 cf 3c bf be d4 bc 2f 77 9b bc
       -0.029325254 0.025337948 -0.025969861 -0.01897773
000180 28 9a 48 3d 28 00 69 3d 40 aa c8 bb 2e 8d 92 3c
       0.04897514 0.056884915 -0.006123811 0.017889585
000190 49 91 86 3c 40 c8 18 3d 64 bd 75 bc aa be 1e bd
       0.0164267 0.03730035 -0.0149987675 -0.03875605
0001a0 5c 45 7e bc 06 52 46 3d 1f 73 f4 3c b3 78 0a 3d
       -0.015519466 0.048418067 0.02984005 0.033806514
0001b0 a1 b3 9e 3c bf b5 85 3b 97 8a 9b 3d c0 1e 07 3c
       0.019372763 0.0040805037 0.07594793 0.008247077
0001c0 4f 87 da 3c e5 68 1f 3e 6f e0 69 bd 07 66 d3 3b
       0.026675848 0.15567358 -0.057098802 0.0064513716
0001d0 4f 39 a0 ba ab b7 2c 3c 25 1f 83 bc 51 8e 56 3d
       -0.001222411 0.010541837 -0.016006062 0.052381817
0001e0 13 5e 81 bd 52 bf 05 3d 5f 58 03 bd 30 cf 2f 3c
       -0.06316771 0.03265316 -0.0320667 0.01073055
0001f0 c5 70 06 3b b1 6a 5c bc f5 dc d0 bc 03 c9 a4 bc
       0.0020513993 -0.013453172 -0.025495986 -0.020115381
000200 ca a8 68 bc 80 86 03 bd 94 c7 e9 bd 59 50 44 3d
       -0.014200399 -0.03211069 -0.1141502 0.047928188
000210 72 64 1f 3d e9 67 54 bd 05 93 66 bd 73 16 95 bc
       0.03891415 -0.05185691 -0.056292553 -0.018199181
000220 67 77 23 3d 5a 5b ad bb 9a f3 e6 bc 45 6c f0 bc
       0.039908793 -0.005290431 -0.02819233 -0.029348502
000230 b5 6e 04 3d 28 ed 21 bd 0e cb b3 bd 39 d7 8f bd
       0.03233214 -0.03953281 -0.08778964 -0.07023472
000240 6d 8d ee bd d6 94 79 bc e3 64 ad bc 28 c1 09 bd
       -0.116480686 -0.015233239 -0.02116627 -0.033631474
000250 55 a8 78 3d 74 f0 4a 3d c2 06 22 3d 26 b6 30 bd
       0.06070741 0.04954572 0.039557226 -0.04314246
000260 0a aa 17 3c c4 c3 68 bd d1 d2 20 bd 80 5f f1 3c
       0.009256849 -0.05682732 -0.03926355 0.029464483
000270 cf b5 08 3d d4 79 fd 3c fd 00 9f 3d 00 10 0c 3c
       0.03337651 0.030941881 0.077638604 0.008548737
000280 17 c4 eb b9 c9 ed a5 ba fe 6f 17 be c0 03 f7 3c
       -0.0004496879 -0.0012659366 -0.14788815 0.030153155
000290 b2 bb 35 3d 28 26 56 3c 1b fd 9f 3d df 96 03 3d
       0.044368453 0.013070621 0.07811948 0.032126304
0002a0 07 9c 41 3d d1 e6 dd bb b0 7d cb 3c d9 57 ee bb
       0.04726794 -0.0067719 0.024840206 -0.007273656
0002b0 7d ab 03 3c aa a2 89 3b 12 f0 a0 bd b4 0c 2f 3c
       0.008036491 0.0042002993 -0.0785829 0.010684181
0002c0 75 73 3b bd 31 a9 3b 3d c6 f1 93 3c c6 44 8a 3d
       -0.045764405 0.04581565 0.018059622 0.06751399
0002d0 b1 ac 94 3d 27 0c 16 3d 52 6d 75 3d a9 e0 6f 3d
       0.07259501 0.036632683 0.05991871 0.058563862
0002e0 ae 28 05 bd 2c 64 6e 3d 80 04 86 3d 22 0c 52 bd
       -0.0325095 0.058201 0.06543827 -0.051281102
0002f0 50 fd a3 ba 68 0a 3f bc 27 f1 6a 3d 4f f4 23 bc
       -0.0012511406 -0.011660196 0.057358887 -0.010006978
000300 35 bc 86 39 b4 20 87 bc 52 27 ad bc 89 40 0a 3d
       0.00025698697 -0.016495086 -0.021136913 0.03375295
000310 fc 2d 49 3d 36 d4 aa 3b 29 c3 dc 3b f9 dc 4e bc
       0.04911612 0.005213286 0.006737132 -0.012625926
000320 33 b5 7e bc 06 19 25 3c bf f1 ae 3c 39 c1 2b bd
       -0.015546131 0.010076767 0.021355508 -0.04193232
000330 33 e0 dd bb 7f f8 11 3d fb 07 ae 3b 9d 0b c0 39
       -0.0067711114 0.035637375 0.00531101 0.00036629746
000340 57 8b 33 3c c2 03 6f bd 3e 98 06 3d 5b 7f 60 bd
       0.010958514 -0.058353193 0.032860033 -0.054808956
000350 10 2a 16 bd 9e ec 1b bc 79 a0 04 bc 47 64 40 3d
       -0.036661208 -0.009516863 -0.0080949 0.046970632
000360 fb 91 bb 3c b3 15 ee 3c 39 c4 e0 3b d0 a2 5d bb
       0.022896757 0.029063081 0.006859329 -0.0033818968
000370 09 7c b8 bc f4 6b ba 3c 30 b7 ce 3d 9b f0 5b 3c
       -0.022520082 0.022756554 0.10093534 0.013424064
000380 30 ac 61 3d fd 8e 4d 3d 28 ec a8 bd ca 5f 8d 3c
       0.05509585 0.050185192 -0.08248168 0.01725759
000390 18 0b ad bc 7c fa 07 3b 16 7f 15 ba e9 86 b1 3d
       -0.021123454 0.0020748666 -0.0005702836 0.0866831
0003a0 db ad a8 bd 49 a8 1b 3c 97 37 21 bd 29 96 47 3d
       -0.08236285 0.0095005715 -0.039359655 0.04872719
0003b0 ea d3 3e 3d 26 33 2e bd c7 6c 0a 3d a5 c1 4e 3d
       0.046588816 -0.042529248 0.033795144 0.050477643
0003c0 2f a7 62 bd 4a 5d f1 bc f3 f8 b2 bd 57 04 2d bd
       -0.05533522 -0.029463429 -0.087388895 -0.042240467
0003d0 3f d0 53 3d cb 65 9b 3c f7 e7 7c 3d 70 45 67 3d
       0.05171227 0.018969437 0.061744656 0.056462705
0003e0 58 8e 98 3b 93 c3 3e 38 d5 78 1b bd 47 2d 94 3d
       0.0046556406 4.5481673e-05 -0.03795703 0.072351985
0003f0 6c 37 55 3c cd 8d b6 3d 11 2a 96 bc 74 e8 51 3d
       0.013013702 0.08913765 -0.018330606 0.051247075

fc3.bias f4 [128]
000000 95 0c 92 3e 47 2b 7b 3e f2 55 a6 bb 06 23 dd 3e
       0.28525224 0.24528228 -0.0050761634 0.43190783
000010 89 2d d8 b9 77 56 29 3d b6 75 8c be a2 e3 fb 3d
       -0.00041232657 0.041342225 -0.27433556 0.12299277
000020 c3 19 81 bc 93 c1 61 bb 12 e8 c5 bb 2d a3 21 3e
       -0.015759354 -0.0034447655 -0.006039628 0.15784903
000030 12 e0 37 b9 33 a1 de 3e 7a 0e 3b 3e 18 c9 86 bb
       -0.00017535713 0.4348236 0.18267241 -0.0041133277
000040 6d 73 73 b9 f2 2d 8c 3e 82 86 d6 3d e9 bb ba 3e
       -0.00023217285 0.27378803 0.10474874 0.3647149
000050 88 4c 86 3e ef c8 b1 bb c4 b5 ba bd 21 86 77 be
       0.26230264 -0.0054255645 -0.091167 -0.2417226
000060 b5 bf 10 3e a6 e8 2f 3e 3b 5a 6b be 3c 86 f8 3d
       0.1413563 0.17178592 -0.22983639 0.12134978
000070 ba b9 57 ba 12 42 65 bb 4e a5 2f 3e c8 12 0b 3e
       -0.00082292745 -0.0034982008 0.17152902 0.13581383
000080 fa 8d 42 3e 90 18 ba 3e b3 8b 0a 3e 42 3a 82 3e
       0.18999472 0.36346865 0.13529854 0.25435072
000090 48 83 a1 bb c3 17 1d b9 03 09 d6 3e 28 a6 3e 3e
       -0.00492898 -0.00014981539 0.4180375 0.18618071
0000a0 a1 a3 65 bb 88 a9 1b 3e e0 fc bf bb a8 3d 3e 3e
       -0.0035040157 0.1520139 -0.0058590025 0.18578207
0000b0 21 01 fc ba f7 cc dd bb 65 c6 17 3e 39 12 da 3d
       -0.0019226411 -0.0067688185 0.14821775 0.10648007
0000c0 4c 63 a9 b7 40 c0 21 bb 18 1d f0 3d d0 a9 e1 b9
       -2.0192609e-05 -0.002468124 0.11724299 -0.00043041864
0000d0 e6 76 33 be 0e 9c 16 3e a0 67 26 ba 95 2c 59 bb
       -0.17525825 0.14707968 -0.0006347839 -0.0033138145
0000e0 fc 20 bc 3b e3 3f 72 be b9 32 e7 3d 48 2b 88 3e
       0.0057412367 -0.23657183 0.112889715 0.2659552
0000f0 b4 fa 8b 3e fc 2b 0a 3e d6 49 48 3e b9 e7 6a bb
       0.2733971 0.13493341 0.19559416 -0.0035843684
000100 05 8d 31 be 04 a1 a5 ba 85 46 5a be 8b a7 cd b9
       -0.17338951 -0.0012636487 -0.21315964 -0.00039225476
000110 ac 48 df b9 14 2c 9d b7 46 b5 04 3e fe 77 93 ba
       -0.0004258802 -1.8736384e-05 0.12959775 -0.001125097
000120 af 95 88 3e 30 44 27 3e 7a f4 1d 3e 6b cc d6 b6
       0.266767 0.16334605 0.15425292 -6.4014944e-06
000130 b0 79 d0 bb b9 43 08 be 9c 59 f9 3e 76 81 71 be
       -0.0063621625 -0.13307084 0.4870118 -0.23584542
000140 b1 9e 80 b9 e2 5c f3 bc 99 1c 14 3e 9e 9b d7 ba
       -0.00024532297 -0.029707376 0.14464034 -0.0016449576
000150 8d 3a 84 3e 1e 94 5f ba fc 80 6d 3e a6 9a a7 3e
       0.2582592 -0.0008528846 0.23193735 0.32735175
000160 f2 5f 9b bb 5f e2 24 ba 46 1d 0e 3e cc f3 94 bb
       -0.004741662 -0.00062898354 0.13878354 -0.0045456644
000170 1c 07 ec 3e 2e b3 7f bd 9b 2e c4 ba e2 91 32 b9
       0.46099174 -0.06242674 -0.0014967503 -0.00017029748
000180 5f 4a 70 ba 4e b9 9e bb 20 58 8c 3d 39 32 cb 3d
       -0.00091663556 -0.0048438674 0.06852746 0.099216886
000190 89 11 a6 3e 54 00 59 3b 36 79 88 3d 17 4d 67 ba
       0.32435253 0.0033111768 0.06663744 -0.0008823438
0001a0 90 20 75 b6 f8 89 13 ba c8 2e e7 3d 3c 00 39 bb
       -3.6526799e-06 -0.0005628164 0.1128822 -0.00282289
0001b0 5f c4 f6 b8 2e 75 12 3e cb 59 2f be 7a 22 28 3e
       -0.00011766771 0.14302513 -0.17124097 0.16419402
0001c0 e9 03 0c 3e b6 ca 9f 3e fe df 34 b8 46 74 0d b8
       0.13673367 0.31209344 -4.3123953e-05 -3.3725308e-05
0001d0 d2 6b dd 3d 68 9b 11 3e 74 d2 9a 3e 23 b6 f7 ba
       0.10811581 0.14219439 0.30238688 -0.0018898885
0001e0 78 40 89 bb 2d 48 e0 3e ef 15 fd 3d 39 db a8 b7
       -0.0041885935 0.43805066 0.12357699 -2.0129244e-05
0001f0 ab ad c4 3e 41 24 a0 3e d2 b7 7d 3e f2 32 d1 b7
       0.38413748 0.3127766 0.24777153 -2.4938465e-05

fc4.weight f4 [1, 128]
000000 e2 df 8f 3e a7 a0 cb 3e a3 6b 24 3b 79 03 9f 3e
       0.28100497 0.39771006 0.002508857 0.31057337
000010 7b a6 4f b6 6a 82 56 bf 4d 54 04 bf fc 0c e5 3e
       -3.0942308e-06 -0.83792746 -0.5169113 0.4473647
000020 76 05 98 3e 35 4c d1 b9 0f b0 a9 3a 40 d2 81 3e
       0.29691666 -0.00039920365 0.0012946146 0.2535572
000030 c9 02 8b b5 ea 8b ab 3e 44 91 b9 3e e2 7b 88 3a
       -1.0357118e-06 0.33505183 0.3624364 0.0010412897
000040 af 0e 98 b5 1b ed 89 3e 83 e7 c7 3e bb 15 a7 3e
       -1.1329156e-06 0.2693871 0.39043817 0.32633767
000050 2e 02 85 3e d8 70 7f b9 55 5d e1 be 50 ee f4 be
       0.25978225 -0.00024360733 -0.4401652 -0.47838068
000060 8f 12 94 3e 23 ef 5b 3e 69 68 d8 be f4 f0 91 3e
       0.2892041 0.21477942 -0.4226716 0.28504145
000070 f7 41 17 b7 2a 98 60 b9 61 1f b1 3e ab 2c a9 3e
       -9.01566e-06 -0.0002141899 0.34594253 0.3304189
000080 e7 d4 d6 3e d4 ea 89 3e be e7 ba 3e 4b 4d 89 3e
       0.41959307 0.26936972 0.3650493 0.26816782
000090 3f f1 a4 b8 e1 12 99 34 19 df a5 3e 3d 6a 83 3e
       -7.865065e-05 2.8512207e-07 0.32396773 0.2566699
0000a0 a1 ed 51 b8 e5 3e 67 3e 08 90 0f ba 4f 66 fd 3e
       -5.0050792e-05 0.22582586 -0.00054764794 0.49492118
0000b0 21 83 70 38 1c ab 96 39 3e a6 93 3e 4b 52 05 3f
       5.7342582e-05 0.00028737716 0.2883777 0.52078694
0000c0 a0 05 ac 33 d9 4d 26 b8 94 48 8e 3e e8 af cd b5
       8.010397e-08 -3.9649985e-05 0.27789748 -1.5324886e-06
0000d0 3f 17 13 bf 81 6e 9e 3e 17 2a 06 38 09 df a7 b9
       -0.57457346 0.30943683 3.198729e-05 -0.00032018896
0000e0 94 d1 47 bf cd 7b 04 bf bc b6 cc 3e 1b e7 84 3e
       -0.78054166 -0.51751405 0.39983165 0.2595757
0000f0 05 10 da 3e fa 86 ad 3e 38 13 b0 3e 53 06 ce b7
       0.42590347 0.3389204 0.34389663 -2.4560059e-05
000100 12 89 fe be 5f c3 61 b6 b1 c4 f9 be ff 45 ef b6
       -0.4971395 -3.3641334e-06 -0.48782876 -7.1309037e-06
000110 58 46 77 b6 36 40 0d 34 2c 11 a7 3e 24 61 eb b6
       -3.6846814e-06 1.3155008e-07 0.3263029 -7.0148544e-06
000120 b6 e8 83 3e 93 62 83 3e 98 3b cb 3e 83 3a 28 b1
       0.25763482 0.25661144 0.39693904 -2.4480478e-09
000130 bb 10 5a b9 ec af ff be 2d bf 90 3e 5b 03 ce be
       -0.00020796333 -0.49938905 0.28270856 -0.40236935
000140 80 1f f3 b5 e5 df 8e 3e a9 ce 94 3e ae c8 82 b8
       -1.8114079e-06 0.27905193 0.2906392 -6.2362626e-05
000150 86 c1 a6 3e 67 7b ea b7 b5 5a 77 3e c1 fc b2 3e
       0.32569522 -2.7952437e-05 0.24155696 0.3495846
000160 c9 cd 7a 3a 42 ff ee b7 3e 8a cf 3e 67 38 75 3b
       0.00095674075 -2.8490675e-05 0.40535158 0.0037417652
000170 00 23 82 3e 8a 67 03 bf ad a2 78 b7 db d5 fa b6
       0.25417328 -0.51329863 -1.4819828e-05 -7.4754767e-06
000180 bd 27 05 b6 2b 67 17 39 22 80 0b 3f 6c 51 ef 3e
       -1.9841675e-06 0.00014438915 0.5449239 0.46741807
000190 6d a4 d4 3e e7 ea b7 3e d7 19 b3 3e bd ac 12 b7
       0.41531697 0.35921404 0.34980652 -8.742497e-06
0001a0 20 77 10 32 e0 c6 c3 b6 13 00 f7 3e fa 64 92 39
       8.408989e-09 -5.834605e-06 0.48242244 0.00027922523
0001b0 8d df ca 34 76 9d bd 3e ac 01 13 bf fb 03 91 3e
       3.7788087e-07 0.37034196 -0.57424426 0.2832335
0001c0 74 68 90 3e 33 a0 8d 3e fe 1a b3 b3 e8 8b 18 b4
       0.2820469 0.27661285 -8.340247e-08 -1.4207001e-07
0001d0 8b df 96 3e 9a a5 ab 3e 83 e7 aa 3e 9a 08 36 b7
       0.29467425 0.3352478 0.33379754 -1.0850048e-05
0001e0 1f dd 12 ba 0f 2f 6e 3e d3 6d 84 3e a1 4c 76 36
       -0.00056024076 0.23260139 0.2586504 3.670146e-06
0001f0 73 22 82 3e 16 0d ab 3e 99 c7 00 3f da 72 1d 33
       0.25416908 0.3340842 0.5030456 3.6658868e-08
