checkpoint_critic.pth (torch_old, 542662 bytes, 5 tensors)

fcs1.weight f4 [400, 33]
00000000: 0748 6fbd e3bb 263d 789a 6b3c 43df e1bb
00000010: 7847 fc3d 60a3 4cbd a806 a23d 35f2 58bd
00000020: 8f4b 23bc 6e9b 14bd 4409 febc 96fc e13c
00000030: 73b9 16bd 8e91 c13d f728 363d 29ef 313d
00000040: e2c0 4fbd 28da 703d 80f2 f63d 1871 ad3d
00000050: be14 81ba 355a 91bb 2dc1 b33c b0c0 2a3d
00000060: ff28 773d 398d 553d 41b1 483d 5c45 b73d
00000070: 3c80 51bb 9780 0e80 f13f c7bd 91cf 1600
00000080: 700f 683c 65a4 fbbb 5f78 af3d 1e8a 91bd
00000090: 9b92 8e3d 2c59 0f3d 3532 09be 5d55 083d
000000a0: 7fef c9bd 4bbe db3c 3c4a 433d f9e3 10bc
000000b0: 8f5c 183c c761 a1ba ded2 2cbc 4c40 5a3c
000000c0: a93f 983d e85a 88bd fd89 223d 80bd 53bd
000000d0: 95fd 95bc 67f3 a6bb 0895 483a cad0 d9bc
000000e0: 6029 9fbc ac47 3d3c 2e09 d83d d0ff ca3d
000000f0: b3b5 ed3c 941a 2cba c7e7 0c00 d74a 65bd
00000100: 2d47 2180 7b7b fc3e 9bee fc3c bc34 ca3b
00000110: ac5d 293b eb6a dc3d 390e 99be da1e a9be
00000120: 3b1b 033a 7834 ad3b eac8 06bd b0b7 ac3d
00000130: 3fce 853d 7f69 503c d671 423d 3df0 843c
00000140: 0cb0 d33d ec22 95bd 8167 00be 4b5e 1b3e
00000150: 1926 cdbd 5fce 4dbe b35a 00bc 3960 49bd
00000160: 2a1c f8bd 1fdd 9e3d 35d7 aa3b ded1 f73c
00000170: 3f8f aa3b f16c 993d 6754 d83c 8a20 3300
00000180: c9fe 0bbd d27c 0700 ee06 4a3e 74fb c93d
00000190: 0b77 e93d 04ac 25be cf09 ec3c 3ce4 75be
000001a0: 58b7 2b3d 7646 523d 6490 afbc 8c11 c5bc
000001b0: d372 d1bc 0512 f9bd c1c2 863c bea2 123d
000001c0: 7011 57bd 2e06 093d dda3 c93c 862e 0dbe
000001d0: 32b2 06bd 8862 e83a 7882 c9bd 7228 083c
000001e0: 3f70 4b3d 790d c8bd 3109 d43c 1536 babc
000001f0: df0f 9f3c 6a23 9d3c d1e3 873d ab40 1dbc
00000200: 6060 3280 afff 35bb 656e 1900 6d1b 793e
00000210: 629a 34bc e7cc f93c f454 0dbc 1c20 9abd
00000220: 555c b23b 9a84 6a3e 373c 853d b636 ba3c
00000230: 22ac c43c 45e4 2c3c c50b 963d 6309 d3bc
00000240: 043e dcbb d342 db3c 24ae a13d fb7b 4d3d
00000250: b4d3 513e 0370 22be 7423 99bd bb74 aebd
00000260: 5c41 923a 964c 1dba 03cc 003d e583 6fbc
00000270: a87f a13c 2b02 483d 98aa cc3c 3860 b039
00000280: f92a a7bd b95c 2a00 f3cc 17bd 5590 2880
00000290: 4962 093f faa4 aabd 41ee d1bc edf6 a23d
000002a0: 580c 74bb ed94 893d 1ab0 d33d df71 b8bd
000002b0: 80a3 94bd e5d7 3fbe cf72 8dbd 043d 6d3d
000002c0: 6e41 6cbd 2351 6f3c 4e07 213b 2da4 983c
000002d0: 1e99 1b3d dba1 00bd 505c 833e 642f 99bd
000002e0: 1935 8c3e ad09 433c 014e 113d ac4b 97bc
000002f0: 2bcc 12bd 684e 63bd 675b 42bd 4488 1bbd
00000300: d69d 0e3e 06bb 40bc 96fa 4180 c7c0 d9bd
00000310: 64af 3200 5f9e 50be b41a 17ba d517 143d
00000320: ceda d43d f9a9 21be 3a40 85bd 4bb3 15bd
00000330: 1238 56be bc91 833d b89e b6bd b511 1a3e
00000340: a511 983c 8382 433d 2ccd a63c 0191 8b3d
00000350: 34cd 7d3c 329c e6bd c9fc b1bd 1cb2 76bc
00000360: 6164 41be 1dae a73d c2a2 52bd 62e3 56bc
00000370: ff35 2e3d e68d 3bbc c6bb ec3c f30c c8bb
00000380: 5711 41bd bec0 3f3d dcb5 953d 3cb1 0500
00000390: ce77 7c3c 9c67 1700 73cd b4be 903f 7bbc
000003a0: af70 763d 7aaf ad3d c834 723d e163 98be
000003b0: 299f d9bc 40cd 66be 0aee 3a3c 9dea f0bd
000003c0: 2e84 ce3d 10f8 25bd 24d0 213d 6cc5 21bd
000003d0: 5fae b4ba c952 e93d 5a00 903c 9819 053e
000003e0: 3bec 72bd 9235 a0bd b5fe c03d 879e cd3c
000003f0: de9b 09bd d91a 74bd 4edf 00bd 1016 fe3d
-0.0584183 0.040706526 0.01438009 -0.00689307 0.12318319 -0.049960494 0.07911426 -0.05296536
-0.009966745 -0.03628104 -0.031010278 0.027586263 -0.036797952 0.094515905 0.04447266 0.04344097
-0.050721057 0.0588018 0.12057972 0.084688365 -0.0009848101 -0.0044358023 0.0219427 0.041687667
0.06034183 0.052136634 0.048997167 0.08948776 -0.0031967303 -1.331826e-39 -0.09728993 2.094842e-39
0.014163837 -0.0076795095 0.08567881 -0.07106422 0.069615565 0.03499715 -0.13398059 0.033284534
-0.098601334 0.026824137 0.047678217 -0.008843415 0.009299411 -0.0012312465 -0.0105483215 0.013320994
0.07434017 -0.06657964 0.039682377 -0.051694393 -0.018309394 -0.005094934 0.0007651602 -0.026588816
-0.019428909 0.011552732 0.10548626 0.099120736 0.029017305 -0.000656524 1.185172e-39 -0.055979576
-3.056104e-39 0.49312958 0.030875495 0.006170837 0.0025843186 0.107625805 -0.29893664 -0.3303135
0.0005001311 0.005285796 -0.03290645 0.08433473 0.06533479 0.012720465 0.047471844 0.016227836
0.10336313 -0.072820514 -0.12539484 0.15172689 -0.10017032 -0.20098256 -0.007834124 -0.04916403
-0.12114747 0.07757019 0.005213643 0.03025144 0.0052050645 0.07491482 0.026407434 4.695283e-39
-0.03417853 6.87626e-40 0.19729206 0.09862414 0.11399659 -0.161789 0.02881327 -0.24012846
0.041922897 0.051336728 -0.021431156 -0.024056219 -0.025567448 -0.1216164 0.016450288 0.035799734
-0.052506864 0.03345316 0.024614269 -0.13787279 -0.032884784 0.001772956 -0.09839338 0.008310424
0.049667593 -0.09768195 0.025883289 -0.022730866 0.019416748 0.019181926 0.066352494 -0.009597938
-4.626348e-39 -0.0027770808 2.33549e-39 0.24326868 -0.011023136 0.030493213 -0.008626211 -0.075256556
0.0054431357 0.22902146 0.06505626 0.022731166 0.02400786 0.010552471 0.073264636 -0.025761312
-0.00672126 0.026765263 0.07894543 0.050167065 0.20490915 -0.15863042 -0.07477465 -0.08518358
0.0011158395 -0.0006000487 0.03144456 -0.014618848 0.019714192 0.048830193 0.02498369 0.00033641024
-0.08162493 3.890353e-39 -0.03706069 -3.725196e-39 0.53665596 -0.08332248 -0.025626304 0.079572536
-0.0037238803 0.067178585 0.10336323 -0.09006094 -0.07257748 -0.18734701 -0.069066636 0.057919517
-0.057679586 0.014606747 0.0024571004 0.018632973 0.03798782 -0.031404357 0.25656366 -0.07479742
0.2738426 0.011904162 0.03547478 -0.0184687 -0.03583924 -0.055494696 -0.04745045 -0.03797175
0.13927397 -0.01176334 -6.0592e-39 -0.106324725 4.654693e-39 -0.20372914 -0.0005764172 0.03615554
0.10393296 -0.15787496 -0.06506391 -0.03654794 -0.20919827 0.06424281 -0.08916992 0.15045817
0.018563101 0.047731888 0.020361505 0.06814767 0.015490819 -0.11260261 -0.08690793 -0.015057113
-0.18885948 0.08187506 -0.05142475 -0.013115736 0.042531963 -0.011447405 0.028898131 -0.0061050593
-0.047135677 0.046814673 0.073100775 5.22757e-40 0.015409423 2.149384e-39 -0.35312995 -0.015334979
0.060166057 0.08480735 0.059132367 -0.29763702 -0.026565151 -0.22539234 0.011409292 -0.11763499
0.10083805 -0.040519774 0.03950514 -0.039494917 -0.0013784877 0.11392743 0.017578293 0.12998044
-0.05930732 -0.07822718 0.094235815 0.025100006 -0.033595912 -0.059595916 -0.03146296 0.12406552

fcs1.bias f4 [400]
00000000: b26b 10be 78f9 debd 84c7 d03d be43 a6bc
00000010: 4cab 2abe 67e2 7ebe c685 10be f3f4 5cbe
00000020: d86c 7ebe 27f8 fdbd ac08 923d e189 d5bd
00000030: 9a22 733d 8a79 90bd faa4 47be bd84 fbbd
00000040: df0c b9bd 7d81 0bbe 8860 6cbe c2ff d83c
00000050: 8c8d 5bbe 47cf ddbd 5c02 18be 46ff 24be
00000060: d6d5 86bd a591 65be 18eb 0abe 80fe 8c3d
00000070: 0233 9d3d cba7 58bd e7ff 7fbc 9821 183d
00000080: 6167 3c3e adce ffbd 3b31 293d 2ed3 6ebd
00000090: cbff 44be 3a24 ae3d ffdd 353d 7e06 babd
000000a0: cb9f e73d 09e2 063c b178 cf3d 3968 d73c
000000b0: 9f85 513d f1fe 9c3d 9191 eb3c c6af 123e
000000c0: 8e3f f2bd 823e 10be ffa1 b23c 9bb4 ec3d
000000d0: 1c20 4d3d 7f4f 943d 3baa d0bd 1e6d e43d
000000e0: 61e9 b93c 58bc 13be d600 86bd 6216 873c
000000f0: d57e 4abe 4a85 9abd 0ddd 053d 47b3 c9bd
00000100: 198d bdbd 82e1 c3bd 8246 4abc 294f 0dbe
00000110: 238e 4ebd ff40 62bd 5c74 90bd 5fdd d3bd
00000120: 852e 423c 9445 9bbd 6fda 193d b821 aa3a
00000130: e87b 0dbe a55e 1cbd 8141 13bd 79c1 41bd
00000140: 8c34 b1bd c58d e33b 0011 8abd 6302 d3bd
00000150: 5528 95bd 4810 7b3d 68ea 85bd 6030 763c
00000160: 4945 0a3c 7b58 a9bd 222e 2abe 324b 90bd
00000170: 32a8 dc3c 7dea 09be 6fab f1bd e193 2cbe
00000180: 8682 aebd a917 9e3d 52b9 4cbd 1d11 ee3d
00000190: 1f79 65bd 4433 173d 46fb 0dbe f8ce 663d
000001a0: 3a61 9bbd 70bf 283e 372c 1b3d b5b4 9dbd
000001b0: 27c9 acbd cd8e c0bd 7cd9 3cbd 46e6 11be
000001c0: 4439 b1bd f2e0 3bbe 34aa 7a3d ecc1 803d
000001d0: 0de9 66bd 971a f8bc 940c dfbd 4056 59be
000001e0: a8fc 69be 0e17 85be cd45 20be 4efb c4bb
000001f0: 8d03 37be 02f7 7e3b e4a9 053e 5baa 523c
00000200: 5d19 853c 1fbc 7cbd d7a7 67be 49de ad3d
00000210: d425 413d 9d02 f83d d711 d9bd afea 5fbc
00000220: 95b2 c1bd 28db 513d b612 403c bb6d 033d
00000230: 6dda 653c 1a98 99bb f8e7 a8bd 7adf 223d
00000240: d143 2abe 091d 8cbd 033f a9bd 96c6 e6bd
00000250: c1f2 11be f61a e2bd 490f 31be fe9b 19bd
00000260: ab24 ddbd 9b9c 81be f7ef 91bd d16e 78be
00000270: 591e 9f3c 7a23 4cbe e54c c0bd 1fdd bebd
00000280: ad05 ffbd 048d 763d c7ef 553c eb01 433d
00000290: acdd d83d d3d8 15be e130 ad3b 9764 a33d
000002a0: 5a07 14be 6f4d 2ebe f9c3 56bd 24ef 4ebe
000002b0: 8a6e debd 6d0f 11be a497 59be cc2c cb3c
000002c0: 1974 5fbe 46a6 6cbd 797c fb3c 59b5 253c
000002d0: 5bf8 ebbc 75ae 14bc a800 59be 9c72 e6bd
000002e0: 6e78 1bbe 6f9c 22be 02d9 15be 8c2e 0abe
000002f0: 3969 a93d 6ce4 913d b698 da3c ba52 17be
00000300: e016 03be 0583 d43d a548 55bd c5cb e1ba
00000310: ddb1 57be c181 1dbe e8f9 a73d 6f77 73bd
00000320: 8df8 5abd 626c e1bd 1099 1cbe 8599 33be
00000330: 720f 2bbe b3df 5c3d 7bed 2c3c 45d8 35bd
00000340: e8ab fc3d 4689 3b3d e7c7 13be 6a85 de3c
00000350: 4af5 f8bc 7887 92be 0b12 ef3c dcac 06be
00000360: 2012 f9bd 83e3 afbd 96d5 6ebd 314a 943d
00000370: 0217 61be 4d34 2fbe 2964 08be f196 e8bd
00000380: 6402 ab3d 9d03 8dbd aec4 d43c 15ba 54bd
00000390: 5483 b03d 9b51 9abd be79 e4bc 9ad0 8c3c
000003a0: 3ace 6abc d310 fdbd c3dd 1fbe ef9f bc3d
000003b0: 4349 5bbd f49f 46be fed9 62be b745 d4bc
000003c0: 1197 253d 350d efbd adc9 813d dcff 823d
000003d0: 8d84 12be 5f96 28be 6df3 5f3d 21e2 42bd
000003e0: a6ba 73bd 050e 50be 2c70 f3bb 19e7 ba3c
000003f0: fe0c 91bd cfb3 43be ba9d 5c3d 9f03 5d3d
-0.14103583 -0.10887426 0.101943046 -0.020295974 -0.16666907 -0.24891053 -0.1411353 -0.21577816
-0.24846208 -0.12400847 0.0713056 -0.10426689 0.05935917 -0.07054432 -0.19496527 -0.12281177
-0.09035658 -0.13623615 -0.23083699 0.026489142 -0.21440715 -0.10830551 -0.1484465 -0.16113004
-0.06583755 -0.2241884 -0.13566244 0.068844795 0.076757446 -0.052894395 -0.015624977 0.037141412
0.18398811 -0.12490592 0.041306715 -0.058306865 -0.19238202 0.085030034 0.044401165 -0.090832695
0.11309775 0.008232602 0.10130442 0.026294814 0.05115282 0.07665814 0.028755935 0.14324865
-0.11828528 -0.14086345 0.021805761 0.11557885 0.05007945 0.07241725 -0.10188719 0.11153625
0.022694292 -0.14427316 -0.06543128 0.016490165 -0.19774945 -0.07544954 0.032681514 -0.098486476
-0.09255428 -0.095644966 -0.012345912 -0.13799728 -0.05042852 -0.055237766 -0.07053444 -0.103449576
0.011851911 -0.0758163 0.03756183 0.001298002 -0.13816798 -0.038176198 -0.03595114 -0.04730365
-0.08652601 0.0069443905 -0.06741524 -0.103031896 -0.07283083 0.061294824 -0.0653885 0.015026182
0.00843937 -0.082688294 -0.16619161 -0.07045592 0.02693567 -0.13468356 -0.118002765 -0.16853286
-0.08520989 0.077193566 -0.049981423 0.11624358 -0.056023713 0.036914125 -0.13865384 0.056349725
-0.07586904 0.16479278 0.037883963 -0.07700483 -0.08436804 -0.09402237 -0.046105847 -0.14247999
-0.08653501 -0.18347529 0.061197475 0.06286988 -0.0563746 -0.030286117 -0.10891071 -0.21224308
-0.22850287 -0.25994152 -0.15651627 -0.006011403 -0.17872448 0.0038904552 0.1305309 0.012857999
0.016247446 -0.061702844 -0.2262262 0.08489663 0.047155216 0.121098734 -0.10599106 -0.013666793
-0.0945789 0.051234394 0.011723211 0.03208707 0.014029128 -0.0046873214 -0.082473695 0.039763905
-0.16627432 -0.068414755 -0.08263972 -0.11268346 -0.1425276 -0.11040299 -0.17290987 -0.03750228
-0.107980095 -0.25314793 -0.07125848 -0.24261023 0.01942365 -0.19935408 -0.093896665 -0.09319519
-0.124522544 0.060193077 0.013057656 0.04760925 0.105891556 -0.14633493 0.005285368 0.0797817
-0.1445593 -0.17021726 -0.052432988 -0.20208412 -0.108609274 -0.1416604 -0.21249253 0.024801634
-0.21821631 -0.05777576 0.030699002 0.010114037 -0.028804949 -0.009074797 -0.21191657 -0.11252329
-0.15182659 -0.15879987 -0.14633563 -0.13494319 0.08272023 0.07123646 0.026684146 -0.14777651
-0.12801695 0.103765525 -0.052071232 -0.0017226866 -0.21063943 -0.15381528 0.08201963 -0.059440073
-0.053459693 -0.110070005 -0.15292764 -0.17539032 -0.1670511 0.053924274 0.010554667 -0.044395704
0.12337476 0.04578521 -0.14431725 0.027163226 -0.0303904 -0.2861898 0.029183408 -0.13151878
-0.1216166 -0.08588316 -0.05830916 0.072407134 -0.21981433 -0.17109795 -0.13319458 -0.11356915
0.08350065 -0.06885455 0.02597269 -0.051935274 0.08618799 -0.07535096 -0.027890082 0.017189313
-0.014331395 -0.123567246 -0.15611939 0.092101924 -0.053536665 -0.19396955 -0.2215347 -0.025912149
0.04042727 -0.11672441 0.06337295 0.063964576 -0.14308377 -0.16463612 0.05467551 -0.047578935
-0.059504174 -0.20317848 -0.0074291434 0.022815274 -0.07082556 -0.1911156 0.053861357 0.05395853

fc2.weight f4 [300, 404]
00000000: 305f 6ebc b462 0abe c06e 3c3d 89c4 4dbd
00000010: 6c48 13bd d04a f83c 5399 d6bc 2369 603d
00000020: 18d1 3c3d 5abf 3ebd b89b 2dbe 7516 fa3c
00000030: 2e33 593d 822c 113d 9434 09be c22a bebd
00000040: 6d09 1ebd d518 043c 0134 9ebd 35fc 233e
00000050: 0ecc 99bd 5e61 4dbc bf30 233d 9bcb 8b3b
00000060: c744 8a3d dfbc d73d 8c16 55bc 6164 dfbc
00000070: 3541 01be 7cfd 2dbd a3ef 883d 8d6a af3c
00000080: d200 24bd 9c29 343d d2b3 9e3c f1eb e2bc
00000090: 7551 4dba 1bbe a1bd 4e2e e43b a8f4 55bd
000000a0: 0b85 8a3d 0e22 1f3d cadf 84bd 643b 8fbc
000000b0: ace3 e8bc ce07 81bc c9b3 10be 3a56 acbd
000000c0: 4b57 7e3d 36f8 a53d e21b 72bd bd92 703c
000000d0: b358 b2bc e292 093d fa05 ad3d f9e4 213d
000000e0: 4294 cbbc bf64 12be 753a 90bd e717 e03c
000000f0: 7bd5 a1bc b4e4 92bd 9981 9f3d 7052 62bb
00000100: 5b67 88bd 4053 b03c 6297 99bd 8a07 34bc
00000110: 4a77 b7bd 64bd f13d 9fc5 e03c fd5e 8b3c
00000120: 3053 8abd 0db7 aabc 6c49 4fbd 257f d13c
00000130: 1236 09be e313 e43b caab 39bc b91d 433c
00000140: 9bf5 263d 2c01 323d 6ff1 93bc b7ce 3dbc
00000150: a285 eebd 536b ab3c a777 67bd edca 9e3d
00000160: 3096 26bd fd08 1e3d a6b2 0d3e fd75 b4ba
00000170: 909d d3bc 8b46 6cbd 1a9c 9cbd c806 ca3d
00000180: 2afb fe3d ba0e ecbd cfa7 2cbd fb05 083d
00000190: 6953 afbb cdd2 36bc eacc 293c c632 5bbd
000001a0: 6f56 94bd eeae 92bd c93e 333d fe6d 8fbd
000001b0: 3747 50bc 2503 523d bfbd 0dbc 84a4 47bd
000001c0: a235 963d b7bb 4b3d 1d5f 473c fe1f c03c
000001d0: c48a 39bc 2249 9cbb c2d9 a9bd 8d41 dfbd
000001e0: 0b60 703d 6346 6abd 7e97 f13c 2942 0cbc
000001f0: ba73 a1bd a5f1 963d 20f9 4cbd a31d 52bc
00000200: 89d9 8bbd 871c edbd 9815 2a3d bdba 27ba
00000210: 0cd8 473d dc1e 063c e53d 42bc e1e0 2cbd
00000220: 3e42 50bd b10e 263d 53ef 20be eb49 863c
00000230: 4fbd 8bbd ea40 b93d b5be fb3b c1b6 30bd
00000240: fe5c 5e3d 2a63 72bd 12b6 21bd 1d65 00bc
00000250: 8846 9e3c c968 44bd 4744 1fbd 34a1 1f3c
00000260: 0ecb 3bbd 8d35 893d 9a2c 0a3e b147 b3bd
00000270: 6efc 04bd 4149 50be dd7f 7ebd 34d8 843d
00000280: 3858 af3c b85a adbd cc1e c53c bfb1 8bbd
00000290: 41b7 71bc 4d80 113e d245 903d b88f ebbc
000002a0: e867 d3bd 9b10 f33c f5aa 173e db6a c1bc
000002b0: bf00 62bd 2d31 4d3d f53b 33bd 14b7 18be
000002c0: ad53 9c3c 6786 683d a784 e6bd 0d1b 1f3c
000002d0: 5be8 533d 2efe 8c3d 8cbb 95bc 08f1 0cbd
000002e0: a6c9 4c3d 31bc 9fbd a721 053d 4fde f23c
000002f0: ecbd 883a e851 013d aa30 84bd ccfc 1a3d
00000300: d2c1 85bd f9b7 babc 984b bd3c 7961 0fbe
00000310: 95d1 e8bc 2d79 2c3d 735d b6bc 74ac bd3c
00000320: 36ee dabc 7589 05bd 500a 9d3c 95be d33d
00000330: a493 263c 3a5c 223d e4cf 3abd 3815 5a3d
00000340: a2bd 53be 2f10 dc3c 3bbd 9f3a ff85 8fbc
00000350: 4bc7 0abd 0650 c9bd ff5a f1bc 0c87 cebd
00000360: ea4d ad3d 9268 94bc 7a84 a83c 118e 94bd
00000370: 9d56 16be e3e0 36bc 560a 0cbe 985d 403c
00000380: c299 18bd 9d2c 86bb e679 53bc a54d 40bd
00000390: b81f 0bbe 9ed3 a73d cfd3 963c bf72 4cbd
000003a0: 75d4 60bd 38b2 b2bc ebae 21bd a18f 203d
000003b0: 1186 e6bd b796 283d 7a4e a43c e185 453d
000003c0: c1c3 93bb cfaf 4eba 9eda a63c 55a9 dc3c
000003d0: e3af 94bd c4d0 233d 3060 80bd 50c4 853d
000003e0: 6ffe 42bd b329 3dbd 77b5 b13d 0b5f 4bbd
000003f0: efbc f2bc f387 b2bb e22b 743d e73a 08be
-0.014549062 -0.13514215 0.046004057 -0.05023626 -0.03595774 0.03030911 -0.026196158 0.054787766
0.046097845 -0.046569206 -0.16953933 0.030528286 0.053027324 0.035442837 -0.13398963 -0.09285499
-0.038583208 0.008062561 -0.07724763 0.16014178 -0.075096235 -0.012535421 0.03984141 0.004266215
0.067513995 0.10534071 -0.013005864 -0.027269544 -0.12622531 -0.04247807 0.06686332 0.021413112
-0.040039845 0.043984994 0.019372854 -0.027700396 -0.00078322674 -0.07897588 0.0069635278 -0.052235276
0.06763657 0.038850836 -0.06487997 -0.017484374 -0.028428875 -0.015750792 -0.14131083 -0.08414884
0.062094968 0.08103983 -0.059108622 0.014683423 -0.02177081 0.033587344 0.084484056 0.039525006
-0.024850968 -0.14296244 -0.070424 0.027355148 -0.019755116 -0.07172528 0.07788391 -0.0034534
-0.066603385 0.021524072 -0.07499577 -0.010988126 -0.089582995 0.118037015 0.027437983 0.017013067
-0.06754148 -0.020839239 -0.05060713 0.025573323 -0.13399532 0.0069603785 -0.011332462 0.011908942
0.04076157 0.04345815 -0.01805946 -0.011584929 -0.11646582 0.0209252 -0.056510594 0.07753549
-0.040670574 0.03858279 0.1383768 -0.0013768073 -0.025831968 -0.057684463 -0.076469615 0.09864575
0.124502495 -0.11526246 -0.042152222 0.03320883 -0.0053505194 -0.011158657 0.010363797 -0.05351522
-0.072430484 -0.071622714 0.04376105 -0.07003401 -0.012712291 0.05127253 -0.008651196 -0.04874088
0.073344484 0.049739566 0.012168673 0.023452755 -0.011324588 -0.0047694603 -0.08293487 -0.10901175
0.058685344 -0.057196032 0.029491182 -0.008560696 -0.07883401 0.07370309 -0.05004227 -0.012824449
-0.06828601 -0.11577707 0.0415245 -0.00063983706 0.048790023 0.008186068 -0.011855577 -0.04220665
-0.050844423 0.040541355 -0.15716295 0.016392669 -0.06823217 0.090455845 0.007682646 -0.043143038
0.054287903 -0.0591766 -0.039480276 -0.007836607 0.019320741 -0.047951493 -0.038883474 0.009743024
-0.045847945 0.06699667 0.13493577 -0.087539084 -0.0324673 -0.20340444 -0.06213366 0.0648655
0.02140437 -0.08464569 0.024062537 -0.06821012 -0.014753164 0.14209099 0.07044567 -0.028755054
-0.10322553 0.029671004 0.14811309 -0.023610523 -0.055176493 0.050095726 -0.04375835 -0.14913589
0.019082868 0.0567688 -0.1125577 0.009711039 0.051735263 0.068844184 -0.018277906 -0.034409553
0.049996994 -0.077995665 0.032502797 0.02964702 0.0010432578 0.031572253 -0.064545944 0.037838742
-0.06531109 -0.022792803 0.023107335 -0.14002027 -0.028420249 0.04210775 -0.022261357 0.023153521
-0.026724916 -0.032601792 0.019169956 0.10339085 0.010167036 0.039638735 -0.045608416 0.053242892
-0.20677808 0.026863186 0.0012187132 -0.017519949 -0.033881467 -0.098297164 -0.029462336 -0.10084352
0.084621266 -0.01811627 0.020570982 -0.072536595 -0.14681478 -0.011162016 -0.13675818 0.0117410645
-0.03725601 -0.004094674 -0.012907481 -0.046949048 -0.13586318 0.0819466 0.018411545 -0.049914118
-0.054890115 -0.021813497 -0.039473455 0.039199475 -0.1125604 0.041159358 0.020056952 0.04822338
-0.0045094197 -0.0007884474 0.020367917 0.026936213 -0.0726011 0.039994016 -0.06268346 0.06531584
-0.047605928 -0.046182346 0.0867719 -0.049651187 -0.029631106 -0.0054483353 0.059612162 -0.1330372

fc2.bias f4 [300]
00000000: 2f4d 5abd 9ff5 843b b5b3 2c99 ae71 553e
00000010: 3004 afbc 0422 cd3d f5cc 823d 7c5e c4bd
00000020: c977 66bc 8846 dabd 2fad b73d ba41 dc3d
00000030: 39a4 adbd baaf 933d 3c9f d4bb ab10 d9bb
00000040: 8201 dcbb bbf4 31bc 9d25 86bd aea8 09bd
00000050: 9f23 0b3c de72 5fbd 34cb 61bd 1498 66bc
00000060: 3abc 313c 3ee4 a8bd 92a8 26bd 7941 19bd
00000070: c2f3 093d 34d0 1cbc bf9a 06bd bf2f 333e
00000080: d3ae 7dbd 1e0f 983d afee f2ba 31e9 573c
00000090: 56c9 903d d64f 99bc bce4 18bd 44aa 8d3c
000000a0: 6dcc 81bd 62a0 f4ba d943 eebb 56fa 5c3d
000000b0: e2cf 93bd 5209 8584 1aef cdbd b81d 183e
000000c0: c3fa 053c 775b 90bd 358b 9f3d ecc7 a3bc
000000d0: 4a85 093e 0bde 563c 5ee9 14bd f1d4 333e
000000e0: 8cc8 9d3d 93f0 3b3e e448 b2bd d0ef 4b3e
000000f0: 2f73 3fbd 2d5c cdbc 24f9 303d 3dc5 713d
00000100: 01b9 873d 57f8 c23d 5e04 75bd a295 3e3d
00000110: d617 eb3d f344 3fbd 3ed9 45bd 3c3e 4dbd
00000120: d8a7 193c 3975 ed3d 0553 ed3c c7fa 81bd
00000130: b489 1ebd ae64 bfbd 767e 893d 68f0 8c3d
00000140: 7564 1a3d d383 b73d c218 d0bb ffc2 f43d
00000150: 57c8 f6bc 9cef c63c c6f7 95bd d6e3 5c3c
00000160: 799e 703e 9e30 abbd cd3c 22bd e738 4bbd
00000170: 3e7d 8e3c b195 20bd b244 0c3d 1bad c9bc
00000180: 548d c93d 6198 843c b629 08bb c2f8 51bd
00000190: cb45 b3bd f376 2586 4944 1a3c ac09 f7bc
000001a0: a5cd d43d d2b5 aa3d ae38 a53d df89 19a0
000001b0: 41ae 3d3d 229a f13d 971d 8c3b fa1f 473d
000001c0: c553 e6bb c72d 69bd aeda bfbc 9d17 91bd
000001d0: 2242 c5bd 8c59 ad3d 5725 d5bb 3a46 853d
000001e0: 3bc8 7cbc a1c6 1bbd 4c6b d1ba 0966 8abd
000001f0: 2832 573d 86c1 693d 837f 86bd 1a43 2abd
00000200: 3c03 e53d 5b65 e8bb 768c 4e3d 6655 843c
00000210: 0d82 08bd 08d4 01bc 43ed ab3c e3b4 f8bd
00000220: de32 7abd c313 88bb e02c 81bd e164 8b3d
00000230: 1a19 023e 9b36 92bc c46c b7bd 5100 4ebd
00000240: 0301 ab3d e4e8 3e3e 9b01 a33d 3ff4 d5bc
00000250: ad35 333c f79a 5ebc 0084 bbbd 3647 0cbd
00000260: 4eec 403d 2f1e 6084 9c67 163d cc46 29bd
00000270: f89f 16bc 230a 49bd b00e 413d 6f12 2cbc
00000280: f5c0 69bc eb56 e83b 9783 493d 94fb dabd
00000290: 2334 263b 0f65 3d3d c19c 5cbc 4f6e ed3d
000002a0: 7888 b0bd cfb2 91bc 3d73 8b3d 3928 7c3d
000002b0: d21f 183d 34af bdbd 68ab b484 8017 7f3d
000002c0: e340 9cbd 8260 b43d 5954 ce3c ea76 5e3c
000002d0: 1ac7 a9ba 6b2a 55bd 73b7 37bd ecb8 c53c
000002e0: be75 bebd 416f 8ebc f12b fe3c cc49 443c
000002f0: 0529 c8bc 1c15 4dbd 83b2 adbb a093 053d
00000300: 5a3d bf3c 0d13 41bc 89b9 9a3d 6a97 d73d
00000310: 5522 6d3d 86db 763d a247 9abd cc7a 913d
00000320: 1055 02bd efed cabc a440 01bd 2136 99bd
00000330: 1515 fe3c ba3f 3c3d 4768 0e3e d12b 543d
00000340: 89ea edbc 23d9 8a3b e444 9bbd 4a4f 16bd
00000350: 8ada 1b3e 8b23 1b3b 2d13 35bc dba6 883c
00000360: 8b20 c3bb 6c06 d23c 8e97 7f90 4286 413d
00000370: f61d 8f3d 79a9 cabd d220 1ebd bc56 d5bd
00000380: 58e2 153e 7fa9 a0bb a1b9 d23d 7afc 6dbd
00000390: 3003 da3c b69d 13b3 9cae b1bb 64e7 6c3d
000003a0: 1932 a0bc a43c 03bd 6d10 0cba 1074 88bd
000003b0: 9889 563c 0648 c9bb a67c 72bb f1e4 48ba
000003c0: 0338 9bbc 1a3b ad3c d240 ea3b a5c1 83bd
000003d0: c6f7 e0bd b8e6 ccbc 2b4a 4a3b 6c45 2bbd
000003e0: 2aeb 71bd 88d2 cf3d 954a b8bb 4bb4 7abb
000003f0: ed9e 1d3d a5be a23d 0031 6cbd f735 873d
-0.053296264 0.0040576006 -8.928483e-24 0.20844147 -0.021364301 0.100162536 0.06386749 -0.09588334
-0.014066645 -0.10657984 0.08968579 0.10754724 -0.084785886 0.072112516 -0.006488709 -0.0066243014
-0.006714047 -0.010861571 -0.06550143 -0.03360813 0.008492379 -0.054552905 -0.05512543 -0.014074344
0.010848099 -0.08246659 -0.040688105 -0.037415955 0.03367973 -0.009571124 -0.03286242 0.17498682
-0.061934303 0.074247584 -0.0018534268 0.013178156 0.07069652 -0.018714827 -0.037327513 0.017293103
-0.06337819 -0.001866352 -0.0072712717 0.053949676 -0.07217385 -3.127671e-36 -0.10055371 0.14855087
0.008177462 -0.070486955 0.077902235 -0.019992791 0.13429752 0.013114463 -0.03635537 0.175617
0.07704267 0.1835349 -0.08705309 0.199157 -0.046740707 -0.025068367 0.04320635 0.05902599
0.066270836 0.09520023 -0.059818618 0.04652942 0.11479156 -0.046696614 -0.04830288 -0.05010818
0.009378396 0.11594624 0.02897025 -0.0634666 -0.038705543 -0.09345375 0.06713574 0.06881791
0.03769346 0.0896069 -0.0063506076 0.11951255 -0.030124826 0.024284177 -0.0732265 0.013482055
0.23497953 -0.08358882 -0.039608765 -0.049614813 0.017393705 -0.039205257 0.0342452 -0.024618676
0.09841409 0.016185941 -0.0020776815 -0.051262625 -0.08753546 -3.112044e-35 0.0094156945 -0.03015598
0.10390786 0.08335461 0.080674514 -1.3005222e-19 0.04630876 0.117969766 0.0042759883 0.04861448
-0.007029029 -0.056928422 -0.023419704 -0.07084582 -0.096317545 0.08464345 -0.0065046954 0.06507535
-0.015428598 -0.038031224 -0.0015977412 -0.06757743 0.052538067 0.057069324 -0.0656729 -0.0415679
0.111822575 -0.0070921606 0.050426923 0.016154002 -0.03332715 -0.007924087 0.020987159 -0.121438764
-0.061083667 -0.0041527464 -0.06307387 0.068063505 0.12704888 -0.017848304 -0.08956292 -0.05029327
0.08349802 0.18643528 0.079592906 -0.026117442 0.01093809 -0.013586751 -0.091560364 -0.0342476
0.047100358 -2.6344933e-36 0.036719903 -0.041327283 -0.009193413 -0.049081933 0.047133148 -0.010502442
-0.014267196 0.0070904396 0.04919776 -0.10692516 0.0025360666 0.046238955 -0.013465107 0.11593305
-0.08619779 -0.017785458 0.06809089 0.061561797 0.03713972 -0.09261933 -4.247521e-36 0.06227827
-0.07629564 0.0880747 0.025186704 0.013578156 -0.0012953014 -0.052042406 -0.044852685 0.02413603
-0.09299801 -0.017387034 0.031026812 0.011980485 -0.024433622 -0.05006896 -0.0053008213 0.03261149
0.023344684 -0.011784327 0.07554919 0.10526927 0.05789407 0.060267948 -0.07533194 0.071035
-0.031819403 -0.024771659 -0.031555787 -0.074810274 0.031015912 0.045959212 0.13906966 0.0517996
-0.0290425 0.0042373105 -0.07581499 -0.03669671 0.15220085 0.0023672308 -0.011051935 0.016681125
-0.005954807 0.025637828 -5.0406636e-29 0.04724718 0.069881365 -0.098956056 -0.03860552 -0.10416934
0.14637125 -0.004903018 0.10289312 -0.05810211 0.026612848 -3.4369542e-08 -0.0054224264 0.05783786
-0.019555138 -0.032040253 -0.0005343024 -0.06662762 0.013094328 -0.006142619 -0.0037000566 -0.00076635095
-0.018947607 0.021146346 0.0071488405 -0.06433419 -0.10984759 -0.025012359 0.0030866961 -0.041814253
-0.05906216 0.101475775 -0.0056241252 -0.0038254436 0.03848164 0.07946519 -0.057663918 0.0660209

fc3.weight f4 [1, 300]
00000000: ac7f 31be 6084 debd 4659 5eb8 e429 ac3d
00000010: 4072 eebd c69c 253e 6dcc 013e 6184 71bd
00000020: 7e29 23be 4805 b1bd 39db c63d 3e2a 013e
00000030: 8783 a1bd 7ecf c03d ddde 1a3e e355 5d3e
00000040: cbda cdbd 81a9 ce3d 296c 29be 7407 09be
00000050: 3394 30be 2494 3bbe 6e0c a7bd b2be 723e
00000060: 6d99 373e c2e5 72be 0a3a 61be 3fa1 21be
00000070: 1c8a 5f3e 2664 113a 1a59 fcbd 8a8c 993d
00000080: ed0c 2bbe 8a18 a23d accb a13a f861 dd3d
00000090: d09f f63d 5300 3b3e 6842 0abe be0a d03d
000000a0: 8f7f 6fbe 5d52 1b3e 44f4 11be d9e2 ae3d
000000b0: fee8 0bbe 6664 bf02 2381 ecbd 9331 b43d
000000c0: f573 a83e 2d1e f5bd 84e1 d03d 99da 393e
000000d0: b91b ab3d 2828 353e 07d3 28be c525 af3d
000000e0: d7bf 343e aa0b 6b3d 276f 05be fc37 893d
000000f0: a0b7 b2bd 206b b2bd 0556 c73d 45fb d33d
00000100: e4d6 c33d 5729 f03d 36a2 f8bd 796b 743d
00000110: 55e8 be3d 4d9f 02be e6db 09be 1381 f5bd
00000120: 24b5 cd3d 2212 cd3d f246 9f3d f375 1cbe
00000130: aa8a c2bd 5d9f 09be 9e82 213e 0a2d cd3d
00000140: 9adf 603e fad6 e93d 81e5 bd37 e2aa cd3d
00000150: faef 8fbe 7c74 ce3d 4f8d cbbd fc48 4d3e
00000160: bb15 b13d d7ca f0bd f0b7 c6bd 485d f5bd
00000170: 40b9 183e 8adf 4abe d118 ef3d 4edc 6b3e
00000180: 19b9 e63d 1304 233e 1ac5 1b3e 4053 13be
00000190: 47d0 fbbd 1d2a c587 58a4 d43d 1daf 04be
000001a0: 3d39 8e3d 81b8 fa3d 70cb d33d 0ce9 b3b7
000001b0: b76f c43d 2b19 ba3d 7c6f 30be 63ed 2a3e
000001c0: e795 373e 6402 04be 42a3 9ebd e7a2 06be
000001d0: e239 e1bd db9e c23d b4ef 48be 6042 b93d
000001e0: 9dfd 633b 1904 0cbe bbe0 1cbe bebc 79bd
000001f0: 4657 a03d 8e1b 373e b6ad a9bd c632 01be
00000200: 67b1 193e 1812 bcb9 adfc be3d 7bb5 1dbe
00000210: d18e e6bd 3be8 573e 16a5 2a3e a6a3 dbbd
00000220: 6a34 a3bd 10bf d637 3d60 bcbd 462b 0a3e
00000230: e915 ee3d da7a 9cbd 0176 93bd b907 e0bd
00000240: 3e7a b13d ea33 683d 7c24 a23d 394b 06be
00000250: f958 c63d 2d54 6abe cc2c 1dbe a0cf a7bd
00000260: 5d8b 453e 3b2e 6600 16ef c83d 6257 7bbe
00000270: 8463 713e d14f c6bd 02ae 433d 3f59 13be
00000280: 4f06 853e 1d2a 1c3e 5963 e93d ab7e e4bd
00000290: 792c 403e 80df 1b3e 905a 55be 8a2c b53d
000002a0: 6179 c1bd c79a 04be 0596 f13d 49bd 1e3e
000002b0: fa02 1c3e 1d22 06be 308a e604 27c4 633d
000002c0: b4ac 39be 7c0f e13d 93e9 ffbd e75e 1e3e
000002d0: 46a6 e53d 6fb6 76be 298c 56be fc46 683e
000002e0: 65e8 c3bd 32f1 14be 9188 7b3e 5ba2 ff3d
000002f0: 1350 3cbe 2063 eabd 165b 25be 81f5 f63d
00000300: 6651 87be 0069 1abe 053d 153e dbf1 163e
00000310: d538 0a3e 3835 cb3d a516 1dbe 7712 e63d
00000320: b033 23be ed70 443e d7fd b7bd 6efd e0bd
00000330: 7bf0 253e e88f f13d f500 c03d 4392 553e
00000340: bcdd 0cbe 0dad f33d afdd 5ebe dfd9 1ebe
00000350: db3f f73d b258 463e 124c a839 5054 443e
00000360: 3db2 e13a 3327 c33d 77cd de0d 7cc4 583e
00000370: 7e85 933d e10c 08be fe09 41be 6156 b0bd
00000380: 047c b53d 38e2 50be 8db5 0a3e 37e6 7dbe
00000390: c200 043e 0669 7433 47ac 21be a692 4e3e
000003a0: 6b6b 59be 2f20 a3bd 026d 47be 9ff0 d9bd
000003b0: 6304 ea3d 53e3 e0bd 7ace 143e fc23 903a
000003c0: f2aa 4c3e 7bf6 a33d 0621 0dbe 29f7 70bd
000003d0: 1216 e3bd 4ba9 263e 9496 383e 263a 25be
000003e0: 7ce3 e1bd 49d5 d93d 36d9 0a3e d7f2 2ebb
000003f0: 1243 003e a6a5 e93d f90f f6bd 4b6b 233e
-0.17333859 -0.10865092 -5.3012067e-05 0.084064275 -0.11642885 0.16173086 0.12675638 -0.058964137
-0.15933797 -0.086435854 0.09709782 0.1261377 -0.07886415 0.09414576 0.15124078 0.21614794
-0.10051497 0.10090924 -0.16545166 -0.1338175 -0.17244034 -0.1831823 -0.08156668 0.23705557
0.17929621 -0.23720458 -0.21994796 -0.15784167 0.21830028 0.00055462343 -0.12321682 0.07497509
-0.1670415 0.07914837 0.0012344024 0.10809702 0.120422006 0.18261842 -0.13501894 0.10158299
-0.23388503 0.15168138 -0.14253336 0.085393615 -0.13663098 2.8122554e-37 -0.115480684 0.08798518
0.32900968 -0.11968646 0.10199264 0.18149795 0.08354897 0.176911 -0.1648675 0.08552126
0.17651306 0.05738417 -0.13030683 0.06700131 -0.0872643 -0.08711839 0.09733204 0.1035066
0.095624715 0.11726635 -0.12140314 0.059672806 0.093216576 -0.12756081 -0.13462791 -0.119875096
0.100443155 0.10013224 0.077772036 -0.15279369 -0.09499104 -0.13439699 0.15772483 0.10018356
0.21960297 0.11417957 2.2637427e-05 0.10042359 -0.28112775 0.100808114 -0.09939062 0.20047373
0.08646723 -0.11757439 -0.09703052 -0.119806826 0.14914417 -0.19811836 0.11674655 0.23033258
0.11265773 0.15919523 0.15211907 -0.14387226 -0.12295585 -2.9666018e-34 0.103829086 -0.12957425
0.06944511 0.122422226 0.10341537 -2.1446984e-05 0.095916204 0.09086832 -0.17230028 0.16692118
0.17928277 -0.12891537 -0.07745983 -0.1314808 -0.109973684 0.095029555 -0.1962269 0.09045863
0.0034788616 -0.13673438 -0.15320103 -0.060971014 0.07829146 0.17881605 -0.08285086 -0.12617025
0.1500908 -0.00035871635 0.09325538 -0.1540126 -0.11257709 0.21084683 0.16664538 -0.10724573
-0.079689816 2.5599758e-05 -0.091980435 0.1349307 0.11625273 -0.076406196 -0.07200242 -0.10938973
0.08665894 0.056690134 0.07917115 -0.13114633 0.09684939 -0.22883673 -0.1534912 -0.08193898
0.19291444 9.383805e-39 0.09811227 -0.24545053 0.23573118 -0.096831925 0.04777337 -0.14389513
0.25981376 0.1525044 0.11395902 -0.111569725 0.18766965 0.15221977 -0.20835328 0.08846386
-0.09446979 -0.12949668 0.11796192 0.15501894 0.1523551 -0.1309895 5.4199645e-36 0.055606987
-0.18132287 0.109892815 -0.124957226 0.1546589 0.11213355 -0.2409303 -0.20951904 0.22683328
-0.0956581 -0.14545134 0.24563815 0.12482139 -0.18389921 -0.11444688 -0.16148028 0.12058545
-0.2642929 -0.15079117 0.14574058 0.14740698 0.13498242 0.0992226 -0.1534067 0.11233991
-0.15937686 0.19183703 -0.08983963 -0.10985838 0.16205017 0.11795026 0.093751825 0.20856576
-0.1375646 0.11898241 -0.21764253 -0.15512799 0.12072726 0.19369772 0.00032100134 0.19172788
0.0017219257 0.09528961 1.373127e-30 0.21168703 0.07203196 -0.13286163 -0.18851468 -0.086102255
0.08861545 -0.20398796 0.13545819 -0.24794851 0.12890914 5.6906195e-08 -0.15788375 0.2017313
-0.21232383 -0.07965123 -0.19475177 -0.10641598 0.11426618 -0.10980859 0.1453189 0.0010997052
0.19987085 0.08005997 -0.13782129 -0.05882946 -0.11088194 0.16275518 0.18026191 -0.16135463
-0.11029717 0.10636384 0.13559422 -0.0026695037 0.12525585 0.11408548 -0.12014765 0.15958898
