checkpoint_20_actor.pth (torch_old, 169512 bytes, 6 tensors)

fc1.weight f4 [256, 33]
00000000: e14e 473e bf12 eabc e181 91bd dd58 91be
00000010: c869 743e 06d7 4dbe 41a3 593d 4b54 e9bd
00000020: 3db8 82bc 5595 173e 294b 22be f60c 63bd
00000030: e38c c2bd 179e c3bd 791f 3c3e 702e 8b3d
00000040: 2f0a f0bd d243 02be 2001 41bb 1157 9abd
00000050: 8da7 cdbd 8f27 673e 046c af3d 6842 5fbe
00000060: 0070 ca3d 03aa 853e aec0 c03d 61fe 5c3e
00000070: 9d55 2bbd 702a 013d c20c 3bbe 7400 e93c
00000080: fb6b e23e 7d01 d63c 360f 0abe f882 96be
00000090: 8a2a b9bd 56ff 42bc 8a48 f2bd 6b0a a83d
000000a0: 6db4 d73d 1524 a13d 8775 89be 3d44 5cbc
000000b0: 0966 1b3e 37d7 3ebd 5c04 5c3d 5857 fe3d
000000c0: 9111 793e 26d6 93ba 0c8f f83d 926f 233d
000000d0: 7ae7 7b3d 9520 68bd be55 d6bd 911c 123d
000000e0: 92b5 5abb e534 803d 9d1b ff3d 2775 1c3d
000000f0: 5ffe 573d b99d 87bc ca5b 71bd f94a 28bd
00000100: 1a4e 543d 64f1 7a3f 52d6 543d e389 753d
00000110: fe1f f9bc beb6 ee3d 1db3 a73d 9233 b2bd
00000120: 82ed eabd 3755 89bd 30e8 9f3e 8976 b0bd
00000130: 6467 343d 148b eabc ffc3 33bc 45bd 5dbd
00000140: 7478 89bc 34e6 e23c 5d87 6e3d 3f9d 033e
00000150: 7c4b 2fbd 480b f7bd 9d9c c6bd 4d9d debd
00000160: 55b6 d03b 70c0 04be 16ec 203b 1454 b9bc
00000170: 14b9 2c3d 68aa 37bb f206 8e3d 2841 063d
00000180: e29f 73bd 7ca1 12bd 64dd 6c3f fab2 473e
00000190: 22f1 06be a693 23be cffe 23be 25fe a1bd
000001a0: e369 a1be edc5 43be bf23 80bd f4e2 9bbd
000001b0: 3912 ad3d 5518 e23c e8be 153d f3f0 6c3d
000001c0: 6ca9 9dbd 3e8a 7f3e 4c6e c2bd ef04 ebbd
000001d0: 1f1d da3d 2510 3b3d 6d4b 063c ced3 1a3e
000001e0: 7dc1 98bd 03fe c1bb 10f0 8abc 908b 113d
000001f0: ae70 98bc 1b16 3b3e bcf8 e13d b402 bc3e
00000200: 8c51 63bd e35e a5bd 38cd 34bd fe4e 253e
00000210: 3188 ba3e 6f1a cbbd eb83 a43d 6002 3e3d
00000220: ccf6 653d 62d6 9cbe 8691 683c c9e7 143e
00000230: 2404 9f3d 936b 1b3e c83c 4c3c 4f51 15be
00000240: ee1c fe3d 82c3 83be 9806 a73d 7f82 4a3c
00000250: 933b debd 1ff7 03be ee09 153e 7043 a53d
00000260: 2978 693d dc02 48be 4b7f 0e3d 65c2 15be
00000270: 53e1 063d 0ed3 a6bd c93e cf3d 684b 2ebd
00000280: ba71 b73c b84f 373c cafd 5d3d 28a8 743d
00000290: 209d da3d 633f 2e3d d7b4 933e 9ea9 85be
000002a0: fc86 ab3c 069f 3a3e 8bf1 febd 7c0f 0abd
000002b0: 7483 713e ad37 753d d810 0c3e 1722 e43b
000002c0: b62f 15bd 0eff 213d 5a26 0ebe a301 a6be
000002d0: 5b99 0c3e 9910 bcbd 7348 b5bd b30a 45bd
000002e0: 75f8 8bbc ac4a 543c de95 0ebd 87e1 a33d
000002f0: 7854 22bd 1021 d5bd 7950 213d fc19 913d
00000300: 26de 833d 754c 0f3d e88c bf3c 07a7 96bd
00000310: b44c 823c 4fde d83c 4d86 86be 4377 f3bd
00000320: f436 a03d 2a39 e13d 8fb5 aebc 4948 753d
00000330: 00e2 1abe 5325 7cbd 6829 18bd 3059 ca3d
00000340: 9a1a 30bd 089e 12bd 001f 183c 7dce 2c3c
00000350: cd66 353e a146 273d b64c c23d c76c cc3d
00000360: 5062 6fbd 38e5 073d 6497 de3b f3b3 9c3d
00000370: bd9b d9bd c9f1 7cbb 62cb 2ebe ca3a 553c
00000380: 657a 393e 0bfa fa3c 483c 923d 90ba 223d
00000390: 88e5 b2bd 3880 463c 0969 6dbf 1988 9fbe
000003a0: 1fa4 4f3e a033 fe3d 86d7 dfbe 9a71 8ebd
000003b0: 9429 bfbe cc58 e53d 3568 0f3e 9c9f 513e
000003c0: 9774 293d a552 30be cc6f fab9 f9a2 18be
000003d0: 7bbd 56bd 5435 0d3e 2071 f7bd f7f3 933d
000003e0: e196 0dbe 7256 223e d55b 63be ff49 09bd
000003f0: 2599 e43d f0cf 6e3e 944b 7ebd 2cdf 9bbd
0.19463684 -0.028573392 -0.071048506 -0.2838811 0.23868477 -0.20101556 0.053134207 -0.11393031
-0.015956992 0.1480306 -0.15848984 -0.055432282 -0.09499528 -0.095516376 0.18371381 0.067959666
-0.11720692 -0.12721184 -0.0029450133 -0.07536138 -0.100417234 0.22573684 0.08565524 -0.21802676
0.098846436 0.2610627 0.09411751 0.21581413 -0.041829694 0.031534612 -0.18266585 0.028442599
0.44223008 0.026123757 -0.13482365 -0.29396796 -0.09041317 -0.011901697 -0.11830242 0.08205112
0.1053246 0.0786821 -0.2684748 -0.013444004 0.15175642 -0.046591964 0.053715095 0.12419003
0.24323107 -0.0011279031 0.12136659 0.039901324 0.06150005 -0.056671698 -0.10465573 0.035671774
-0.0033372384 0.06260089 0.12456439 0.038197663 0.05273282 -0.0165547 -0.058925427 -0.041087124
0.051832296 0.9802458 0.051962204 0.059945952 -0.030410763 0.11655949 0.0818846 -0.087012425
-0.11471082 -0.067057066 0.31231833 -0.08616359 0.044043913 -0.02863077 -0.010972022 -0.05413558
-0.01678107 0.02769766 0.05823456 0.12852953 -0.042796597 -0.120626986 -0.0969784 -0.108698465
0.006369392 -0.12964034 0.002455478 -0.0226231 0.04216869 -0.0028025154 0.069349185 0.03277698
-0.059478648 -0.035798535 0.92525315 0.19501868 -0.13177922 -0.15974292 -0.1601517 -0.07909802
-0.31526098 -0.19118471 -0.06256818 -0.07611647 0.08450741 0.027599493 0.036559016 0.057846975
-0.0769833 0.24955079 -0.09493694 -0.114755504 0.10650086 0.045669693 0.008196694 0.1511986
-0.0745878 -0.005920173 -0.016960174 0.035533488 -0.018608417 0.18270151 0.110337704 0.36720812
-0.05549769 -0.08074739 -0.044141024 0.16143414 0.3643203 -0.09917151 0.08032974 0.046388984
0.056143567 -0.3063231 0.014194852 0.14541544 0.07764462 0.15177755 0.012465663 -0.14581798
0.12407862 -0.25735098 0.081555545 0.012360214 -0.10851207 -0.12887238 0.14554569 0.08069503
0.05699936 -0.19532341 0.034789365 -0.14624937 0.03292973 -0.08145724 0.10119397 -0.04255238
0.022393096 0.01118844 0.05419711 0.05973068 0.106745005 0.04254092 0.28848907 -0.2610597
0.020938389 0.18224725 -0.124484144 -0.033706173 0.23585302 0.05986755 0.136783 0.0069620716
-0.036422454 0.03954988 -0.13881817 -0.32423124 0.13730375 -0.09182853 -0.08851709 -0.048105907
-0.017086247 0.012957256 -0.034810893 0.08002 -0.039631337 -0.10406697 0.039383385 0.07085034
0.06438856 0.034985024 0.023382619 -0.07356077 0.015905716 0.026473192 -0.26274338 -0.11887982
0.078229815 0.10997231 -0.021326808 0.05988339 -0.15125275 -0.061559033 -0.037148863 0.098802924
-0.04299412 -0.03579524 0.009284735 0.0105472775 0.17714997 0.04083884 0.09487288 0.09981685
-0.058443367 0.033177584 0.0067929495 0.0765151 -0.10625408 -0.0038596264 -0.17069772 0.013014505
0.18113096 0.030636808 0.07140404 0.0397287 -0.08735186 0.012115531 -0.92738396 -0.31158522
0.20277451 0.124121904 -0.4371912 -0.069552615 -0.3733641 0.11198577 0.14004596 0.20471042
0.041370954 -0.17219026 -0.0004776701 -0.14905919 -0.052426796 0.13789874 -0.12082124 0.07224267
-0.13827087 0.15853289 -0.22203 -0.033517834 0.111620225 0.2332151 -0.062083796 -0.07610926

fc1.bias f4 [256]
00000000: 3ab7 c5bd 05ba 083e 4615 50bd 092c e53c
00000010: c7e0 68b9 da8e 70be ed4f 46be 8ded 66be
00000020: f175 8abd 4a26 80bd cf7b adbe 34eb c0bb
00000030: f46c 2a3e 25af 34be 639c c6bd 7026 fcbd
00000040: 5f7a f6bd 0ffd 62bd 7f3e 2b3e 4855 61be
00000050: 4427 98bc c2e4 b5bd 6e65 b4bd cbb7 56be
00000060: b1fd d7bd 0005 e5bd ec81 943d 82d5 02be
00000070: 92bf 62bd ce01 c63c 31ae f8bc 3e8d 29bd
00000080: 6df1 2dbe ed16 20be 2ca6 acbe e79a 61bd
00000090: 9a51 673e afc8 d73c bd41 2cbd 8d6d e4bc
000000a0: fc69 b1be 6ca3 2dbd 7b81 a13d 5767 c6bd
000000b0: 2b1b 9fbd 1a41 b0bd 013d cfbc c392 243e
000000c0: 5d7e 8bbd e304 37be 4560 78be 7dbe 103d
000000d0: 8be3 a3be ab66 31be 7441 b3be e478 cb3c
000000e0: c300 0dbe 5fd9 b0bc b634 09be d9ca 06be
000000f0: 46b5 e6bd c247 433c 9025 85be aab8 18bc
00000100: fc49 73be e7c7 a5bd 5adf 7f3d 12ac 1a3e
00000110: 0b7e 113e 6145 c1bd 4f2e d8bd ef31 5cba
00000120: f619 13be 0e5a dcbe 6791 c83d 98aa 153e
00000130: 5b4e 4a3d 3af8 b0bd 1073 e43d 0209 81be
00000140: 4db4 ce3d 5bbe c93d f922 ccbd 95f0 833d
00000150: 2f78 14be 1129 53be 6810 943d b579 a1bd
00000160: 445c a9bd c4ca a03d 0d48 e8bb b6df 1e3c
00000170: 1317 bcbd 78b1 b4be 3e5c 7fbe a986 073e
00000180: c1d9 1d3e 9c98 09be dce6 703e d911 99bd
00000190: 7fd0 bf3d c9bb ad3d 57ed d7bd 53f6 8fbe
000001a0: 2e1a 4ebe 959f 7dbd 14a3 90be cf0d c73c
000001b0: 5427 8b3d f35f 1fbe 4d35 123e 0176 233b
000001c0: 3fb6 a2be 2238 82be 7309 3abc f780 b4bd
000001d0: 37c2 86bd adfa c3bd 8f47 43be 6eea 35be
000001e0: 6b5a a43c 09b9 163d ab81 f73d 2279 debd
000001f0: 032a 55bd 6633 e63d d9cb 8b3d 12fc 623b
00000200: 29df 2cbd d2fa 663d 1718 c2bd 253c 65be
00000210: 72b2 eebd 77c8 f43d 8edc c63b c7f7 32be
00000220: 762b 90be 3510 b93d 5418 d9be f607 62bc
00000230: 0f2c 2dbe 7ff8 e2bd f333 1dbe 9c65 82be
00000240: 709b 43bd f678 52be 1375 3cbc 5b69 4ebe
00000250: ffce 91bc cd87 6dbc 9001 73be da83 c5bc
00000260: c5cd 76be 4b7b c3bc f9f2 5ebc 641c 26bd
00000270: 2ef7 773d c553 59be 154f c93c e5d7 27be
00000280: d8eb d23c a288 8dbe 68be 10be 3ead 89be
00000290: 84f6 a13c 72fb 4cbe e050 343d 97fc 89bd
000002a0: 6bf2 18bd 9391 aebc 61ac d5bd 2005 8e3c
000002b0: ca4d 913d 7548 513e 9b67 3639 b48c dbbd
000002c0: f049 ae3d 7062 20bd d3d9 873e 20c9 80bb
000002d0: eef1 c0bd 2ab4 80bd 7a78 59be c9f6 d1bd
000002e0: da9d 20be 45e4 f0bd 12e4 ddbd 2674 253c
000002f0: 9b0c 1dbd 4673 153e 914a 54be 435a fb3c
00000300: dd2c cb3d f640 03bc 91a4 9c3d a96b 3f3d
00000310: b8ef c7bd 08a1 44be a81d 6ebe 6c11 66be
00000320: 60a6 10be e56d 2f3e 8f2f 2fbe 6938 2ebe
00000330: ca52 bb3d 002d 85bc 828e 40be 8c25 95bd
00000340: 4e2a 0cbe 6b7f a4bd 595c c73d 8059 9abd
00000350: eec7 933d 3dde 43be b3a1 8cbd e871 a3bd
00000360: 2c34 9d3c 28fd 2d3d 573d 043e 178f 433d
00000370: 645f 6b3d 502d 56bd 4209 95be bf9a 88be
00000380: 5367 8e3c 9b5a 3ebe f14e dcbd 48be 1b3d
00000390: 1e70 8d3b 19a5 e33c 99b3 5fbe b29e e3bc
000003a0: 7bc7 8bbe 7385 cebe 9767 05bd 1709 5abe
000003b0: c357 55bd 525f dabe d9b0 263d ac15 4fbe
000003c0: a343 713d 5575 3abe 865c 373e bc88 a3be
000003d0: 752c 583c f3fc 433d a3a0 3cbc 3636 5b3e
000003e0: e784 b63d 00eb 47bd 0c98 143e 7c98 50bd
000003f0: 84a5 433e 371c 3bbe 4f09 a3be faab 1a3e
-0.09654088 0.13352211 -0.050801538 0.0279751 -0.0002220898 -0.23491994 -0.19366427 -0.22551556
-0.06760777 -0.06257303 -0.3388352 -0.0058874134 0.16643125 -0.17644937 -0.09697797 -0.12312019
-0.12035059 -0.055417117 0.16723059 -0.22005188 -0.01857341 -0.08881523 -0.08808409 -0.20968549
-0.10546435 -0.11182594 0.07251343 -0.1277676 -0.055358477 0.024170782 -0.030356498 -0.041394465
-0.16986628 -0.15633745 -0.3372053 -0.055079367 0.22589722 0.02634081 -0.04205488 -0.02788427
-0.34651172 -0.04239218 0.078860246 -0.09687679 -0.07768854 -0.08606167 -0.025297644 0.1607161
-0.06811211 -0.17872958 -0.24255474 0.035337914 -0.3200954 -0.17324321 -0.35010874 0.024837919
-0.13769822 -0.021588026 -0.13399014 -0.13163318 -0.11265044 0.011918964 -0.2600522 -0.009321371
-0.23758692 -0.08094769 0.062468864 0.15104702 0.14208238 -0.09437061 -0.10555708 -0.00083997747
-0.14365372 -0.43037456 0.09793358 0.14615858 0.04939113 -0.086410955 0.11154759 -0.25202185
0.100929834 0.098507605 -0.09967608 0.06442372 -0.14498971 -0.20621134 0.07229692 -0.07884542
-0.082695514 0.078511745 -0.0070886672 0.0096968915 -0.091840886 -0.35291648 -0.24937531 0.13234963
0.15415098 -0.13437122 0.23525566 -0.07474107 0.09365939 0.08483083 -0.10543316 -0.28117618
-0.20127174 -0.061919767 -0.2824942 0.024298577 0.067946106 -0.15563945 0.14278145 0.0024942162
-0.31779668 -0.2543345 -0.011354792 -0.088136606 -0.06580012 -0.09569297 -0.19070266 -0.17765209
0.020062646 0.036797557 0.12085279 -0.10862948 -0.05204202 0.11240272 0.0682599 0.003463511
-0.04220501 0.056391545 -0.09477251 -0.22386225 -0.116551295 0.11952298 0.0060687726 -0.17477332
-0.28158158 0.09036294 -0.42401373 -0.013795843 -0.16911338 -0.11082553 -0.15351848 -0.25468147
-0.04775566 -0.20553955 -0.011502522 -0.20157377 -0.017798899 -0.014497709 -0.23731065 -0.024110723
-0.24101932 -0.023862502 -0.013607734 -0.04055442 0.060538463 -0.21223362 0.024573842 -0.16390951
0.025747225 -0.27643305 -0.14135134 -0.26889986 0.019770868 -0.20017794 0.04402244 -0.06737631
-0.037340563 -0.02130965 -0.10433269 0.017336428 0.07094915 0.20437796 0.00017395469 -0.10720196
0.08510196 -0.039156377 0.26533374 -0.003930226 -0.094211444 -0.062843636 -0.21237364 -0.10252149
-0.15685216 -0.11762289 -0.108345166 0.010098493 -0.0383421 0.14594755 -0.2073157 0.030682689
0.09920666 -0.008011093 0.07648576 0.046733532 -0.097625196 -0.19202054 -0.232535 -0.22467583
-0.14125967 0.17131765 -0.17107986 -0.17013706 0.0914665 -0.01625681 -0.18804362 -0.07282552
-0.13688013 -0.080321155 0.09734411 -0.07536602 0.07215868 -0.19127746 -0.06866779 -0.0798071
0.019189917 0.042477757 0.12914024 0.047743883 0.05746402 -0.052289307 -0.29108626 -0.26680562
0.017383253 -0.1858925 -0.107572444 0.038023263 0.004316344 0.027788686 -0.21845855 -0.027785633
-0.2730063 -0.4033619 -0.032569494 -0.2129253 -0.05208565 -0.4265085 0.040696 -0.20223111
0.058902394 -0.18208821 0.17906389 -0.31940258 0.013194193 0.047848653 -0.011512908 0.21407399
0.08912068 -0.048808098 0.14511126 -0.05092667 0.19106108 -0.18272482 -0.3184304 0.15104666

fc2.weight f4 [128, 256]
00000000: fa63 e9be 2bab 2d3e b069 07bf dd3b 30bf
00000010: 7ad8 7e3d 778c 44bd 6c55 29bf 8c9d ba3c
00000020: a66d 85bd eee7 5b3e a3b1 bb3e 565d c8bd
00000030: b4d6 b9bd ddaa aebd ca01 e4be a241 023e
00000040: b5e5 1ebe 9b84 013e 9814 07be a666 9cbe
00000050: 583c c0bd 8fab 593e d4a5 d1be cf18 ee3d
00000060: e725 e03d adea 95be 4f8d b6bd 3a89 ceba
00000070: 2886 8c3d a78d 1c3e 7595 483e 919e e33d
00000080: 5dee 51be 8ebb 623d 11e3 813d bdc1 d03c
00000090: a7d9 21be 4d4d 17bf 5495 40bf fd4b 1a3e
000000a0: 9f75 2ebf fdef 9abe 8e64 9a3d bc34 17be
000000b0: 7133 b93e b105 243d 0f7c aebd bde1 dcbe
000000c0: afb5 563d 3de4 1abe 36ab 733e 65c2 05bf
000000d0: 6228 783d 8014 bd3d 794e 473c 6291 87be
000000e0: 7f7f 72bd de0a abbe 54a2 663e f3ef baba
000000f0: d029 d93c 14a9 553d a635 f7be 5111 303e
00000100: 7632 ac3b 5ea2 25bd 750c 33be d05c 3ebd
00000110: 5178 be3e 1c6e 673e 395c a83b 18f3 65be
00000120: f02d 783d 5936 dc3d fa17 2d3e d8b4 10be
00000130: d724 2f3e e057 f7bd 11e9 17bf 6d63 0c3d
00000140: 79dc e43d cad1 e23d 6ee9 4abf ae82 91be
00000150: 7a77 9bbe 36c1 ac3c 05db 5f3d 9cdb e33e
00000160: db3b 28be 8c2f 83be c491 f03e b829 b7be
00000170: 8da8 18bf 0dc4 00bf 6bf1 b9be bc92 0bbe
00000180: 8058 f7bd be84 703e 6f1b afbe a6ae 5abe
00000190: 192f 85bc 256e 4cbe 7d77 55b9 9a60 80be
000001a0: 1afc 61be c224 04bd cae0 683d bfb4 01bf
000001b0: 1814 85bb 2426 403d 0afe 753c dc5d 53bd
000001c0: d84f 9cba 7a60 69be f552 533c 7ab6 a1bc
000001d0: ffe0 c7be 857a 3d3e 3e63 4c3d 64cd 1c3d
000001e0: 06d6 583b 5b0d 64bd 86b8 3fbe 780d 14bd
000001f0: 9ec8 a73e 5a65 bdbd a4b7 60be 7653 853e
00000200: 50ce c53d 170d 403e 02c8 84bd 823d d6bd
00000210: c915 883e 6b7a 18be e991 bcbe 0af7 3f3e
00000220: a49d 18be ace0 813c 5c6f 8c3e d7ab 7abd
00000230: 9d97 c3bd 39b1 743e 7ee9 1a3d 21e7 853e
00000240: d82e d4bd 16d3 243f f1bd 0cbe 6ef9 a9be
00000250: dd8a b4ba 867a e0bd 2d29 bb3e 7c1e 8f3d
00000260: c7e4 c43d b436 cdbd 1c6e 443e a877 a83d
00000270: 9f9d 03be 5abb fd3d 8122 9bbe 2eff 003d
00000280: 4f52 e63d 187b c03d 94b5 edb9 1874 07be
00000290: f19e e03d baa9 2b3d 35c2 8abe bdde 46be
000002a0: 4fce 473e 1639 b3bd 17d0 03be 58c9 c1be
000002b0: 7a83 843e dcaa eebe 62e8 f1be 1ced 0c3e
000002c0: d16f 00be 5a47 d0bb 5d2c 97be ac81 8fbd
000002d0: b9e7 92be 991d 573e 29bd 9e3e 1c73 85bd
000002e0: fa63 85be 7371 65be 0f0f db3c 3280 203e
000002f0: 59dc 9b3d f2f3 18be ce79 c63e 57ac 933e
00000300: c4fa 5fbd c92a babe 54ef 92be f219 99be
00000310: 3c77 723d f1d1 18be d28e c83d 9f07 45bd
00000320: 4a39 01bf 6a30 d4bd d04f c93e e075 383e
00000330: 9bfa a6bd 4f90 5bbd d208 3f3d 6e54 a9be
00000340: 7855 1d3e 91fd 2abc 6f36 cf3d 0b44 503e
00000350: db02 b13d 7a1c 223d d45f 00be 5387 633e
00000360: e7e1 5ebe 1067 89be cd1d f73e d52c b53d
00000370: 910f 143e e3ed 51be 9b4c 3abd ed02 6b3d
00000380: b359 433e 4448 acbd 3ff1 8cbe 2f69 373e
00000390: b43f 9bbe 0941 8fbe c892 9a3d 8150 cabe
000003a0: 7fe7 9d3e 971a d2bd 8065 27bf 49ba c43d
000003b0: b0ae ba3e 1a1d ec3e d908 8bbc f70a 56be
000003c0: e5cc 9a3d 166e fbbe 59fe 49bd 574e 8c3e
000003d0: 9dd5 003e edc9 71be 65e9 433e 55a0 463e
000003e0: 5a72 c1bc c2a0 4e3d 9969 253e 5237 163e
000003f0: 6c39 a2bd 72a1 253e 6774 8d3d e0a7 8ebe
-0.4558409 0.16959827 -0.5289564 -0.68841344 0.062218167 -0.04798552 -0.6614597 0.022780202
-0.065150544 0.21475193 0.36658964 -0.097834274 -0.090741545 -0.08528683 -0.44532615 0.1272035
-0.15517314 0.12648241 -0.1319145 -0.30547065 -0.0938651 0.2125685 -0.4094683 0.116258256
0.10944729 -0.29280606 -0.08913671 -0.001575745 0.06861526 0.15288411 0.19588263 0.111142285
-0.20501085 0.055354647 0.063421376 0.025483007 -0.15805684 -0.59102327 -0.75227857 0.1506805
-0.68148226 -0.30261222 0.075387105 -0.1476621 0.3617206 0.04004449 -0.08519756 -0.43140975
0.05241936 -0.15126128 0.2379578 -0.5224975 0.060585387 0.09232426 0.012164705 -0.26478106
-0.05920362 -0.33406729 0.22522861 -0.0014262184 0.026509196 0.0521632 -0.48283118 0.17194106
0.005255039 -0.04043805 -0.1748522 -0.04647523 0.3720117 0.22600597 0.005137947 -0.22456014
0.060590684 0.107525535 0.16903678 -0.14131486 0.17103897 -0.12077308 -0.59340006 0.034274507
0.11174864 0.1107517 -0.79262435 -0.28420013 -0.3036459 0.021088224 0.054652233 0.44503486
-0.16429083 -0.25622213 0.4698621 -0.35774016 -0.5963219 -0.5029915 -0.36317 -0.13630193
-0.12077427 0.23488137 -0.34200618 -0.21355686 -0.01625781 -0.19963892 -0.00020357776 -0.250737
-0.22068825 -0.032261617 0.056855 -0.5066642 -0.0040612333 0.046911374 0.015014181 -0.051603183
-0.0011925651 -0.22790709 0.0128981965 -0.019740332 -0.39038846 0.18503769 0.049899332 0.038281813
0.0033086552 -0.0556768 -0.18722734 -0.036145657 0.32770246 -0.09247847 -0.21945053 0.26040238
0.096584916 0.18754993 -0.06483461 -0.104609504 0.2657912 -0.14890449 -0.3683007 0.18746582
-0.14903885 0.015854202 0.2742871 -0.061199035 -0.09550402 0.2389573 0.03782033 0.261529
-0.10360497 0.6438459 -0.13744332 -0.33198112 -0.0013774295 -0.109608695 0.36554852 0.06988236
0.09613948 -0.100201994 0.19182628 0.082259476 -0.12853096 0.1238925 -0.30299762 0.03149336
0.11246168 0.09398478 -0.0004533945 -0.1322788 0.10967816 0.04190991 -0.27101293 -0.19420905
0.19512294 -0.08751123 -0.12872349 -0.37848926 0.2588156 -0.4661473 -0.47247607 0.13762325
-0.12542655 -0.006356162 -0.29526034 -0.07007155 -0.28692415 0.21007384 0.31003693 -0.06516096
-0.2605284 -0.22406559 0.026740579 0.15673903 0.07610387 -0.14936808 0.38764805 0.28842422
-0.054682508 -0.36360767 -0.28698218 -0.29902607 0.059195742 -0.14923836 0.09792866 -0.04810297
-0.5047804 -0.10360797 0.39318705 0.18013716 -0.08153268 -0.05360442 0.04663927 -0.33072227
0.15364635 -0.0104364315 0.10117804 0.20338456 0.08643123 0.03957794 -0.12536556 0.22219591
-0.21765862 -0.26836443 0.48264924 0.08846442 0.14459063 -0.20500903 -0.045483213 0.057375837
0.19077186 -0.08412221 -0.27527806 0.17911218 -0.3032204 -0.27979305 0.075475276 -0.39514545
0.3084068 -0.10258978 -0.6538925 0.096058436 0.364614 0.46115953 -0.016971992 -0.2090262
0.07558612 -0.49107426 -0.04931483 0.2740352 0.12581487 -0.23612185 0.19132002 0.193971
-0.023614097 0.05044628 0.16153564 0.1466954 -0.079211086 0.16174868 0.069069676 -0.27862453

fc2.bias f4 [128]
00000000: f49f c5bd 1f67 bd3c 71a5 9abd b788 67bd
00000010: 9d92 e63d fcf8 cdbd 85e6 0a3d bc66 07be
00000020: 4d00 633c 29ca c43c 918e 1cbe beca 8bbd
00000030: 2d3b 93bd 4f4b 23bc fc9b b8bd beb8 9c3c
00000040: 270b 113d 9add fc3d f947 40be 1b7c ddbd
00000050: 9967 e9bd 38a1 f7bc dbf9 23bd fe3c a6bd
00000060: e4c5 06be 034b 6e3d fd1e 27be f7e4 b33d
00000070: 18d0 abbd 52c3 2d3d 9bc4 103c fb8f 273d
00000080: 6114 64bd 842e 24be 2e87 53bc 822f 1fbe
00000090: b38d 573d 717f 42be 900a d1bc c448 28be
000000a0: 751a 77bc 9458 60bc 4eb6 b7bc 89f2 85bd
000000b0: b8e0 d5bd 62af 5abd a577 823d 711b 51bd
000000c0: a254 09be 987d b6bc a06c e9bc d742 41be
000000d0: f3d6 aebc c2f9 b339 4355 4dbe 638b 833b
000000e0: 19f8 58bd ecd3 e03b 9169 833d 7ea5 2bbd
000000f0: 1b99 f43c 024f d33b 2349 8fbe b8ec 823d
00000100: f05c edbd 4782 f33d e3f7 4b3d e19e d83c
00000110: ced5 8dbd e297 c7bc d858 16bd a130 153d
00000120: 09d9 f63c 1bc1 1abe d713 3ebe 665a d8ba
00000130: 5fa6 d7bd 286b 1a3d 96d6 043d 6426 613e
00000140: 3d85 9ebd 392d 5b3d 1b3b 91bb 9650 13bd
00000150: ec18 643c 51eb 4bbe 9e9c 42be 63ac 073d
00000160: afdc f3bd 57c3 15bc 0d76 893c 2990 d2bd
00000170: 19e8 ff3c 8a1c d33d 6e49 c1bd 6651 40be
00000180: 2f11 12be a221 c23c 71cb 35be e0aa 15bd
00000190: b42b 0bbe caab fd3d b0a9 1bbe 994e 89bd
000001a0: 889a cc3c 38bf ff3c 65d3 2ebd 3800 9f3d
000001b0: bf04 10bd 0c0b 48bc d607 d0bd 5c0b 24bd
000001c0: 6cd3 ff3c e16d 0dbc b4ad 223e 51d9 d6bb
000001d0: 47a9 debd db3f 39be eb4d 0fbe 16ef f3bc
000001e0: f6ee bcbd 3519 cebd 43cd 7dbd 5fff c7bc
000001f0: ca5b f5bd 06d0 26be a863 80bc 4260 82ba
-0.09649649 0.023120461 -0.07551087 -0.056526866 0.11258433 -0.100572556 0.033911247 -0.13222784
0.013855052 0.024022179 -0.1528876 -0.068257794 -0.07189021 -0.009966685 -0.09014127 0.01913106
0.035411026 0.12346955 -0.18777455 -0.10814687 -0.11396713 -0.030228242 -0.040033203 -0.08117102
-0.13161427 0.058177005 -0.16320415 0.08783906 -0.083893 0.0424226 0.008835937 0.040908795
-0.055683497 -0.1603337 -0.012910647 -0.15545467 0.05262537 -0.18993928 -0.025517732 -0.16434008
-0.015081991 -0.013692994 -0.022425797 -0.065404005 -0.10443252 -0.053389914 0.06370477 -0.05105156
-0.13411191 -0.022276685 -0.02849418 -0.18873154 -0.02134273 0.00034327625 -0.20052056 0.004014419
-0.05297098 0.0068612006 0.064166196 -0.041905873 0.029858163 0.0064486274 -0.27985486 0.06392807
-0.11589992 0.11890083 0.04979695 0.026442947 -0.06925546 -0.024364416 -0.03670582 0.03642333
0.030132787 -0.15112726 -0.18562256 -0.0016506433 -0.1052978 0.03769985 0.032431208 0.21987301
-0.07740257 0.053509925 -0.0044320947 -0.035965525 0.013921957 -0.19913985 -0.19005057 0.033123385
-0.119073264 -0.009140811 0.016779924 -0.102814026 0.031238602 0.10308178 -0.09437834 -0.18781051
-0.14264368 0.023697678 -0.17753388 -0.036539912 -0.1359089 0.12386282 -0.1520145 -0.067044444
0.02497603 0.03121911 -0.04268207 0.077637136 -0.035160776 -0.012209665 -0.101577446 -0.040049896
0.031228743 -0.008632154 0.15886575 -0.006556668 -0.10872131 -0.18090765 -0.13994567 -0.029777091
-0.09225266 -0.100634016 -0.06196333 -0.024413763 -0.11980398 -0.16290292 -0.01567252 -0.00099469

fc3.weight f4 [4, 128]
00000000: 96d8 f83f ba0b e93e 01f3 8abe 8dbc d73f
00000010: 6e58 a9bd 2a24 75bf 495d 97bf 6e81 d5be
00000020: 2257 e4bd ca18 5d3c 8daf 8fbe 9f01 7ebe
00000030: c070 2e3e f17a a23e 38d8 933d d645 483f
00000040: 1892 52bf af8d 2cbf a1d2 673f 78e5 163f
00000050: e924 dfbe 9157 dcbe 8128 503e e190 18bf
00000060: ca7f 5b3e 95ca 4c3e f85e 50bf f25c ddbd
00000070: 203a dabe b82d aabe 20c1 0f3d 3057 1f3d
00000080: 6e63 6ebf 5104 16bf a642 2b3e 9466 3f3e
00000090: 74c0 13bd da39 f43d 65e3 adbe 042c 483f
000000a0: b32e a83e 9938 21bf d183 a53d 7e7a 4a3f
000000b0: f306 b2bf 6b6c a43f 5c85 063f fd5d c1be
000000c0: 259a 3b3f 97d5 773f 7321 d0be 5e1c 9d3e
000000d0: 1d13 32bf b249 ae3c 720a 5cbf 82d0 35bf
000000e0: 74a0 d93e 365c a8be da18 4fbf ad0c 2cbd
000000f0: d4be 86bd a003 b2be bf9a 003e d15f 10bf
00000100: f5c2 4cc0 ff8b cdbe 99e9 2ebe 7337 053e
00000110: 046a a2bf 0af7 203f 2a43 4cbf 2913 07be
00000120: 44f3 10bd fb5c 5e3f 4e59 813e 9c9d b93e
00000130: e098 5e3f dd08 c43e 77a6 87bc d2b6 e9be
00000140: 87d4 71be 0a6c 553e e49a 0b3e 6632 633e
00000150: 88f3 b7be eafe 423f 33f9 0cbf 0c7b 183f
00000160: 0871 d33e f45a 57be bbcb e23e d67a 2e3e
00000170: d4dc d03e 7b5c 863e 2383 2c3f 19ff 6a3f
00000180: 4e33 c83d 750a 64be 902a fa3e 02a7 b1be
00000190: 79b3 88bf 0004 28be 5152 13bb 3a2e 0e3d
000001a0: 3002 a0bf 8883 503e 8a10 313f 21c8 64be
000001b0: c6c1 40bf 64be 28be 1a7f 57bf 5193 a8bd
000001c0: bab2 c13f 8b97 e73d 6669 39be 4b20 1a3f
000001d0: 64c6 45bf d6de 023f 054c 043f 1691 423f
000001e0: ebe9 afbe 8175 a7be b70d 403e cac9 40bf
000001f0: fb6c eebe 69fe 22bf 98c2 033f 68be 423d
00000200: 5f01 e7be 370b 573e 750f 493f d930 62bd
00000210: 5890 bbbb 60d9 b43d 7083 01bf 1c40 c83c
00000220: 6fdd a9be 2c8c 3dbf e78e cdbf a509 ae3f
00000230: 4210 0fbf 8f2d ab3e 48b5 df3f 3749 983e
00000240: 8525 0dbf d3ff 843e 6d87 073f 74eb a93f
00000250: b190 85bf f6b0 89be cdeb 62bf dc37 a0be
00000260: 6254 ba3e 62c8 5abf 6633 77bd da5c 15be
00000270: 7632 003f 9d5d ff3e b81c 20bf 3478 3fbe
00000280: d6c8 18be 60be 0e3f ca90 92bd dc9b d93d
00000290: 5d5e 883e aad2 0a3f e68b bb3f 1528 333f
000002a0: 5e96 85be a217 743e 7434 83bf 5f23 efbe
000002b0: 5bd8 79bf 61b0 093e b411 6fbe 0e2a a0be
000002c0: 32ca c7be ef6f 083e df3a b63d bc98 413e
000002d0: 0c42 343d c9c1 8abe f4ba c7be ea85 76be
000002e0: caad 0a3f b156 793f c5b9 423f c32c 01bf
000002f0: 42c6 44be 9ee7 11bf 1586 d5be f276 a73f
00000300: 1d75 393e 5888 943f 4a89 35be e291 30bd
00000310: ce5d 12be fbe7 55bf f85a b7be 8865 2b3e
00000320: 0eda 2dbf f1d0 c53e 35df 0dbe b0b6 b03e
00000330: 9b1e 283d 9d34 e03e cabf a2be 92aa 593f
00000340: ce7b ad3e 26b3 3fbe 89dc 3f3e ebe6 a63e
00000350: 3954 16bf e646 eb3e 1dbc 963e 025d 80be
00000360: cbb9 153f 88e9 883f 7f6e 95be 0474 4b3f
00000370: fea9 0ebf cb5f b43e 6b69 0dbe b198 673f
00000380: b214 47bf eacf 2fbe 3661 32bf 8dd5 08bf
00000390: 0ded bbbf e602 f2bd bbc8 913e 2d8a 1dbc
000003a0: 0832 3e3f 2bc6 9a3d 37d5 29bf 31e1 d2ba
000003b0: 8593 ffbe 15a9 26bf c824 1b3f a214 64be
000003c0: 60cf 8f3e 00f5 3d3f e4a3 80be e4b4 933b
000003d0: 578c 073d 5498 92be 22e8 303f 4f5f 1f3f
000003e0: ee80 52bf 6c4a f2be b4bf 9dbe af41 f2bd
000003f0: 954e 103e b558 5d3f 44c6 8f3e 3e70 fcbe
1.9441097 0.4551676 -0.27138522 1.6854416 -0.0826882 -0.95758307 -1.1825343 -0.4170031
-0.11149432 0.01349468 -0.28063622 -0.24805306 0.17035198 0.31734422 0.07218975 0.7823156
-0.8225417 -0.6740369 0.9055577 0.5894389 -0.43582848 -0.43035558 0.20327951 -0.5959607
0.21435466 0.19999154 -0.8139491 -0.108087435 -0.4262247 -0.33238006 0.035096288 0.038901508
-0.9312047 -0.58600336 0.16724643 0.18691474 -0.03607221 0.11925097 -0.3396255 0.7819216
0.3284813 -0.62976986 0.080817826 0.7909316 -1.3908371 1.2845587 0.5254724 -0.3776702
0.7328208 0.9681029 -0.4065052 0.30685705 -0.69560415 0.021275375 -0.8595344 -0.7102128
0.4250523 -0.3288285 -0.80897295 -0.042004276 -0.06579366 -0.3476839 0.12559031 -0.56396204
-3.1993992 -0.4014587 -0.17081298 0.13009433 -1.2688603 0.6287695 -0.79789984 -0.13190903
-0.035388246 0.86860627 0.25263447 0.3625306 0.8695202 0.38288012 -0.016558869 -0.45647293
-0.23616229 0.20841995 0.13633305 0.22187194 -0.35927987 0.7617022 -0.5506775 0.59562755
0.41297174 -0.2103079 0.4429606 0.17039046 0.40793478 0.26242432 0.673876 0.917955
0.097754106 -0.22269614 0.48860598 -0.3469773 -1.0679771 -0.16407776 -0.0022479484 0.034712054
-1.2500668 0.20362675 0.6916586 -0.22341968 -0.75295675 -0.16478878 -0.84178317 -0.082312234
1.5132668 0.113082014 -0.18106613 0.60205525 -0.77255845 0.5112127 0.51678497 0.76002634
-0.34358153 -0.32706836 0.18755232 -0.75307906 -0.4656752 -0.6366945 0.514688 0.047544867
-0.45118234 0.21000372 0.7853921 -0.055222366 -0.005723994 0.088305235 -0.5059118 0.024444632
-0.33176753 -0.7404201 -1.6059235 1.3596693 -0.5588418 0.33433196 1.7477198 0.29743358
-0.55135375 0.25976428 0.5294102 1.327498 -1.0434781 -0.26892823 -0.88641053 -0.31292617
0.36392504 -0.8546201 -0.06035175 -0.14586201 0.50077 0.4987611 -0.6254382 -0.18698198
-0.14920363 0.5575924 -0.071565226 0.10625431 0.26634493 0.542277 1.4652069 0.69983035
-0.26091284 0.2383714 -1.0250382 -0.46706674 -0.9759576 0.1344619 -0.23346597 -0.31282085
-0.3902145 0.1332395 0.088979475 0.1890592 0.0440083 -0.2710097 -0.3900982 -0.24074522
0.5417143 0.97397906 0.7606471 -0.50458926 -0.19216254 -0.56994045 -0.4170386 1.3083174
0.18111081 1.1604109 -0.17728153 -0.043107875 -0.14293596 -0.835571 -0.3581159 0.1673795
-0.6791085 0.38635972 -0.13854678 0.3451438 0.041044813 0.4379014 -0.31786948 0.85025895
0.33883518 -0.18720683 0.18736471 0.3259805 -0.58722264 0.4595253 0.29440394 -0.2507096
0.5848662 1.0696268 -0.29185864 0.794739 -0.5572814 0.35229334 -0.13809745 0.90467364
-0.77765954 -0.17169157 -0.6967958 -0.5345085 -1.4681717 -0.11816959 0.28473458 -0.009615463
0.7429509 0.07557329 -0.66340965 -0.0016088841 -0.49917236 -0.6510175 0.60603 -0.22273496
0.28087902 0.74201965 -0.2512504 0.004507648 0.033092823 -0.28631842 0.69104207 0.62254804
-0.8222798 -0.47322404 -0.3081032 -0.118289344 0.14092477 0.8646348 0.28080952 -0.49304384

fc3.bias f4 [4]
00000000: 5870 35bc 53f9 3cbe baee 013e f48d 343c
-0.011074148 -0.18454485 0.12688723 0.011020172
