checkpoint_actor.pth (torch_old, 91888 bytes, 14 tensors)

fc1.weight f4 [128, 33]
0.14745696 -0.13912566 -0.0065029776 -0.23021913 0.122220084 0.012364509 -0.17593473 -0.021047575
-0.08012315 -0.077903345 0.03417478 -0.024230286 -0.036743514 -0.06567941 -0.10046224 0.023924537
-0.09129013 0.16750693 0.16209242 -0.1668251 0.07115008 -0.06505222 0.0040557664 0.026117232
0.004504981 -0.055774685 -0.1263433 0.2292556 -0.09818836 0.068733014 -0.12426119 0.009723
0.5142455 -0.19253239 -0.21515316 0.038913533 0.15536161 0.32812008 -0.2634127 -0.07999979
0.016577134 -0.011362722 0.07118894 -0.03923768 -0.010638413 -0.014544389 0.11796439 0.17585169
-0.032704275 0.20402011 -0.0014569487 0.13593195 -0.038620535 0.016204743 0.021510968 0.0107449945
0.03597543 0.07530513 -0.021088446 0.120717205 0.13029505 0.004030023 -0.06332359 -0.20183083
0.032651618 -0.18926495 -0.010771873 -0.05987028 0.04711582 0.1852359 0.06820888 -0.16689214
-0.007617457 0.07114447 0.071719214 0.12787218 0.0427412 -0.025308149 0.023530208 0.108523354
0.060933616 -0.023833489 0.04588465 -0.001892377 -0.12548335 -0.25513867 -0.049955513 0.035344243
0.029484464 0.069705084 0.017678156 -0.02361109 -0.058871698 0.10023415 0.052542828 0.009958766
-0.0334307 -0.027851965 -0.7218884 -0.04281338 -0.18563707 -0.2604123 0.046352223 -0.01955183
0.076695226 -0.0019598666 0.06371722 -0.054385938 -0.15130296 0.028141182 0.06094781 -0.14588262
0.06694445 0.036214247 0.12198997 -0.19416583 -0.016098978 -0.10825828 -0.090617806 0.0065935026
-0.08937211 -0.038566377 0.03708917 -0.0773382 0.039075676 -0.014229699 0.07443454 -0.0028819314
-0.012649164 0.031875107 0.070106365 -0.0682595 0.19187053 0.11577559 -0.052266713 -0.11110249
0.1824882 0.03690228 -0.013027733 0.039489042 0.09670116 0.10644868 0.07362563 0.0456687
-0.013981325 -0.067117035 -0.13546695 0.022274463 0.023996344 0.12847213 -0.073555164 -0.042581886
0.0063585113 -0.014121535 -0.028331274 0.020225253 -0.06607301 -0.008402949 -0.06547392 0.098525524
0.08024321 0.014902033 -0.031739328 0.06657673 -0.67445433 0.08660133 0.24874981 0.18584454
-0.0882072 0.059366215 -0.052797638 -0.2772409 -0.01869119 -0.009438154 0.018459238 0.04073644
0.0070261583 0.060506232 -0.10967369 -0.1029454 -0.042199142 -0.1574171 -0.07626239 -0.08069273
0.17215301 -0.0010372067 0.017128764 0.052681137 -0.0077202437 -0.062376283 -0.009405525 0.08060929
-0.01813811 -0.010010697 -0.016614191 0.109578006 0.05975353 -0.3439888 0.06263182 -0.0076820934
-0.023108907 -0.042987075 0.046910744 -0.1333126 0.08100352 -0.027296094 0.13705061 0.08678937
0.023892377 -0.0035328136 -0.018787738 -0.023213321 0.0071432977 0.033102483 0.041566793 0.032346588
0.16715372 -0.022257501 0.0016292662 0.089826114 0.026526965 -0.012682271 0.0042953207 0.045151997
0.03488895 -0.060986646 -0.05688578 -0.005060427 -0.04366571 -0.087239936 1.1273752 0.14540516
-0.04371071 -0.00084993 0.016080122 0.07477754 -0.3874976 0.17123273 0.030892078 -0.13642286
0.21458827 0.10175348 0.028628884 0.11173122 -0.07297115 -0.090479776 0.05019959 -0.2677001
-0.09256023 -0.0219854 0.0019299051 0.09621713 0.09466227 -0.085604355 -0.034290455 -0.09986661
00000000: f5fe 163e f576 0ebe ee16 d5bb 90be 6bbe
00000010: 864e fa3d 8294 4a3c 3c28 34be f76b acbc
00000020: 9b17 a4bd ca8b 9fbd dbfa 0b3d 987e c6bc
00000030: 5e80 16bd ed82 86bd 26bf cdbd 64fd c33c
00000040: 52f6 babd f086 2b3e 8efb 253e 33d4 2abe
00000050: 22b7 913d 193a 85bd 3ce6 843b cef3 d53c
00000060: 859e 933b ff73 64bd 2360 01be fbc1 6a3e
00000070: fb16 c9bd e5c3 8c3d a77c febd 384d 1f3c
00000080: 98a5 033f 3627 45be 1c51 5cbe cc63 1f3d
00000090: 1d17 1f3e 5bff a73e 08de 86be eed6 a3bd
000000a0: c5cc 873c b62a 3abc 82cb 913d b1b7 20bd
000000b0: bd4c 2ebc 974b 6ebc 5097 f13d 7712 343e
000000c0: ebf4 05bd a6ea 503e 16f7 beba bf31 0b3e
000000d0: 9130 1ebd cfbf 843c c537 b03c c60b 303c
000000e0: f95a 133d 9339 9a3d adc1 acbc 953a f73d
000000f0: 116c 053e 480e 843b ccaf 81bd beac 4ebe
00000100: b4bd 053d acce 41be 837c 30bc 8a3a 75bd
00000110: 85fc 403d 7bae 3d3e 19b1 8b3d c6e5 2abe
00000120: dc9b f9bb 31b4 913d 86e1 923d edf0 023e
00000130: 6611 2f3d 0953 cfbc 6cc2 c03c 7e41 de3d
00000140: 8795 793d 733e c3bc 8bf1 3b3d a309 f8ba
00000150: b57e 00be 89a1 82be 279e 4cbd 20c5 103d
00000160: 6789 f13c 8ac1 8e3d c8d1 903c 0b6c c1bc
00000170: 7323 71bd 9047 cd3d 2637 573d 182a 233c
00000180: a1ee 08bd ce29 e4bc aecd 38bf 155d 2fbd
00000190: a517 3ebe c354 85be d4db 3d3d 292b a0bc
000001a0: 6312 9d3d 1b71 00bb 2d7e 823d cac3 5ebd
000001b0: 2aef 1abe 5688 e63c 69a4 793d 4162 15be
000001c0: 2c1a 893d 6455 143d e1d5 f93d 68d3 46be
000001d0: 01e2 83bc 84b6 ddbd d495 b9bd 4f0e d83b
000001e0: ba08 b7bd c7f7 1dbd d0ea 173d 7d63 9ebd
000001f0: d10d 203d af23 69bc 2371 983d c9de 3cbb
00000200: 703e 4fbc 798f 023d ed93 8f3d a3cb 8bbd
00000210: b579 443e c11b ed3d 9f15 56bd b489 e3bd
00000220: 30de 3a3e d826 173d 4672 55bc 43bf 213d
00000230: 420b c63d c401 da3d 09c9 963d 1a0f 3b3d
00000240: ed11 65bc a874 89bd d9b7 0abe ef78 b63c
00000250: fb93 c43c 338e 033e 17a4 96bd 586a 2ebd
00000260: 0f5b d03b 035e 67bc fd16 e8bc 6eaf a53c
00000270: 4951 87bd 86ac 09bc 3117 86bd c0c7 c93d
00000280: 8d56 a43d a827 743c 1901 02bd 6159 883d
00000290: 0aa9 2cbf 0a5c b13d 45b8 7e3e 084e 3e3e
000002a0: faa5 b4bd fd29 733d 5642 58bd 85f2 8dbe
000002b0: 441e 99bc 7da2 1abc d437 973c 41db 263d
000002c0: b03b e63b 62d5 773d 999c e0bd 0ad5 d2bd
000002d0: 02d9 2cbd f331 21be 752f 9cbd 3b42 a5bd
000002e0: e148 303e e2f2 87ba 9f51 8c3c 2dc8 573d
000002f0: 19fa fcbb 467e 7fbd a219 1abc 7c16 a53d
00000300: 6096 94bc e803 24bc 7c1a 88bc 6f6a e03d
00000310: 1ec0 743d 4d1f b0be 1d45 803d 12ba fbbb
00000320: e44e bdbc 3713 30bd 7b25 403d 1983 08be
00000330: 2ce5 a53d 0f9c dfbc ff56 0c3e a0be b13d
00000340: f2b9 c33c c786 67bb bee8 99bc dd29 bebc
00000350: 5312 ea3b 7896 073d f141 2a3d db7d 043d
00000360: 582a 2b3e 5d55 b6bc 1a8d d53a c1f6 b73d
00000370: 144f d93c 4dc9 4fbc c3bf 8c3b 4df1 383d
00000380: b7e7 0e3d 22cd 79bd 1001 69bd f0d1 a5bb
00000390: d1da 32bd daaa b2bd d54d 903f 17e5 143e
000003a0: 000a 33bd d6cd 5eba 76ba 833c f824 993d
000003b0: 1666 c6be a257 2f3e 6211 fd3c 6fb2 0bbe
000003c0: 07bd 5b3e 2164 d03d 1f87 ea3c 56d3 e43d
000003d0: e671 95bd 764d b9bd 169e 4d3d fd0f 89be
000003e0: 3890 bdbd ba1a b4bc dff4 fc3a 7d0d c53d
000003f0: 4bde c13d 5651 afbd 2674 0cbd dd86 ccbd

fc1.bias f4 [128]
-0.06965365 -0.0070223953 0.05474619 0.16372369 -0.16501571 0.085039854 -0.12144809 -0.18365909
-0.07231211 0.04393349 -0.43796942 -0.14688379 -0.21492192 -0.16632712 -0.18653408 -0.41538748
-0.046169885 -0.21625027 -0.07316597 0.15778247 0.0076091797 0.30526197 0.0015468182 0.009301638
-0.12154487 0.099985875 0.13616297 -0.20035912 -0.13860048 -0.15328121 -0.16094634 0.010245451
0.09678299 -0.13463448 0.09563473 -0.061206333 -0.25548497 -0.110634536 -0.1840361 -0.04802093
-0.1764261 -0.025111182 -0.45284986 -0.26608115 -0.03973078 -0.093014106 -0.08635189 -0.15273893
-0.29520652 0.037446424 -0.20859265 0.029020313 -0.27043757 -0.21684444 0.117184944 -0.06756057
-0.1454073 -0.119326495 -0.26458585 0.02923468 -0.1442935 -0.1429176 0.1023417 0.017426072
-0.07096694 -0.27302304 0.013917412 -0.03215462 0.087399915 -0.16007814 0.038150325 -0.037814386
-0.22483766 0.1074486 -0.2659897 0.06117542 -0.006809638 -0.42957765 -0.10643412 -0.12080781
0.14258143 -0.046445064 -0.119773984 -0.017761549 0.027046498 -0.16290118 -0.119173355 0.021081164
-0.3327383 -0.10010354 -0.046042282 0.10374587 0.030516827 -0.060629595 -0.117701404 -0.056823287
-0.043192185 -0.014660524 -0.01226111 0.013108923 0.06549786 0.22007777 0.14757141 -0.061282165
0.008080446 0.08193562 0.04252458 0.016391458 -0.090850204 0.046930775 0.015425222 0.07261397
-0.03334289 0.086797886 -0.18345499 -0.2305051 0.06519048 0.13422942 0.14285778 -0.0970541
-0.33276534 -0.09717039 0.18979742 -0.0074565043 -0.2546 -0.06362919 -0.13345276 -0.00017522024
00000000: 93a6 8ebd 1f1c e6bb 8a3d 603d 2fa7 273e
00000010: e1f9 28be 6029 ae3d c7b9 f8bd 2111 3cbe
00000020: 5f18 94bd 9af3 333d 873d e0be b468 16be
00000030: 7e14 5cbe a851 2abe ca02 3fbe abad d4be
00000040: a21c 3dbd b670 5dbe 0ad8 95bd ba91 213e
00000050: 6d56 f93b 4c4b 9c3e 9bbe ca3a e665 183c
00000060: 84ec f8bd 65c5 cc3d 4e6e 0b3e f12a 4dbe
00000070: 49ed 0dbe c0f5 1cbe 1ecf 24be 89dc 273c
00000080: 2936 c63d 9fdd 09be 24dc c33d 7eb3 7abd
00000090: edce 82be 5c94 e2bd f673 3cbe 98b1 44bd
000000a0: 0ba9 34be f7b5 cdbc f0db e7be ca3b 88be
000000b0: bebc 22bd 2e7e bebd 42d9 b0bd 9867 1cbe
000000c0: 4f25 97be 6c61 193d 5099 55be 02bc ed3c
000000d0: cb76 8abe 780c 5ebe a9fe ef3d 325d 8abd
000000e0: a7e5 14be 7361 f4bd cc77 87be 917d ef3c
000000f0: adc1 13be fe58 12be 8698 d13d 1fc1 8e3c
00000100: 1d57 91bd adc9 8bbe db05 643c 90b4 03bd
00000110: bafe b23d 86eb 23be 8443 1c3d 42e3 1abd
00000120: d83b 66be 030e dc3d cd2f 88be 1493 7a3d
00000130: 6223 dfbb 9af1 dbbe 22fa d9bd 166a f7bd
00000140: de00 123e 2e3d 3ebd 104c f5bd ab80 91bc
00000150: 9e90 dd3c 91cf 26be 2911 f4bd 68b2 ac3c
00000160: ad5c aabe 1603 cdbd d596 3cbd b778 d43d
00000170: 6dfe f93c bd56 78bd 6f0d f1bd 89bf 68bd
00000180: 4aea 30bd b232 70bc d3e2 48bc cfc6 563c
00000190: be23 863d 115c 613e f61c 173e 0203 7bbd
000001a0: d963 043c ddcd a73d 412e 2e3d 6147 863c
000001b0: ac0f babd 7c3a 403d 12ba 7c3c a2b6 943d
000001c0: 8e92 08bd 17c3 b13d a0db 3bbe 8709 6cbe
000001d0: 9682 853d 7073 093e 4f49 123e 4dc4 c6bd
000001e0: 3860 aabe 4501 c7bd 415a 423e b155 f4bb
000001f0: ee5a 82be 0550 82bd d7a7 08be 53bb 37b9

fc2.weight f4 [128, 128]
-0.08873239 0.14138483 -0.1486951 0.076775394 -0.11995802 0.085730165 -0.16744795 -0.13529196
-0.18233508 -0.06369841 -0.047645647 0.11521154 -0.19703703 -0.019814517 -0.17385958 0.3352248
0.0014163024 0.02738867 -0.27480108 -0.00061388395 -0.39515957 -0.029429436 0.51271456 -0.06039118
-0.0638829 0.2215596 0.33578166 0.13994011 0.030176306 -0.012597897 0.12476761 0.014016841
0.06715581 0.22297744 -0.1271652 -0.24633373 -0.14678282 0.008262216 0.17459795 0.13563149
0.06699794 0.041489664 -0.51825655 -0.07199826 -0.1387322 0.18212618 -0.057193212 0.4422015
0.26282018 0.07258934 0.11714693 -0.06501339 0.15936096 0.13255827 -0.27080575 -0.052451655
-0.15445153 0.20819944 -0.08076261 0.07235509 -0.14219747 0.5128976 0.075827114 -0.24938984
0.29062706 0.12160323 -0.24341619 -0.038515277 -0.00070767966 0.16862635 -0.13908179 -0.059913117
-0.10810762 -0.19786301 0.33594695 0.15612376 -0.095754124 -0.5938305 0.013576057 0.015328353
-0.021298377 0.27355137 -0.021181053 -0.11225153 0.08434976 -0.38369945 0.15377034 0.2147168
-0.12818721 0.13751052 0.3205241 0.08887598 0.42824382 -0.15611689 -0.07487298 0.14099042
-0.1011993 0.39278468 0.049436197 0.14985016 -0.13673511 -0.16228949 -0.30279073 -0.08003316
-0.101213306 -0.0053471182 0.19627161 0.018284973 -0.16286388 0.17123674 -0.09614459 0.3563755
0.04143175 0.06720659 -0.18936491 -0.3357496 -0.26102155 -0.19433308 -0.12098809 -0.036463946
0.002975821 0.27536938 -0.1577639 -0.045998987 -0.3678704 0.18005525 0.44571757 -0.042182807
-0.125719 0.043480843 -0.026244804 0.20004678 0.011078677 0.028209748 0.14411244 -0.1750783
-0.04022035 -0.20438887 -0.18410437 -0.26474407 0.23607267 -0.045209162 -0.2393195 -0.38419455
-0.045481607 0.13550475 0.3265644 -0.015303064 0.15472105 -0.035653103 0.08446963 0.17671739
0.15388927 0.08727373 -0.10706974 -0.038532656 0.12556115 0.034051023 0.1776896 0.0428227
0.053410206 -0.10144995 0.024799177 -0.058439568 0.028426718 -0.10565637 0.35978907 0.008536791
-0.11140607 -0.1909344 0.27727395 0.08452243 8.782073e-05 -0.117206514 -0.6077273 -0.14766398
0.17533596 0.06324308 -0.13125254 -0.061597392 0.06302696 0.18714274 -0.2116523 0.106960274
0.13181283 -0.00289955 -0.07248537 -0.040409267 0.078497045 -0.08628335 0.40540692 0.12486063
0.034429755 -0.06531609 -0.17374241 -0.20160161 0.085286215 0.067903325 0.026505146 0.022158325
-0.2184504 -0.12165583 0.0297994 0.16860574 -0.24906611 0.10227425 -0.013859135 -0.07388993
0.18103561 -0.056318488 -0.07709244 -0.005444661 0.045522153 0.37234434 0.059451766 -0.11366744
-0.008520553 0.081052646 -0.057038184 -0.01893087 -0.13480052 0.03557036 -0.21708728 0.07040624
0.10739193 0.08283175 0.14575914 0.11190517 0.0651222 0.0028917089 0.050238445 -0.08692219
-0.17995596 -0.23495896 -0.107869424 -0.008581572 -0.12034293 -0.056536056 0.07927105 -0.06098376
-0.0039078286 0.029147247 -0.2980906 0.15907533 0.05254292 0.07944207 -0.029591428 0.32299235
-0.17130686 -0.06761655 0.043964617 -0.024037851 -0.06153996 -0.105362795 -0.109734885 -0.29076812
00000000: 54b9 b5bd 2fc7 103e 8743 18be 6b3c 9d3d
00000010: 8dac f5bd 4c93 af3d 7a77 2bbe fa89 0abe
00000020: 0cb6 3abe 5074 82bd 1528 43bd 07f4 eb3d
00000030: 13c4 49be 0e52 a2bc 3f08 32be 96a2 ab3e
00000040: 39a3 b93a 345e e03c bab2 8cbe 0eed 20ba
00000050: 5b52 cabe 0016 f1bc 4341 033f be5c 77bd
00000060: 0ad5 82bd 85e0 623e 93eb ab3e 764c 0f3e
00000070: 4d34 f73c 6967 4ebc 2986 ff3d e4a6 653c
00000080: fc88 893d 3354 643e 9837 02be e93e 7cbe
00000090: 3c4e 16be 3f5e 073c cec9 323e fbe2 0a3e
000000a0: 3736 893d 11f1 293d 76ac 04bf d373 93bd
000000b0: d00f 0ebe 497f 3a3e 6e43 6abd 3c68 e23e
000000c0: 5e90 863e b8a9 943d bbea ef3d bd25 85bd
000000d0: 852f 233e 5bbd 073e 0da7 8abe 8cd7 56bd
000000e0: 8b28 1ebe 3c32 553e de66 a5bd e82e 943d
000000f0: 379c 11be 424d 033f 3f4b 9b3d 0d60 7fbe
00000100: 12cd 943e 1d0b f93d 1842 79be 32c2 1dbd
00000110: 9483 39ba 63ac 2c3e 756b 0ebe 7567 75bd
00000120: 8767 ddbd 9a9c 4abe 3d01 ac3e e8de 1f3e
00000130: bd1a c4bd 4705 18bf 1c6e 5e3c c623 7b3c
00000140: ef79 aebc ed0e 8c3e e383 adbc 21e4 e5bd
00000150: 91bf ac3d 4174 c4be f975 1d3e b9de 5b3e
00000160: 8243 03be 8fcf 0c3e bc1b a43e 9c04 b63d
00000170: c642 db3e 1bdd 1fbe 0157 99bd cb5f 103e
00000180: 9441 cfbd 131b c93e 9c7d 4a3d 5272 193e
00000190: 4a04 0cbe 372f 26be 6307 9bbe 6de8 a3bd
000001a0: ec48 cfbd e136 afbb 6dfb 483e 5eca 953c
000001b0: cac5 26be af58 2f3e 74e7 c4bd d976 b63e
000001c0: 57b4 293d 9ca3 893d e0e8 41be 5fe7 abbe
000001d0: 9ea4 85be 40ff 46be 9bc8 f7bd 385b 15bd
000001e0: fe05 433b 37fd 8c3e dc8c 21be 6f69 3cbd
000001f0: 8259 bcbe 6760 383e 1835 e43e e1c7 2cbd
00000200: 7bbc 00be f818 323d 58ff d6bc 10d9 4c3e
00000210: 5783 353c 2118 e73c 3692 133e ba47 33be
00000220: 18be 24bd 514b 51be db85 3cbe 898c 87be
00000230: 09bd 713e 3e2d 39bd 2c10 75be 26b5 c4be
00000240: ec4a 3abd c2c1 0a3e 7333 a73e b4b9 7abc
00000250: 326f 1e3e fd08 12bd 6afe ac3d 67f5 343e
00000260: 2695 1d3e 92bc b23d 6147 dbbd 6bd4 1dbd
00000270: 1a93 003e 1679 0b3d 43f4 353e db66 2f3d
00000280: a9c4 5a3d fec4 cfbd a527 cb3c 545e 6fbd
00000290: 26df e83c 5e62 d8bd 4636 b83e e6dd 0b3c
000002a0: de28 e4bd 4f84 43be daf6 8d3e 191a ad3d
000002b0: 652c b838 f809 f0bd 0494 1bbf 3a35 17be
000002c0: 458b 333e 9785 813d 1167 06be 8c4d 7cbd
000002d0: 4714 813d 59a2 3f3e 61bb 58be fd0d db3d
000002e0: f1f9 063e 6006 3ebb 3673 94bd 3084 25bd
000002f0: 0fc3 a03d 53b5 b0bd 7f91 cf3e eeb6 ff3d
00000300: 3706 0d3d 71c4 85bd 88e9 31be a770 4ebe
00000310: 8aaa ae3d e610 8b3d 5221 d93c 6085 b53c
00000320: 76b1 5fbe b126 f9bd df1d f43c fca6 2c3e
00000330: 300b 7fbe 2975 d13d 6d11 63bc 9b53 97bd
00000340: 6661 393e 37ae 66bd a4e2 9dbd 2069 b2bb
00000350: 7075 3a3d eba3 be3e b283 733d 7aca e8bd
00000360: ca99 0bbc eefe a53d dfa0 69bd e914 9bbc
00000370: 2609 0abe 3ab2 113d 214c 5ebe 2631 903d
00000380: 4df0 db3d b1a3 a93d e241 153e 8a2e e53d
00000390: ca5e 853d d382 3d3b d4c6 4d3d 4304 b2bd
000003a0: 6046 38be 1599 70be a5ea dcbd b999 0cbc
000003b0: 5b76 f6bd 5a92 67bd dc58 a23d 1bca 79bd
000003c0: 3e0d 80bb 35c6 ee3c 559f 98be a5e4 223e
000003d0: 3f37 573d 86b2 a23d b969 f2bc 415f a53e
000003e0: 116b 2fbe 8c7a 8abd 3e14 343d 07eb c4bc
000003f0: 5311 7cbd 73c8 d7bd afbc e0bd 8fdf 94be

fc2.bias f4 [128]
-0.2014087 0.2964297 -0.11145899 -0.103072904 0.09399137 -0.13749453 0.1507525 -0.053898532
0.058206394 -0.16253851 -0.27176344 0.15551823 -0.16325071 -0.026466822 -0.1628413 -0.033505324
0.042327862 0.24934545 -0.08231869 -0.3271332 0.027657941 -0.05840252 -0.04215846 0.061149642
-0.27467665 -0.056938853 0.18710852 0.050702773 0.003401954 0.09423839 0.14589356 -0.051556945
-0.13175678 -0.020504745 0.12101544 -0.17668265 0.058244236 -0.014412952 0.12187816 0.21426648
-0.16572061 0.16862233 -0.22024232 -0.1597627 0.08969071 -0.19448885 0.08911252 0.061569452
0.2015559 -0.03817709 -0.07099155 0.06834643 -0.048077635 -0.06190763 -0.16497819 -0.07695502
0.19791387 -0.01626258 -0.032943115 0.23411283 0.1816287 -0.04429131 -0.24353176 -0.22266057
0.038700856 -0.081372775 0.05330327 -0.0044386806 -0.07669319 0.102656655 0.19892158 -0.095050335
-0.1245728 -0.023964982 -0.10730997 -0.12960507 -0.02816974 -0.13280676 -0.11820851 0.046084773
-0.084762245 0.2559101 -0.024260964 0.031014483 -0.2852056 0.041426767 -0.10339666 0.054358263
-0.007068432 -0.07778495 0.0737793 -0.05690004 0.019956645 0.04041092 0.11750552 -0.06773838
-0.29385033 -0.14862624 -0.14125033 -0.10021112 0.1222868 0.17763138 -0.3163383 0.09384686
0.2513904 -0.34389302 0.17435549 -0.049949665 -0.17667824 -0.2241343 0.013541827 -0.0909231
-0.09519758 -0.11674462 -0.11170518 -0.009661612 -0.23710586 -0.0033701614 0.12613931 -0.10874902
0.22317886 -0.030820914 0.020576442 -0.03924772 0.1341896 -0.18181235 -0.15097228 0.055841867
00000000: 153e 4ebe a2c5 973e 9c44 e4bd e317 d3bd
00000010: 8c7e c03d 5ecb 0cbe dd5e 1a3e b5c4 5cbd
00000020: d469 6e3d 7f70 26be 9424 8bbe 2c40 1f3e
00000030: 322b 27be f3d0 d8bc dfbf 26be e13c 09bd
00000040: fb5f 2d3d 6a54 7f3e b496 a8bd 017e a7be
00000050: e892 e23c 7b37 6fbd 59ae 2cbd 0c78 7a3d
00000060: 6ba2 8cbe b738 69bd 6099 3f3e b6ad 4f3d
00000070: 51f3 5e3b 0f00 c13d 1f65 153e 602d 53bd
00000080: 40eb 06be 91f9 a7bc f1d6 f73d 4cec 34be
00000090: 8291 6e3d 4d24 6cbc 429b f93d ac68 5b3e
000000a0: aab2 29be 55ab 2c3e 3487 61be d598 23be
000000b0: c3af b73d 1628 47be a080 b63d 4030 7c3d
000000c0: ab64 4e3e 955f 1cbd 0564 91bd 37f9 8b3d
000000d0: 0eed 44bd db92 7dbd 0bf0 28be 989a 9dbd
000000e0: efa9 4a3e 1a39 85bc 5cef 06bd 46bb 6f3e
000000f0: e0fc 393e ce6a 35bd 6460 79be 2201 64be
00000100: ca84 1e3d c5a6 a6bd 8854 5a3d 5a72 91bb
00000110: 5211 9dbd a73d d23d 19b2 4b3e c0a9 c2bd
00000120: 0620 ffbd 3652 c4bc 54c5 dbbd 31b7 04be
00000130: 3ac4 e6bc 7ffe 07be 4e17 f2bd 63c3 3c3d
00000140: d497 adbd a606 833e eebe c6bc 1612 fe3c
00000150: 7806 92be 1daf 293d a1c1 d3bd c5a6 5e3d
00000160: 4e9e e7bb b74d 9fbd 9a19 973d 0410 69bd
00000170: 1e7c a33c ec85 253d bca6 f03d 6bba 8abd
00000180: 8d73 96be 7a31 18be eda3 10be 7d3b cdbd
00000190: 8071 fa3d 00e5 353e 18f7 a1be c832 c03d
000001a0: 3eb6 803e bf12 b0be 3f8a 323e 0598 4cbd
000001b0: 24eb 34be 7683 65be 8ade 5d3c e435 babd
000001c0: f3f6 c2bd ce17 efbd afc5 e4bd bd4b 1ebc
000001d0: e1cb 72be eddd 5cbb aa2a 013e ceb7 debd
000001e0: 0089 643e 247c fcbc ed8f a83c 38c2 20bd
000001f0: 0069 093e 042d 3abe 7a98 1abe 71ba 643d

fc3.weight f4 [4, 128]
-0.18648797 -0.26323208 -0.40245885 -0.088703856 -0.099235795 0.5340464 0.3547702 -0.23861691
-0.15252642 -0.39630678 0.21760115 -0.4094867 -0.07222387 0.060145292 -0.54736364 0.48835096
0.46297067 0.14186327 0.39843395 0.900444 0.14202808 -0.47914305 -0.3155157 0.12491548
-0.09724276 0.07682486 -0.09617604 0.36284754 0.5585805 0.50596434 0.18394217 -0.36186707
-0.31428263 0.3188205 0.028128302 0.08972045 0.3936596 0.06953769 0.24582468 -0.028970577
0.22118466 -0.026189696 0.3768027 0.032973748 -0.13086069 -0.33902496 0.058411244 -0.037776165
-0.11458311 0.13390101 -0.70065236 0.12903827 -0.103113845 -0.37180185 -0.61999273 0.6965704
-0.477774 -0.012388846 0.4954279 0.17190693 0.012613468 0.40700766 -0.12984191 -0.24198182
0.20079817 0.014233919 0.5138691 -0.11124108 -0.098613 -0.21283422 -0.027144626 -0.18625101
0.0021287007 0.16690764 0.065642744 0.08004514 -0.55768657 -0.14322865 -0.21300557 -0.48644418
-0.47159702 -0.3823035 -0.09598606 -0.9207813 -0.11268738 0.16216636 -0.339606 -0.21877646
0.31770602 0.31065822 0.30542323 0.5667898 0.31674913 -0.18836337 -0.11952467 -0.39676875
-0.5443921 -0.2158342 0.2609865 0.07103649 0.09923014 0.056404863 -0.18796042 -0.048795234
0.17685655 -0.7017754 0.098059006 0.41792324 0.07828092 0.18766432 0.03253033 0.009034783
-0.12079558 0.18135189 0.8472005 -0.169906 0.44218567 -0.0038634855 -0.30451185 0.06045104
0.3968726 -0.37277892 -0.33192173 0.009123652 0.2649541 -0.8830128 -0.91873306 0.095925055
0.063203804 -0.3761455 -0.5556332 0.12043892 0.47886488 -0.03601845 -0.10210477 0.16810484
0.032990005 0.20696014 0.001372307 -0.15075257 -0.08338029 0.14433967 -0.73270476 0.41746262
0.2130733 -0.11456379 -0.50491047 -0.007605811 0.24964488 0.28393632 -0.6919506 -0.06226282
0.17968689 0.4065405 -0.5084678 0.8088188 0.12209618 0.3065553 0.20706992 -0.2707481
-0.69797724 0.013701232 0.277322 -0.30671167 -0.17150132 0.09132476 -0.72521794 -0.041860368
-0.117367595 -0.11400616 -0.53745687 0.39839774 0.18535045 0.0062090447 0.40470457 -0.047522526
0.29115972 -0.7717605 0.6238421 -0.24323742 -0.008575313 0.29701468 -0.3519956 0.7558117
0.13951771 0.16033281 0.026596868 0.53758746 0.527454 0.04810666 -0.052629776 -0.38483274
-0.57738936 0.5239268 0.18396929 0.2532755 0.3305575 -0.07851705 0.19589216 0.21831684
0.065164745 -0.41655993 -0.3317237 -0.3101378 -0.40411094 0.12278259 -0.18001182 0.2549751
-0.18587528 -0.06319839 0.19016886 0.11078051 0.1729599 -0.54739875 -0.9403439 0.21336739
-0.4113966 -0.43606535 -0.6626959 -0.5731491 -0.24444783 0.82230496 -0.0950647 -0.12172315
0.2504492 -0.16117296 -0.75207096 -0.15543453 -0.044367276 0.46515542 -0.7559375 0.717905
-0.73044705 -0.058011267 0.04756622 0.54650325 0.20803556 0.21784575 0.6491828 0.19422956
0.5353311 -0.42699522 -0.0073250527 -0.018428342 0.057807587 0.7320353 0.018282726 0.40200803
-0.032787915 -0.08250726 -0.008278718 -0.5836678 0.10035662 0.24188755 -0.08886418 0.20449178
00000000: b4f6 3ebe 5bc6 86be 160f cebe 5eaa b5bd
00000010: 233c cbbd 44b7 083f 71a4 b53e fe57 74be
00000020: e32f 1cbe b9e8 cabe d6d2 5e3e 3ea8 d1be
00000030: 1cea 93bd e95a 763d 0620 0cbf 2309 fa3e
00000040: 7e0a ed3e 9b44 113e 89ff cb3e 7f83 663f
00000050: cf6f 113e 3d52 f5be 468b a1be b0d3 ff3d
00000060: 3627 c7bd 5a56 9d3d f2f7 c4bd 27c7 b93e
00000070: 22ff 0e3f e186 013f 565b 3c3e a446 b9be
00000080: a7e9 a0be 713c a33e 536d e63c 5bbf b73d
00000090: c08d c93e c769 8e3d 77b9 7b3e b453 edbc
000000a0: 3b7e 623e c68b d6bc 49ec c03e 7b0f 073d
000000b0: 5800 06be ae94 adbe a140 6f3d 2ebb 1abd
000000c0: 8daa eabd 591d 093e f45d 33bf 9c22 043e
000000d0: 5a2d d3bd d05c bebe d8b7 1ebf 7052 323f
000000e0: cb9e f4be 96fa 4abc baa8 fd3e 5f08 303e
000000f0: b8a8 4e3c 4f63 d03e 47f5 04be 15ca 77be
00000100: 099e 4d3e 6235 693c ed8c 033f 5dd2 e3bd
00000110: 9df5 c9bd 37f1 59be 685e debc 96b8 3ebe
00000120: ac81 0b3b d6e9 2a3e b46f 863d b5ee a33d
00000130: 8cc4 0ebf 88aa 12be 221e 5abe 360f f9be
00000140: 2a75 f1be 49bd c3be 5794 c4bd 53b8 6bbf
00000150: a4c8 e6bd f00e 263e d6e0 adbe f006 60be
00000160: 5daa a23e 980e 9f3e 6f60 9c3e 2319 113f
00000170: f12c a23e 54e2 40be 5ac9 f4bd 4625 cbbe
00000180: 485d 0bbf a403 5dbe 06a0 853e 947b 913d
00000190: 2c39 cb3d c908 673d b278 40be 83dd 47bd
000001a0: e219 353e 8da7 33bf 29d3 c83d 09fa d53e
000001b0: bf51 a03d 132b 403e 863e 053d a006 143c
000001c0: ac63 f7bd 4fb4 393e 22e2 583f d7fb 2dbe
000001d0: 2966 e23e 8832 7dbb fae8 9bbe 829b 773d
000001e0: e332 cb3e e1dc bebe a5f1 a9be 5f7b 153c
000001f0: 10a8 873e 200d 62bf 1732 6bbf 5b74 c43d
00000200: ff70 813d 2596 c0be fa3d 0ebf aea8 f63d
00000210: c72d f53e 1588 13bd 4e1c d1bd ad23 2c3e
00000220: 8720 073d 5ced 533e fbde b33a e25e 1abe
00000230: 49c3 aabd c7cd 133e 8a92 3bbf a9bd d53e
00000240: e32f 5a3e 6ca0 eabd d041 01bf 2b3a f9bb
00000250: e8a2 7f3e 1a60 913e ad23 31bf 4c07 7fbd
00000260: d7ff 373e 1426 d03e f22a 02bf c00e 4f3f
00000270: 900d fa3d d1f4 9c3e 230a 543e 7f9f 8abe
00000280: a3ae 32bf 227b 603c 26fd 8d3e 5009 9dbe
00000290: 0b9e 2fbe 7a08 bb3d e2a7 39bf c775 2bbd
000002a0: 6c5e f0bd 107c e9bd c696 09bf cafa cb3e
000002b0: 82cc 3d3e 3e75 cb3b 7035 cf3e fba6 42bd
000002c0: e312 953e 1992 45bf 1eb4 1f3f 3b13 79be
000002d0: 787f 0cbc 4f12 983e c438 b4be e07c 413f
000002e0: bbdd 0e3e 492e 243e ade1 d93c 559f 093f
000002f0: 3a07 073f 7d0b 453d 5292 57bd cc08 c5be
00000300: cacf 13bf 1120 063f 7262 3c3e 54ad 813e
00000310: d53e a93e 8ccd a0bd f497 483e 738e 5f3e
00000320: 1875 853d 5847 d5be b0d7 a9be 62ca 9ebe
00000330: a1e7 cebe 7075 fb3d 0555 38be 198c 823e
00000340: 1756 3ebe 286e 81bd a0bb 423e e4e0 e23d
00000350: 661c 313e 5322 0cbf 61ba 70bf fb7c 5a3e
00000360: 93a2 d2be f543 dfbe 70a6 29bf e6b9 12bf
00000370: 8850 7abe 9482 523f 48b1 c2bd fd49 f9bd
00000380: e13a 803e 860a 25be b987 40bf 3b2a 1fbe
00000390: 76ba 35bd da28 ee3e 1f85 41bf 9fc8 373f
000003a0: 94fe 3abf 399d 6dbd ccd4 423d a3e7 0b3f
000003b0: 4607 553e f512 5f3e d830 263f 1de4 463e
000003c0: 750b 093f 1e9f dabe ff06 f0bb 09f7 96bc
000003d0: a6c7 6c3d aa66 3b3f a8c5 953c ffd3 cd3e
000003e0: 9f4c 06bd 91f9 a8bd 76a3 07bc 416b 15bf
000003f0: c687 cd3d 5fb1 773e 6cfe b5bd 4b66 513e

fc3.bias f4 [4]
0.082598686 0.12320204 0.14414321 -0.10698413
00000000: 8029 a93d 5a51 fc3d 479a 133e 7f1a dbbd

bn1.weight f4 [128]
1.0027364 1.2884494 0.7247683 0.74891764 1.0762111 0.6868 0.8154727 0.58193856
0.65955377 0.74933416 0.49190938 0.73039955 0.7833767 0.90246814 0.5822732 0.4645394
0.5824863 0.9153265 0.5175773 0.48055762 1.1317044 0.6542805 0.5688895 0.6419253
0.933865 0.94923 0.5592004 0.6784622 0.7103925 0.90058833 0.6374314 1.1390512
1.0700178 0.7173377 -0.4790678 0.9832348 0.8190105 1.0889255 0.55116975 0.7380538
0.9081697 1.0283 0.5817933 0.88840777 1.2506061 0.59167755 1.1188339 0.39347982
0.4151508 0.7477021 1.384124 1.0351208 1.1005684 1.0322218 0.743326 0.6792627
0.69595295 1.0410697 0.68431634 0.6362661 0.9417837 0.5358756 0.65968513 1.0017799
0.83636594 -0.6332395 1.0467558 0.85515904 0.9632148 0.7062174 0.6749923 0.82239014
0.60118073 0.86483574 0.38948748 0.4426533 1.0194691 0.42909688 1.0176854 1.1037166
1.0922371 0.8608394 0.9669909 0.81596005 1.3109009 0.4332816 0.8247294 0.5100094
1.0550984 1.344768 0.55477214 0.5943292 0.98181975 0.8522613 1.0249666 0.6278097
1.3041745 0.9402732 0.58400846 0.7407994 0.85568964 0.7891985 1.2546167 1.0533031
0.79999495 0.83157474 0.80253255 0.5849074 1.1161084 0.57522553 1.1073227 0.6565785
0.635673 0.71281993 0.6015087 0.72642606 0.5704903 0.8383598 0.8613343 1.2481395
0.8662331 0.48242575 0.47666708 0.77441895 0.5980013 0.8739815 0.7518888 0.7742506
00000000: ab59 803f e9eb a43f 6a8a 393f 11b9 3f3f
00000010: 49c1 893f 20d2 2f3f d2c2 503f edf9 143f
00000020: 84d8 283f 5dd4 3f3f 8cdb fb3e 77fb 3a3f
00000030: 608b 483f 2708 673f db0f 153f 1cd8 ed3e
00000040: d21d 153f d652 6a3f f27f 043f a60b f63e
00000050: b1db 903f ed7e 273f bea2 113f 3755 243f
00000060: c711 6f3f bd00 733f c227 0f3f b3af 2d3f
00000070: 48dc 353f f58c 663f b42e 233f 6ecc 913f
00000080: 58f6 883f 72a3 373f 6048 f5be 47b5 7b3f
00000090: acaa 513f e961 8b3f 7619 0d3f 18f1 3c3f
000000a0: cf7d 683f 569f 833f 68f0 143f b16e 633f
000000b0: dc13 a03f 2e78 173f f335 8f3f 3076 c93e
000000c0: a58e d43e 6869 3f3f fa2a b13f d77e 843f
000000d0: 6ddf 8c3f d81f 843f 9d4a 3e3f 29e4 2d3f
000000e0: f929 323f c641 853f 5b2f 2f3f 56e2 223f
000000f0: bd18 713f 252f 093f 20e1 283f 533a 803f
00000100: 141c 563f fc1b 22bf 18fc 853f b4eb 5a3f
00000110: 3f95 763f aaca 343f 4ccc 2c3f 2988 523f
00000120: fbe6 193f e065 5d3f e76a c73e 74a3 e23e
00000130: f77d 823f 96b2 db3e 8443 823f 9646 8d3f
00000140: 6dce 8b3f f95f 5c3f b78c 773f c2e2 503f
00000150: 9acb a73f 16d7 dd3e 7721 533f fa8f 023f
00000160: 770d 873f 5c21 ac3f 8c05 0e3f f525 183f
00000170: 8a58 7b3f cc2d 5a3f 1b32 833f 23b8 203f
00000180: 31ef a63f bfb5 703f 9481 153f 08a5 3d3f
00000190: 7a0e 5b3f ea08 4a3f 4897 a03f a3d2 863f
000001a0: 78cc 4c3f 15e2 543f c672 4d3f 7ebc 153f
000001b0: a4dc 8e3f fb41 133f c0bc 8d3f 8715 283f
000001c0: 77bb 223f 5e7b 363f 79fc 193f 0ff7 393f
000001d0: a70b 123f bf9e 563f 6880 5c3f 09c3 9f3f
000001e0: 74c1 5d3f 8200 f73e b50d f43e 5240 463f
000001f0: 9d16 193f 40bd 5f3f c97b 403f 4a35 463f

bn1.bias f4 [128]
-0.29857016 0.26900265 -0.2504839 0.07103048 0.12900338 -0.12858932 0.031411763 -0.11904895
-0.12068377 0.0981752 0.036318704 -0.040049594 0.007844053 -0.09593653 0.057521686 -0.20432726
-0.20787054 0.27686146 -0.042064335 0.2527139 0.20831175 -0.17375763 -0.28651595 -0.04249831
-0.2146055 -0.12396314 -0.09250331 0.21281327 0.074585676 0.097922154 -0.049652286 0.26752982
0.09616588 0.04075085 0.18239938 0.11008186 0.32159078 -0.14646606 0.27824643 -0.03383531
0.055413265 -0.08186875 -0.12893476 0.29821923 0.27329376 -0.27420565 0.27691635 -0.5312378
-0.25395635 -0.4468223 0.21670172 -0.04223391 0.31999144 0.1801367 0.038632307 -0.15458056
0.026537586 -0.30787557 -0.22153915 -0.09460707 0.012695776 -0.39141694 -0.27489302 0.0192363
-0.5651074 -0.24020162 -0.11742633 0.2568853 0.13892545 0.30949742 0.13499156 -0.15896173
-0.016169574 -0.07156301 -0.24763712 -0.13110197 -0.23895691 0.2082525 -0.32967368 0.17204215
0.1604668 0.1881628 0.20078598 -0.047154807 0.28018865 -0.017429205 -0.030406887 -0.1873102
-0.17204826 0.29839954 -0.023776954 -0.45784628 -0.44930297 -0.12685537 -0.13816984 -0.01912311
0.32709187 0.01983134 -0.14335889 -0.3252293 0.06606199 0.082818866 0.33639535 -0.14881077
-0.0760931 -0.074009836 0.018262705 -0.020391298 0.29814306 -0.17380013 0.1047181 -0.2993147
-0.19124034 0.0713198 0.0548292 -0.0826394 -0.13647112 -0.020880323 -0.0895096 0.07004042
-0.20544486 -0.033059575 -0.007911216 -0.14186488 -0.003506639 -0.15547025 0.048498478 0.1541311
00000000: 30de 98be b7ba 893e 6d3f 80be 6e78 913d
00000010: 7619 043e ebac 03be 9fa9 003d f0cf f3bd
00000020: 0d29 f7bd 1410 c93d ecc2 143d 0b0b 24bd
00000030: 5884 003c 5f7a c4bd dc9b 6b3d 2a3b 51be
00000040: 04dc 54be c9c0 8d3e a74b 2cbd b763 813e
00000050: ad4f 553e 85ed 31be 38b2 92be b512 2ebd
00000060: 8bc1 5bbe 63e0 fdbd 6072 bdbd b9eb 593e
00000070: 60c0 983d 698b c83d 3260 4bbd abf9 883e
00000080: 9ef2 c43d 5dea 263d e7c6 3a3e 9972 e13d
00000090: 8ca7 a43e 33fb 15be 5176 8e3e e596 0abd
000000a0: 05f9 623d ceaa a7bd 7907 04be 31b0 983e
000000b0: 29ed 8b3e af64 8cbe fbc7 8d3e 33ff 07bf
000000c0: 9106 82be e4c5 e4be 0ee7 5d3e 77fd 2cbd
000000d0: ebd5 a33e c175 383e e93c 1e3d 5e4a 1ebe
000000e0: 5a65 d93c dea1 9dbe 29db 62be 5ac1 c1bd
000000f0: f201 503c cd67 c8be c7be 8cbe 7295 9d3c
00000100: e1aa 10bf 6af7 75be 377d f0bd 7886 833e
00000110: 7942 0e3e 7276 9e3e 3a3b 0a3e ddc6 22be
00000120: 0e76 84bc a18f 92bd 9694 7dbe 983f 06be
00000130: 1fb1 74be 2540 553e fdca a8be d12b 303e
00000140: 6951 243e c0ad 403e d79a 4d3e 6625 41bd
00000150: e374 8f3e b1c7 8ebc dd17 f9bc 3fce 3fbe
00000160: 6b2d 30be d3c7 983e e3c7 c2bc d46a eabe
00000170: 0a0b e6be 60e6 01be 657c 0dbe 12a8 9cbc
00000180: 9678 a73e 5675 a23c accc 12be 7484 a6be
00000190: 824b 873d f09c a93d 033c ac3e da61 18be
000001a0: b3d6 9bbd 7892 97bd ab9b 953c a70b a7bc
000001b0: 35a6 983e a9f8 31be 7176 d63d c73f 99be
000001c0: 82d4 43be 1e10 923d 9594 603d d93e a9bd
000001d0: 16bf 0bbe 360d abbc cf50 b7bd 5a71 8f3d
000001e0: 2360 52be 7a69 07bd 0b9e 01bc 0745 11be
000001f0: a4cf 65bb 9833 1fbe 57a6 463d 8bd4 1d3e

bn1.running_mean f4 [128]
0.48249632 0.34932378 0.38597953 0.60235775 0.2423244 0.114578895 0.26215428 0.19417542
0.525087 0.3409458 0.0021612803 0.15764417 0.13270518 0.5343619 0.22234084 0.0035110884
0.38168466 0.07220857 0.1264364 0.14680421 0.46275178 0.74219066 0.34457022 0.30012906
0.15644503 0.1310957 0.40519395 0.37361124 0.1315853 0.5036203 0.3151858 0.27560276
0.29568708 0.21709639 0.24562861 0.15693687 0.19287793 0.4029965 0.16905706 0.14486688
0.08105097 0.14171337 0.1335662 0.04978599 0.13015908 0.21951044 0.17985596 0.34890762
0.005920034 0.18425716 0.1440651 0.38564312 0.0691371 0.27376372 0.4748406 0.22663502
0.19250391 0.14723793 0.0999262 0.36084706 0.18473761 0.31076208 0.3550973 0.3599131
0.22483703 0.31610063 0.27307487 0.12764561 0.40371868 0.16309504 0.7026513 0.19746718
0.5781687 0.6682689 0.0012701703 0.21542697 0.37765968 0.00016566049 0.15679887 0.15255655
0.5669665 0.98942435 0.3173673 0.31031123 0.22722805 0.42729434 0.11701361 0.11639434
0.30288702 0.14892656 0.11831246 0.25443798 0.34471038 0.258795 0.33706957 0.20227256
0.16001603 0.18097553 0.072313495 0.3384632 0.5851957 0.93386155 0.7922648 0.5839879
0.50157166 0.81080294 0.24021544 0.3553216 0.29602632 0.31918073 0.43269205 0.1673453
0.21720904 0.2174852 0.15055238 0.41538143 0.37252194 0.78725654 0.39250484 0.19241041
0.1727314 0.519797 1.4109181 0.7259112 0.3440065 0.3911522 0.162736 0.25388378
00000000: c209 f73e 91da b23e 1c9f c53e 1e34 1a3f
00000010: e323 783e 57a8 ea3d 1639 863e ecd5 463e
00000020: 1a6c 063f 7390 ae3e 44a4 0d3b 796d 213e
00000030: dee3 073e f1cb 083f 51ad 633e 4a1a 663b
00000040: 2c6c c33e 16e2 933d 8b78 013e d853 163e
00000050: cded ec3e 3500 3e3f 826b b03e 84aa 993e
00000060: 2033 203e f43d 063e 9575 cf3e f949 bf3e
00000070: 4cbe 063e 43ed 003f 0860 a13e ce1b 8d3e
00000080: 4c64 973e 844e 5e3e 1186 7b3e 0fb4 203e
00000090: cb81 453e 8f55 ce3e 4b1d 2d3e fc57 143e
000000a0: 0dfe a53d 4f1d 113e 94c5 083e 65ec 4b3d
000000b0: 6c48 053e 58c7 603e 292c 383e 05a4 b23e
000000c0: d8fc c13b e9ad 3c3e cd85 133e 0473 c53e
000000d0: c097 8d3d c22a 8c3e 4f1e f33e 0313 683e
000000e0: bf1f 453e 8ac5 163e 1ca6 cc3d f2c0 b83e
000000f0: db2b 3d3e 351c 9f3e 50cf b53e 8846 b83e
00000100: ae3b 663e f1d7 a13e 78d0 8b3e 88b5 023e
00000110: 37b4 ce3e 6302 273e f5e0 333f d634 4a3e
00000120: dd02 143f ac13 2b3f d87b a63a e398 5c3e
00000130: 9c5c c13e 26b5 2d39 e28f 203e c937 1c3e
00000140: b724 113f ea4a 7d3f f77d a23e 1de1 9e3e
00000150: 78ae 683e 53c6 da3e d5a4 ef3d 2860 ee3d
00000160: 0214 9b3e 3480 183e ce4d f23d b245 823e
00000170: e17d b03e c780 843e 6294 ac3e 8a20 4f3e
00000180: 3edb 233e a651 393e 1919 943d 0c4b ad3e
00000190: 63cf 153f 8d11 6f3f ded1 4a3f 3b80 153f
000001a0: 0067 003f c890 4f3f 09fb 753e b6ec b53e
000001b0: c390 973e a86b a33e d089 dd3e 915c 2b3e
000001c0: 0c6c 5e3e 71b4 5e3e 672a 1a3e e0ac d43e
000001d0: 32bb be3e a589 493f 65f6 c83e 3c07 453e
000001e0: 80e0 303e 6b11 053f f798 b43f 51d5 393f
000001f0: 9f21 b03e 1a45 c83e 44a4 263e 0efd 813e

bn1.running_var f4 [128]
0.33689985 0.2534067 0.17699231 0.14969607 0.14061958 0.08952613 0.14758505 0.11906929
0.6300748 0.12800223 0.001961631 0.08417075 0.092806384 0.4398361 0.18464848 0.004107987
0.25336716 0.028948287 0.10708437 0.082048796 0.1712252 0.21433088 0.13063025 0.23988163
0.03655614 0.10606868 0.23789139 0.24441506 0.08678012 0.2779213 0.17393526 0.15923806
0.08375295 0.13228285 0.21421139 0.034716018 0.15678461 0.33409712 0.11625654 0.05761307
0.031762928 0.05450335 0.06279923 0.013066927 0.065669835 0.13863279 0.09540236 0.27428612
0.003559217 0.06295308 0.06681813 0.11812135 0.031810492 0.12758209 0.08740618 0.07181847
0.107451536 0.09270635 0.10438882 0.22390522 0.10188806 0.11236517 0.29103255 0.41179252
0.12690887 0.18084775 0.110258915 0.054348018 0.27567214 0.06729981 0.2711334 0.18168414
0.62112004 0.2573481 0.0015699462 0.16360313 0.21016055 0.0002186584 0.10805838 0.08328565
0.49075642 1.0277418 0.20671807 0.1834736 0.11751633 0.45290416 0.041233283 0.14636044
0.24436161 0.075246975 0.07405204 0.16207877 0.112483345 0.14446674 0.18652964 0.12443274
0.08241234 0.06516502 0.062103644 0.11110181 0.30922064 0.260298 0.24161117 0.27106842
0.33398312 0.30250502 0.10750867 0.21521094 0.21964577 0.20687592 0.26272592 0.11243881
0.16589819 0.08329647 0.08927729 0.2569734 0.27140555 0.33642942 0.098280765 0.09309116
0.08537912 0.37975392 0.9160216 0.37174755 0.28302422 0.12407225 0.073212914 0.10472975
00000000: 237e ac3e 86be 813e 793d 353e ed49 193e
00000010: 94fe 0f3e 7a59 b73d 8920 173e 9ada f33d
00000020: 954c 213f 0413 033e b58e 003b b761 ac3d
00000030: 4611 be3d 3332 e13e 7e14 3d3e 4b9c 863b
00000040: 57b9 813e f524 ed3c 0d4f db3d 3309 a83d
00000050: a955 2f3e 8e79 5b3e f0c3 053e 88a3 753e
00000060: e4bb 153d 893a d93d cd99 733e f147 7a3e
00000070: c7b9 b13d b34b 8e3e 161c 323e 4d0f 233e
00000080: ab86 ab3d 2875 073e 3b5a 5b3e 6232 0e3d
00000090: 258c 203e c70e ab3e e917 ee3d affb 6b3d
000000a0: d819 023d e83e 5f3d e29c 803d aa16 563c
000000b0: e87d 863d c1f5 0d3e 5062 c33d 3b6f 8c3e
000000c0: c141 693b 8bed 803d f2d7 883d 9be9 f13d
000000d0: b84b 023d e1a4 023e 0302 b33d 9015 933d
000000e0: 8d0f dc3d d4dc bd3d cec9 d53d 6947 653e
000000f0: b0aa d03d b61f e63d 3802 953e 78d6 d23e
00000100: 66f4 013e 2730 393e 6dcf e13d 079c 5e3d
00000110: e624 8d3e 7cd4 893d ffd1 8a3e 680b 3a3e
00000120: b901 1f3f 21c3 833e a7c6 cd3a 9487 273e
00000130: 5434 573e ab47 6539 b64d dd3d ab91 aa3d
00000140: 6d44 fb3e 0b8d 833f e7ad 533e 81e0 3b3e
00000150: 67ac f03d 0ee3 e73e 3be4 283d 83df 153e
00000160: ee39 7a3e 161b 9a3d 99a8 973d faf7 253e
00000170: ab5d e63d 17ef 133e a001 3f3e 98d6 fe3d
00000180: cdc7 a83d 3d75 853d 6460 7e3d 5989 e33d
00000190: 2b52 9e3e c845 853e eb68 773e 7bc9 8a3e
000001a0: d6ff aa3e f0e1 9a3e 812d dc3d 4260 5c3e
000001b0: d2ea 603e 48d7 533e 0384 863e 5246 e63d
000001c0: 37e1 293e 5797 aa3d 03d7 b63d 0492 833e
000001d0: abf5 8a3e 7a40 ac3e 6d47 c93d 94a6 be3d
000001e0: 40db ae3d 1b6f c23e 6480 6a3f b255 be3e
000001f0: 8de8 903e 9819 fe3d a7f0 953d 8d7c d63d

bn2.weight f4 [128]
0.8253809 0.05688083 0.2934425 0.7555006 0.6937125 0.792024 0.5848919 0.058652222
0.63068366 0.056193054 0.0020520687 0.9863471 0.53958887 0.18153816 0.99074507 0.29114503
0.10069728 0.7316256 0.9171881 0.26359105 0.8417391 0.27472776 0.3933336 0.7966518
0.6961094 0.8821562 0.33558935 0.78419095 0.8078086 0.29451942 0.03678 0.5417146
0.6804138 0.07880491 0.076099455 0.8982294 0.51803684 0.16235524 0.99818754 0.9315398
0.3058222 0.5271263 0.2270239 0.6522059 0.77601856 0.8556417 0.9566194 0.57533866
0.13181591 0.02131641 0.5995342 0.72861904 0.20244682 0.53353703 0.06438625 0.6674425
0.6654402 0.011573315 0.36720157 0.07797372 0.15300268 0.19700491 0.8320192 0.27101028
0.46990722 0.9679518 0.054145753 0.75049263 0.4514485 0.51311404 0.8537117 0.029121876
0.6948946 0.75057006 0.41290098 0.56635576 0.8523774 0.16377193 0.91944444 0.15496325
0.7606733 0.90406144 0.66055 0.071884274 0.9959092 0.6120993 0.35389477 0.81636465
0.84162307 0.6615632 0.10568023 0.5900507 0.26597446 0.2174123 0.96234643 0.22131711
0.14523268 0.3411075 0.99341583 0.33257723 0.110007346 0.22896206 0.2101857 0.6940912
0.71771294 0.77852076 0.5165909 0.09187949 0.16250193 0.74545836 0.039698362 0.59484226
0.16546631 0.44248694 0.33742952 0.7846242 0.5640217 0.13147497 0.17222899 0.45991957
0.7137139 0.37195474 0.29155803 0.07444793 0.6370833 0.84495026 0.5016396 0.52286196
00000000: 2a4c 533f e0fb 683d 183e 963e 7d68 413f
00000010: 2497 313f 16c2 4a3f 7abb 153f 503d 703d
00000020: 7c74 213f b02a 663d 007c 063b 3e81 7c3f
00000030: 7f22 0a3f 24e5 393e 78a1 7d3f f610 953e
00000040: 603a ce3d d14b 3b3f d7cc 6a3f 68f5 863e
00000050: 377c 573f 1ea9 8c3e 0663 c93e 5ff1 4b3f
00000060: 3a34 323f fdd4 613f 5ed2 ab3e bdc0 483f
00000070: 8bcc 4e3f 40cb 963e a0a6 163d cfad 0a3f
00000080: 992f 2e3f 7864 a13d 08da 9b3d 5df2 653f
00000090: 109e 043f 7440 263e 3889 7f3f 6479 6e3f
000000a0: ba94 9c3e c0f1 063f f478 683e f7f6 263f
000000b0: 27a9 463f 560b 5b3f 02e5 743f 6549 133f
000000c0: c0fa 063e c09f ae3c 137b 193f c786 3a3f
000000d0: 384e 4f3e e295 083f f0dc 833d 83dd 2a3f
000000e0: 4a5a 2a3f 009e 3d3c d801 bc3e b0b0 9f3d
000000f0: bcac 1c3e a8bb 493e 36ff 543f dcc1 8a3e
00000100: ae97 f03e b0cb 773f f0c7 5d3d 4920 403f
00000110: 4224 e73e 715b 033f da8c 5a3f 0091 ee3c
00000120: 9de4 313f 5c25 403f c267 d33e b1fc 103f
00000130: 6835 5a3f d4b3 273e b660 6b3f b0ae 1e3e
00000140: 7cbb 423f 9270 673f ce19 293f 1038 933d
00000150: e8f3 7e3f 8ab2 1c3f b231 b53e 46fd 503f
00000160: 9c74 573f 355c 293f e06e d83d 900d 173f
00000170: ce2d 883e 54a1 5e3e 565c 763f f4a0 623e
00000180: e0b7 143e a4a5 ae3e 8050 7e3f 9047 aa3e
00000190: 884b e13d 0875 6a3e ec3a 573e f6af 313f
000001a0: 09bc 373f 234d 473f 4d3f 043f 502b bc3d
000001b0: e866 263e 5cd6 3e3f c09a 223d 9547 183f
000001c0: 0070 293e a68d e23e 90c3 ac3e 22dd 483f
000001d0: ba63 103f 60a1 063e cc5c 303e 947a eb3e
000001e0: f4b5 363f da70 be3e 1847 953e 2878 983d
000001f0: e417 233f a94e 583f 746b 003f 48da 053f

bn2.bias f4 [128]
0.0 0.0 0.0 0.0 0.0 0.0 0.0 0.0
0.0 0.0 0.0 0.0 0.0 0.0 0.0 0.0
0.0 0.0 0.0 0.0 0.0 0.0 0.0 0.0
0.0 0.0 0.0 0.0 0.0 0.0 0.0 0.0
0.0 0.0 0.0 0.0 0.0 0.0 0.0 0.0
0.0 0.0 0.0 0.0 0.0 0.0 0.0 0.0
0.0 0.0 0.0 0.0 0.0 0.0 0.0 0.0
0.0 0.0 0.0 0.0 0.0 0.0 0.0 0.0
0.0 0.0 0.0 0.0 0.0 0.0 0.0 0.0
0.0 0.0 0.0 0.0 0.0 0.0 0.0 0.0
0.0 0.0 0.0 0.0 0.0 0.0 0.0 0.0
0.0 0.0 0.0 0.0 0.0 0.0 0.0 0.0
0.0 0.0 0.0 0.0 0.0 0.0 0.0 0.0
0.0 0.0 0.0 0.0 0.0 0.0 0.0 0.0
0.0 0.0 0.0 0.0 0.0 0.0 0.0 0.0
0.0 0.0 0.0 0.0 0.0 0.0 0.0 0.0
00000000: 0000 0000 0000 0000 0000 0000 0000 0000
00000010: 0000 0000 0000 0000 0000 0000 0000 0000
00000020: 0000 0000 0000 0000 0000 0000 0000 0000
00000030: 0000 0000 0000 0000 0000 0000 0000 0000
00000040: 0000 0000 0000 0000 0000 0000 0000 0000
00000050: 0000 0000 0000 0000 0000 0000 0000 0000
00000060: 0000 0000 0000 0000 0000 0000 0000 0000
00000070: 0000 0000 0000 0000 0000 0000 0000 0000
00000080: 0000 0000 0000 0000 0000 0000 0000 0000
00000090: 0000 0000 0000 0000 0000 0000 0000 0000
000000a0: 0000 0000 0000 0000 0000 0000 0000 0000
000000b0: 0000 0000 0000 0000 0000 0000 0000 0000
000000c0: 0000 0000 0000 0000 0000 0000 0000 0000
000000d0: 0000 0000 0000 0000 0000 0000 0000 0000
000000e0: 0000 0000 0000 0000 0000 0000 0000 0000
000000f0: 0000 0000 0000 0000 0000 0000 0000 0000
00000100: 0000 0000 0000 0000 0000 0000 0000 0000
00000110: 0000 0000 0000 0000 0000 0000 0000 0000
00000120: 0000 0000 0000 0000 0000 0000 0000 0000
00000130: 0000 0000 0000 0000 0000 0000 0000 0000
00000140: 0000 0000 0000 0000 0000 0000 0000 0000
00000150: 0000 0000 0000 0000 0000 0000 0000 0000
00000160: 0000 0000 0000 0000 0000 0000 0000 0000
00000170: 0000 0000 0000 0000 0000 0000 0000 0000
00000180: 0000 0000 0000 0000 0000 0000 0000 0000
00000190: 0000 0000 0000 0000 0000 0000 0000 0000
000001a0: 0000 0000 0000 0000 0000 0000 0000 0000
000001b0: 0000 0000 0000 0000 0000 0000 0000 0000
000001c0: 0000 0000 0000 0000 0000 0000 0000 0000
000001d0: 0000 0000 0000 0000 0000 0000 0000 0000
000001e0: 0000 0000 0000 0000 0000 0000 0000 0000
000001f0: 0000 0000 0000 0000 0000 0000 0000 0000

bn2.running_mean f4 [128]
0.0 0.0 0.0 0.0 0.0 0.0 0.0 0.0
0.0 0.0 0.0 0.0 0.0 0.0 0.0 0.0
0.0 0.0 0.0 0.0 0.0 0.0 0.0 0.0
0.0 0.0 0.0 0.0 0.0 0.0 0.0 0.0
0.0 0.0 0.0 0.0 0.0 0.0 0.0 0.0
0.0 0.0 0.0 0.0 0.0 0.0 0.0 0.0
0.0 0.0 0.0 0.0 0.0 0.0 0.0 0.0
0.0 0.0 0.0 0.0 0.0 0.0 0.0 0.0
0.0 0.0 0.0 0.0 0.0 0.0 0.0 0.0
0.0 0.0 0.0 0.0 0.0 0.0 0.0 0.0
0.0 0.0 0.0 0.0 0.0 0.0 0.0 0.0
0.0 0.0 0.0 0.0 0.0 0.0 0.0 0.0
0.0 0.0 0.0 0.0 0.0 0.0 0.0 0.0
0.0 0.0 0.0 0.0 0.0 0.0 0.0 0.0
0.0 0.0 0.0 0.0 0.0 0.0 0.0 0.0
0.0 0.0 0.0 0.0 0.0 0.0 0.0 0.0
00000000: 0000 0000 0000 0000 0000 0000 0000 0000
00000010: 0000 0000 0000 0000 0000 0000 0000 0000
00000020: 0000 0000 0000 0000 0000 0000 0000 0000
00000030: 0000 0000 0000 0000 0000 0000 0000 0000
00000040: 0000 0000 0000 0000 0000 0000 0000 0000
00000050: 0000 0000 0000 0000 0000 0000 0000 0000
00000060: 0000 0000 0000 0000 0000 0000 0000 0000
00000070: 0000 0000 0000 0000 0000 0000 0000 0000
00000080: 0000 0000 0000 0000 0000 0000 0000 0000
00000090: 0000 0000 0000 0000 0000 0000 0000 0000
000000a0: 0000 0000 0000 0000 0000 0000 0000 0000
000000b0: 0000 0000 0000 0000 0000 0000 0000 0000
000000c0: 0000 0000 0000 0000 0000 0000 0000 0000
000000d0: 0000 0000 0000 0000 0000 0000 0000 0000
000000e0: 0000 0000 0000 0000 0000 0000 0000 0000
000000f0: 0000 0000 0000 0000 0000 0000 0000 0000
00000100: 0000 0000 0000 0000 0000 0000 0000 0000
00000110: 0000 0000 0000 0000 0000 0000 0000 0000
00000120: 0000 0000 0000 0000 0000 0000 0000 0000
00000130: 0000 0000 0000 0000 0000 0000 0000 0000
00000140: 0000 0000 0000 0000 0000 0000 0000 0000
00000150: 0000 0000 0000 0000 0000 0000 0000 0000
00000160: 0000 0000 0000 0000 0000 0000 0000 0000
00000170: 0000 0000 0000 0000 0000 0000 0000 0000
00000180: 0000 0000 0000 0000 0000 0000 0000 0000
00000190: 0000 0000 0000 0000 0000 0000 0000 0000
000001a0: 0000 0000 0000 0000 0000 0000 0000 0000
000001b0: 0000 0000 0000 0000 0000 0000 0000 0000
000001c0: 0000 0000 0000 0000 0000 0000 0000 0000
000001d0: 0000 0000 0000 0000 0000 0000 0000 0000
000001e0: 0000 0000 0000 0000 0000 0000 0000 0000
000001f0: 0000 0000 0000 0000 0000 0000 0000 0000

bn2.running_var f4 [128]
1.0 1.0 1.0 1.0 1.0 1.0 1.0 1.0
1.0 1.0 1.0 1.0 1.0 1.0 1.0 1.0
1.0 1.0 1.0 1.0 1.0 1.0 1.0 1.0
1.0 1.0 1.0 1.0 1.0 1.0 1.0 1.0
1.0 1.0 1.0 1.0 1.0 1.0 1.0 1.0
1.0 1.0 1.0 1.0 1.0 1.0 1.0 1.0
1.0 1.0 1.0 1.0 1.0 1.0 1.0 1.0
1.0 1.0 1.0 1.0 1.0 1.0 1.0 1.0
1.0 1.0 1.0 1.0 1.0 1.0 1.0 1.0
1.0 1.0 1.0 1.0 1.0 1.0 1.0 1.0
1.0 1.0 1.0 1.0 1.0 1.0 1.0 1.0
1.0 1.0 1.0 1.0 1.0 1.0 1.0 1.0
1.0 1.0 1.0 1.0 1.0 1.0 1.0 1.0
1.0 1.0 1.0 1.0 1.0 1.0 1.0 1.0
1.0 1.0 1.0 1.0 1.0 1.0 1.0 1.0
1.0 1.0 1.0 1.0 1.0 1.0 1.0 1.0
00000000: 0000 803f 0000 803f 0000 803f 0000 803f
00000010: 0000 803f 0000 803f 0000 803f 0000 803f
00000020: 0000 803f 0000 803f 0000 803f 0000 803f
00000030: 0000 803f 0000 803f 0000 803f 0000 803f
00000040: 0000 803f 0000 803f 0000 803f 0000 803f
00000050: 0000 803f 0000 803f 0000 803f 0000 803f
00000060: 0000 803f 0000 803f 0000 803f 0000 803f
00000070: 0000 803f 0000 803f 0000 803f 0000 803f
00000080: 0000 803f 0000 803f 0000 803f 0000 803f
00000090: 0000 803f 0000 803f 0000 803f 0000 803f
000000a0: 0000 803f 0000 803f 0000 803f 0000 803f
000000b0: 0000 803f 0000 803f 0000 803f 0000 803f
000000c0: 0000 803f 0000 803f 0000 803f 0000 803f
000000d0: 0000 803f 0000 803f 0000 803f 0000 803f
000000e0: 0000 803f 0000 803f 0000 803f 0000 803f
000000f0: 0000 803f 0000 803f 0000 803f 0000 803f
00000100: 0000 803f 0000 803f 0000 803f 0000 803f
00000110: 0000 803f 0000 803f 0000 803f 0000 803f
00000120: 0000 803f 0000 803f 0000 803f 0000 803f
00000130: 0000 803f 0000 803f 0000 803f 0000 803f
00000140: 0000 803f 0000 803f 0000 803f 0000 803f
00000150: 0000 803f 0000 803f 0000 803f 0000 803f
00000160: 0000 803f 0000 803f 0000 803f 0000 803f
00000170: 0000 803f 0000 803f 0000 803f 0000 803f
00000180: 0000 803f 0000 803f 0000 803f 0000 803f
00000190: 0000 803f 0000 803f 0000 803f 0000 803f
000001a0: 0000 803f 0000 803f 0000 803f 0000 803f
000001b0: 0000 803f 0000 803f 0000 803f 0000 803f
000001c0: 0000 803f 0000 803f 0000 803f 0000 803f
000001d0: 0000 803f 0000 803f 0000 803f 0000 803f
000001e0: 0000 803f 0000 803f 0000 803f 0000 803f
000001f0: 0000 803f 0000 803f 0000 803f 0000 803f
