checkpoint_20_critic.pth (torch_old, 170014 bytes, 5 tensors)

fcs1.weight f4 [256, 33]
0.07627898 0.026179733 -0.07155623 -0.02777998 -0.09562992 -0.08979623 0.083187304 -0.02688844
-0.05742169 0.07434407 -0.02825463 0.011815851 -0.036098313 0.009354391 0.09468397 0.0017022851
-0.20241915 -0.057816014 0.15059489 -0.122164674 0.0075838584 -0.0067678695 -0.003356053 -0.009240484
0.056983255 0.0015734686 -0.114419006 0.09230077 -0.048818354 -1.42052e-40 -0.1495966 2.717706e-39
-0.39035663 0.06490172 -0.12341036 -0.07941962 -0.029246999 -0.0007977598 0.08328354 0.0212567
-0.06419826 -0.11653929 -0.06674831 0.033890992 0.013355826 0.011622549 0.020940581 0.11476755
0.07048292 -0.030271884 0.055333313 0.059296787 0.08470204 0.024209734 -0.013886452 0.04983966
0.006946954 0.0051852106 0.040822897 -0.05242523 -0.07147026 0.039302103 -5.271727e-39 0.058086272
-2.149913e-39 -0.35004008 0.060712762 -0.009571867 0.04773958 -0.068307005 0.11487847 0.15314995
-0.055119175 -0.07423573 0.025264982 0.062464807 -0.0010197856 0.010754132 0.00032578374 -0.20388627
0.17976022 -0.035104483 0.07846739 0.02992083 0.1167187 -0.07690226 0.01299681 0.020455344
0.011730271 0.027487624 -0.02466393 0.021051928 0.1915713 0.19281264 0.0056789904 -6.379366e-39
-0.13165899 -4.23509e-39 0.06540632 0.112521626 0.17656048 -0.03075749 -0.10459239 -0.08494801
-0.017713126 0.005451258 -0.065907456 -0.10978559 0.14836535 -0.016785635 0.008801503 -0.053252894
-0.02943011 -0.020542294 -0.06001085 0.055402957 0.013254989 -0.078785956 0.076762505 0.18568428
0.030655596 0.05727773 0.015579024 -0.094465666 -0.045865234 0.00055818993 0.21532536 0.042878035
-3.239368e-39 -0.12633422 1.839263e-39 0.25393203 -0.087461315 0.096344054 0.123524465 -0.4496579
0.19542113 0.1562945 -0.13007647 0.045630686 0.12666069 0.032085083 -0.049636874 -0.0070522763
0.02814284 0.041530997 -0.089558825 -0.08417997 -0.04706272 0.0009517698 -0.0021159023 0.0379713
0.029805172 0.04694497 0.019409884 0.011844073 -0.014927337 -0.0039396575 -0.0957733 0.20742987
-0.010597456 -1.138495e-39 -0.2141014 2.271457e-39 0.09632067 -0.05298316 0.15955089 0.08041915
-0.11604518 0.06677406 -0.010908393 0.08110932 0.0079851 -0.050743178 0.06685775 0.009278822
0.042954538 -0.024343511 0.12911676 -0.009289592 -0.17278914 -0.05028649 -0.11186571 0.06082346
0.029374843 0.0008136529 -0.0033895706 -0.004521207 0.05643976 0.0007009569 -0.063763656 -0.15307823
0.12721175 0.030924734 -6.285087e-39 -0.123317875 4.653342e-39 0.7016045 -0.0049915663 -0.016384127
-0.10730109 -0.07637864 -0.20169926 0.019675752 -0.05551406 -0.08226973 -0.12652984 -0.047530536
-0.0055804704 -0.016245292 -0.074946664 -0.00092189375 0.04380151 0.059554115 0.078514725 0.018571028
0.075580575 0.095276505 -0.04561932 -0.015414186 -0.06419696 -0.008283554 0.0010718948 0.00049418764
0.013962825 0.072504506 0.047251135 6.354335e-39 -0.09660867 -3.93747e-39 -0.22686209 0.04318746
-0.025648613 0.08484875 -0.13837501 0.13098662 0.1814242 0.100021355 -0.021186357 0.11316185
0.061206803 0.014881484 0.024248602 -0.011838878 0.03622039 0.0697504 -0.03767635 0.019117491
0.019035906 -0.031784985 0.0035204438 0.007484304 0.0064121345 -0.0061652344 -0.07176612 -0.00870704
00000000: 2738 9c3d e176 d63c 138c 92bd d792 e3bc
00000010: 9fd9 c3bd 16e7 b7bd 1b5e aa3d 2545 dcbc
00000020: 0233 6bbd b441 983d 4176 e7bc 4597 413c
00000030: d3db 13bd 2943 193c abe9 c13d 361f df3a
00000040: f746 4fbe 7cd0 6cbd 8c35 1a3e 7931 fabd
00000050: 0482 f83b 01c5 ddbb 3af1 5bbb 6665 17bc
00000060: 4667 693d d83c ce3a 8354 eabd 3008 bd3d
00000070: c1f5 47bd fc8b 0180 da2f 19be dc97 1d00
00000080: d3dc c7be 31eb 843d 92be fcbd c1a6 a2bd
00000090: 6797 efbc c120 51ba 9090 aa3d 8822 ae3c
000000a0: 617a 83bd 27ac eebd 57b3 88bd 48d1 0a3d
000000b0: 65d2 5a3c 816c 3e3c 958b ab3c 400b eb3d
000000c0: 5959 903d befc f7bc 2fa5 623d 30e1 723d
000000d0: 4378 ad3d 7e53 c63c 0084 63bc ac24 4c3d
000000e0: 46a3 e33b b3e8 a93b e935 273d d7bb 56bd
000000f0: 005f 92bd 3efb 203d 6e67 3980 dfeb 6d3d
00000100: 1569 1780 7438 b3be f2ad 783d 52d3 1cbc
00000110: 948a 433d 8be4 8bbd 6745 eb3d 57d3 1c3e
00000120: a5c4 61bd e708 98bd 82f8 ce3c 19db 7f3d
00000130: 54aa 85ba 1932 303c f4cd aa39 90c7 50be
00000140: 1013 383e b8c9 0fbd 83b3 a03d 871c f53c
00000150: 370a ef3d ef7e 9dbd 92f0 543c f791 a73c
00000160: 5330 403c ba2d e13c 030c cabc 1875 ac3c
00000170: 442b 443e ad70 453e d316 ba3b 1477 4580
00000180: 9dd1 06be b51d 2e80 c0f3 853d bd71 e63d
00000190: 45cc 343e 22f7 fbbc 8934 d6bd 39f9 adbd
000001a0: 1e1b 91bc 77a0 b23b 7dfa 86bd 44d7 e0bd
000001b0: 16ed 173e 0782 89bc 2e34 103c b51f 5abd
000001c0: 6a17 f1bc 5048 a8bc f0cd 75bd 36ee 623d
000001d0: 742b 593c 885a a1bd a935 9d3d 0524 3e3e
000001e0: 7221 fb3c 0e9c 6a3d 2a3f 7f3c 3777 c1bd
000001f0: 2fdd 3bbd 7e53 123a 407e 5c3e e1a0 2f3d
00000200: 0a46 2380 c25d 01be 1e07 1400 6103 823e
00000210: eb1e b3bd 0850 c53d 65fa fc3d 8f39 e6be
00000220: 7a1c 483e aa0b 203e c432 05be 3ee7 3a3d
00000230: 57b3 013e a66b 033d 0950 4bbd c816 e7bb
00000240: d08b e63c 681c 2a3d 9e6a b7bd 8c66 acbd
00000250: d7c4 40bd 3180 793a f3aa 0abb cb87 1b3d
00000260: fa29 f43c 5e49 403d 7a01 9f3c a50d 423c
00000270: ca91 74bc 3e18 81bb cb24 c4bd 7f68 543e
00000280: f4a0 2dbc a965 0c80 663d 5bbe e6bb 1800
00000290: c543 c53d df04 59bd 4f61 233e ccb2 a43d
000002a0: 18a9 edbd d7c0 883d 1eb9 32bc a51c a63d
000002b0: f0d3 023c 14d8 4fbd b7ec 883d 3306 183c
000002c0: 19f1 2f3d 0b6c c7bc 2f37 043e 5f33 18bc
000002d0: a3ef 30be 35f9 4dbd d919 e5bd 0522 793d
000002e0: 83a3 f03c 524b 553a 8f23 5ebb a226 94bb
000002f0: 612d 673d 6cc0 373a 8596 82bd 8ac0 1cbe
00000300: cc43 023e de55 fd3c 4470 4480 158e fcbd
00000310: a0ab 3200 5a9c 333f 4b90 a3bb 0138 86bc
00000320: adc0 dbbd 686c 9cbd 408a 4ebe 0b2f a13c
00000330: b662 63bd 087d a8bd 0a91 01be 61af 42bd
00000340: 61dc b6bb d914 85bc a37d 99bd 3eab 71ba
00000350: 3669 333d 04ef 733d 54cc a03d 4522 983c
00000360: fdc9 9a3d 5420 c33d 53db 3abd c88b 7cbc
00000370: b279 83bd beb7 07bc d27e 8c3a 5f8c 013a
00000380: 55c4 643c 3e7d 943d 688a 413d 4d31 4500
00000390: c4da c5bd 10e0 2a80 894e 68be 56e5 303d
000003a0: 0a1d d2bc 2ec5 ad3d 2eb2 0dbe 5b21 063e
000003b0: 44c7 393e ffd7 cc3d 038f adbc 66c1 e73d
000003c0: fcb3 7a3d 78d1 733c 01a5 c63c daf7 41bc
000003d0: d55b 143d 4cd9 8e3d 8452 1abd 499c 9c3c
000003e0: 30f1 9b3c f930 02bd 3fb7 663b e43e f53b
000003f0: e21c d23b bc05 cabb 1efa 92bd f9a7 0ebc

fcs1.bias f4 [256]
-0.05944204 0.17067091 -0.19726542 -0.042582754 -0.18421733 -0.2643967 -0.19267225 -0.026414882
0.10901496 -0.1201308 -0.092753276 -0.13676277 -0.051715 -0.18874934 -0.032792013 -0.16511975
-0.20727207 -0.2910468 -0.11390113 -0.20249203 -0.16152579 -0.109880134 0.021680895 0.021125972
-0.24105568 -0.18536323 -0.079309076 -0.26045936 -0.08986345 -0.038354818 0.0073379474 -0.27608588
-0.28793263 -0.108007014 -0.13476533 -0.12682603 0.021369865 -0.10991159 -0.25786301 0.06447385
-0.27419505 -0.17323832 -0.14588585 -0.12651911 -0.1001096 -0.26077425 0.029005235 -0.05695912
0.026721837 -0.10053122 -0.20261069 -0.067246296 -0.29888654 -0.1950984 -0.18229413 -0.13451323
-0.18355452 -0.26006705 -0.10906906 -0.05610749 -0.034134097 0.02354032 -0.26325697 -0.008297602
-0.18363893 -0.2131629 -0.16683044 -0.07066435 0.027308472 -0.12359222 -0.083853774 -0.07842107
-0.019268127 -0.2308749 -0.053428177 -0.009786802 -0.07663944 -0.1379398 -0.0032137781 -0.09765441
-0.11281771 0.07670224 -0.14257413 -0.191405 -0.05391448 -0.2638622 0.186327 -0.10675393
-0.14644799 -0.07142224 0.06882027 -0.06600958 -0.04460817 -0.33649173 -0.31841007 -0.06261814
0.041718587 -0.22633818 0.09777782 -0.28408393 0.07445821 -0.15476106 -0.2236911 -0.1493447
-0.19614336 -0.15349825 -0.021402024 0.0072990027 -0.093065776 -0.26978874 0.1343216 0.031301446
-0.24421427 -0.13028349 -0.07887019 -0.113089636 0.038378604 -0.38847405 0.0036514832 -0.33759078
-0.045003995 -0.05759653 -0.07210857 0.045827743 -0.07338104 0.06046661 0.06147361 0.05362422
-0.1571082 -0.02935415 -0.2764308 -0.28518194 -0.2276261 0.15548018 0.07035987 -0.021558488
-0.25129953 -0.030156495 -0.15937191 -0.28416306 -0.025687734 -0.20272669 -0.18598552 -0.30920914
-0.059705522 -0.1841515 -0.23288506 -0.14342064 -0.046019863 -0.027923027 -0.04318352 -0.06729511
-0.048848268 -0.0811289 0.09214051 -0.11839238 0.003631366 -0.23637302 -0.3036459 -0.24590072
-0.08887402 -0.237357 -0.15176836 -0.37954077 0.08468303 0.026417078 -0.0055527138 -0.036112532
-0.059118826 0.0039057208 -0.18705408 0.030452065 0.12198043 -0.039816596 -0.20289862 0.19364205
0.040339455 -0.22698201 -0.041941997 -0.22296678 -0.022176329 -0.05611507 -0.18495661 -0.17947863
-0.13324551 -0.08712104 -0.2626072 -0.16295934 -0.13094872 0.120525695 -0.1376738 -0.08045603
-0.06086478 0.084238485 0.19395563 -0.09303075 -0.20385174 -0.15611789 -0.23818336 -0.2505272
-0.42204994 -0.061354823 -0.17282543 -0.15485011 -0.16871232 -0.1474062 -0.09087722 0.023141364
-0.26889482 -0.09839125 -0.14625248 -0.033226363 -0.07191467 0.005954179 -0.11437853 0.07698231
-0.039821547 0.08008255 -0.040007275 0.050771944 -0.119166255 -0.26298293 -0.30236027 -0.28714687
-0.0035377815 -0.24879842 -0.2205243 -0.06486952 -0.034888044 -0.14078021 -0.15431853 0.008902659
-0.2887147 -0.265731 0.0039161234 -0.095586196 -0.14166951 -0.14516982 -0.07204342 -0.25019538
-0.061121237 -0.33939746 0.02532248 -0.05573258 -0.16761298 0.08090935 -0.043727804 -0.07288595
-0.05665139 -0.3073659 -0.020852659 -0.2709156 -0.14606331 -0.15916029 -0.12281388 -0.010030503
00000000: 7f79 73bd 5bc4 2e3e f2ff 49be 416b 2ebd
00000010: 78a3 3cbe 015f 87be e04b 45be 0664 d8bc
00000020: 3c43 df3d 2307 f6bd 6ef5 bdbd 8a0b 0cbe
00000030: 1cd3 53bd 8247 41be eb50 06bd 2715 29be
00000040: 213f 54be 1604 95be ff44 e9bd 125a 4fbe
00000050: 0467 25be d608 e1bd 229c b13c 6010 ad3c
00000060: 4dd7 76be dccf 3dbe cc6c a2bd ee5a 85be
00000070: 540a b8bd f119 1dbd 2a73 f03b 215b 8dbe
00000080: e86b 93be c832 ddbd ecff 09be afde 01be
00000090: db0f af3c 5419 e1bd 9f06 84be de0a 843d
000000a0: 4b63 8cbe 6365 31be 1a63 15be 3a8e 01be
000000b0: 4306 cdbd 3484 85be 639c ed3c f74d 69bd
000000c0: c1e7 da3c 50e3 cdbd 2d79 4fbe 6db8 89bd
000000d0: a807 99be e0c7 47be 50ab 3abe d6bd 09be
000000e0: b7f5 3bbe 8227 85be 995f dfbd f8d0 65bd
000000f0: 32d0 0bbd a1d7 c03c 9ec9 86be aaf2 07bc
00000100: d80b 3cbe 6047 5abe 99d5 2abe 79b8 90bd
00000110: 04b6 df3c eb1d fdbd 87bb abbd 3a9b a0bd
00000120: 31d8 9dbc 786a 6cbe 81d7 5abd d358 20bc
00000130: 24f5 9cbd 1740 0dbe 409e 52bb 09ff c7bd
00000140: f90c e7bd 1016 9d3d f4fe 11be acff 43be
00000150: 6ed5 5cbd f218 87be 81cc 3e3e cea1 dabd
00000160: 76f6 15be d345 92bd a4f1 8c3d 0830 87bd
00000170: 0eb7 36bd a548 acbe a506 a3be f03d 80bd
00000180: 1ce1 2a3d 32c5 67be bd3f c83d 7373 91be
00000190: 8c7d 983d af79 1ebe 480f 65be d1ed 18be
000001a0: ced9 48be a52e 1dbe 4c53 afbc 792c ef3b
000001b0: 4599 bebd c021 8abe 9a8b 093e f235 003d
000001c0: 4e13 7abe 0969 05be b286 a1bd 8a9b e7bd
000001d0: e232 1d3d 12e6 c6be b94d 6f3b b3d8 acbe
000001e0: 1c56 38bd 57ea 6bbd a8ad 93bd dfb5 3b3d
000001f0: cc48 96bd d6ab 773d c1cb 7b3d 12a5 5b3d
00000200: f9e0 20be 1d78 f0bc 5688 8dbe 5e03 92be
00000210: d116 69be 3236 1f3e d618 903d 6d9b b0bc
00000220: 55aa 80be c10a f7bc 6432 23be d27d 91be
00000230: 156f d2bc 9697 4fbe fd72 3ebe a950 9ebe
00000240: c78d 74bd 3692 3cbe 6c79 6ebe dcdc 12be
00000250: 537f 3cbd d5be e4bc 34e1 30bd 05d2 89bd
00000260: 1f15 48bd e926 a6bd 2ab4 bc3d b477 f2bd
00000270: 36fc 6d3b c50b 72be 7a77 9bbe 66cd 7bbe
00000280: 9503 b6bd b70d 73be 2a69 1bbe 2b53 c2be
00000290: 4c6e ad3d a168 d83c 8af3 b5bb bcea 13bd
000002a0: 9526 72bd 1ff7 7f3b 1b8b 3fbe 9c76 f93c
000002b0: e0d0 f93d ba16 23bd a8c4 4fbe 1a4a 463e
000002c0: fc3a 253d f96d 68be 5fcb 2bbd 6751 64be
000002d0: 22ab b5bc ead8 65bd 4465 3dbe 3fc9 37be
000002e0: 8371 08be 846c b2bd 7374 86be d0de 26be
000002f0: 6c17 06be 2dd6 f63d 5cfa 0cbe 22c6 a4bd
00000300: 594d 79bd 3a85 ac3d 4e9c 463e e886 bebd
00000310: 83be 50be 5edd 1fbe 57e6 73be 1a45 80be
00000320: ee16 d8be 324f 7bbd 26f9 30be 0791 1ebe
00000330: ecc2 2cbe a7f1 16be d61d babd f592 bd3c
00000340: 95ac 89be 5a81 c9bd 36c3 15be 5e18 08bd
00000350: 0048 93bd 461b c33b 4a3f eabd e7a8 9d3d
00000360: eb1b 23bd 5202 a43d abde 23bd 3ef6 4f3d
00000370: 700d f4bd b3a5 86be f7ce 9abe ea04 93be
00000380: 20da 67bb 03c5 7ebe 1fd1 61be 50da 84bd
00000390: c4e6 0ebd b028 10be ad05 1ebe 75dc 113c
000003a0: 6ad2 93be e50d 88be d352 803b b2c2 c3bd
000003b0: d011 11be 66a7 14be 808b 93bd 9c19 80be
000003c0: 435a 7abd 81c5 adbe 1771 cf3c d947 64bd
000003d0: bda2 2bbe cdb3 a53d ed1b 33bd 3b45 95bd
000003e0: 4a0b 68bd 105f 9dbe 32d3 aabc 73b5 8abe
000003f0: 9f91 15be eafa 22be d885 fbbd fb56 24bc

fc2.weight f4 [128, 260]
0.08694179 0.013123068 0.048645817 -0.11686499 0.078032434 -0.058591112 -0.003792537 -0.025955515
-0.06974176 -0.09107792 0.08494847 -0.003374219 -0.052809455 0.029035596 -0.038312454 0.15349324
0.05647469 -0.043527562 -0.12760681 -0.10732727 -0.044290766 -0.06536221 0.098905504 -0.07557152
-0.045282457 -0.013108417 -0.13800657 0.06437122 0.08565179 -0.15583806 0.10281775 -0.003412199
-0.009952784 -0.0017100903 -0.0149821285 -0.037911016 -0.0376793 -0.026161358 -0.061253496 -0.1754451
0.02522092 -0.03776353 -0.048232466 0.10320741 -0.017992662 0.03145473 0.054288708 -0.04110956
-0.13461332 0.014730021 -0.088246666 -0.031930394 0.07199604 0.0058250288 -0.06566248 -0.034862496
0.020970073 0.029059913 0.0016802897 -0.042377494 0.13702545 0.058789786 -0.025063857 -0.0856485
0.0062967306 -0.03797004 -0.09434982 0.07182891 -0.032194596 0.0036006346 0.01982995 0.07615005
0.07676349 -0.035919126 -0.18863027 -0.020264296 -0.022339815 0.16024035 -0.10220939 0.05817342
-0.0018545649 -0.04461931 -0.03594696 0.06927546 -0.14825962 -0.013673786 0.11027949 0.035452805
0.11154113 -0.13953109 0.06742765 -0.09408258 0.043809142 0.023748165 0.036234964 0.02480308
0.025107265 0.05221865 -0.012287645 0.06270823 -0.014166053 -0.09691561 -0.055997692 0.10203101
-0.023054527 -0.015729636 -0.036615614 0.19865401 -0.0059316712 0.029019834 -0.0071004974 0.09571835
0.05664104 -0.13317491 0.10868252 -0.07993038 -0.08775743 -0.009674901 0.010200624 -0.2329137
0.018314892 0.014305508 -0.11739944 -0.121941425 0.01044426 0.051280223 0.18600431 0.023316724
-0.066960886 0.05853318 -0.045196272 0.020680565 -0.002353362 -0.0016200044 -0.03024542 0.063803606
-0.07183257 0.0053442153 -0.03249723 0.09582453 -0.12992144 -0.038392812 0.060503393 0.026573988
0.03607252 -0.016158462 -0.031706814 0.08516256 0.008205476 -0.03503472 -0.10601024 -0.022531167
-0.00040995973 0.08429597 0.09278964 0.07874421 -0.004527291 0.008863234 0.08896719 0.07478984
-0.09354309 0.07756561 -0.07338077 0.15585974 0.043505892 0.0038715738 0.0013893723 0.09315237
-0.03223184 -0.10017543 -0.044234347 -0.041380726 -0.05024341 0.048597928 0.1221849 -0.09373319
-0.1258884 -0.11888313 -0.013030819 -0.047883265 -0.022075921 0.0036218208 -0.37177333 0.09069478
-0.11485296 -0.18692666 -0.11174566 -0.32287547 -0.0031638993 0.046189878 -0.07626331 -0.060108628
-0.13376103 0.11671164 0.014420274 -0.06822328 -0.025864428 0.044610053 -0.25427508 -0.07941607
0.024941554 -0.043111734 0.10899418 -0.043051276 0.05979081 -0.13734119 0.098994285 -0.020156208
-0.063598946 -0.08273631 0.061470535 0.06711377 -0.040105924 0.049568236 -0.07193858 0.028461026
-0.036802374 0.018339973 -0.24780388 0.057565067 0.030990826 0.16248356 0.004313062 0.018197475
0.14711341 -0.12074389 -0.13197075 -0.061727 -0.014660282 0.0814252 0.066136084 -0.18824697
-0.06424572 -0.06965274 -0.015128612 -0.12231897 -0.027816646 -0.037144035 -0.16451856 -0.038454514
-0.08821954 0.12029748 -0.051936533 -0.2111743 0.008639747 0.0044551305 -0.062852606 -0.016248006
-0.06909574 -0.05582125 -0.09393727 -0.031786945 0.09714597 0.06406522 -0.038528766 0.03713441
00000000: 8a0e b23d 2302 573c d640 473d e956 efbd
00000010: 78cf 9f3d 3cfd 6fbd 368c 78bb a9a0 d4bc
00000020: c5d4 8ebd 0f87 babd 77f9 ad3d 0022 5dbb
00000030: ba4e 58bd 0fdc ed3c 85ed 1cbd 552d 1d3e
00000040: 0152 673d f549 32bd 5cab 02be 66ce dbbd
00000050: 3c6a 35bd 9fdc 85bd f88e ca3d 3ec5 9abd
00000060: 197a 39bd b0c4 56bc 9851 0dbe 0fd5 833d
00000070: 356a af3d 0394 1fbe 1d92 d23d 339f 5fbb
00000080: 0011 23bc 1c25 e0ba 9a77 75bc 9548 1bbd
00000090: 9c55 1abd 5850 d6bc f2e4 7abd e1a7 33be
000000a0: 1a9c ce3c eead 1abd 688f 45bd 685e d33d
000000b0: 5965 93bc add6 003d d65d 5e3d 7f62 28bd
000000c0: 13d8 09be 3056 713c abba b4bd 72c9 02bd
000000d0: a972 933d e2df be3b 0d7a 86bd facb 0ebd
000000e0: 6ec9 ab3c 0e0f ee3c 2b3d dc3a 0694 2dbd
000000f0: 6650 0c3e 8fcd 703d b852 cdbc 7b68 afbd
00000100: ce54 ce3b 7986 1bbd 7a3a c1bd 091b 933d
00000110: 7bde 03bd a0f8 6b3b 6b72 a23c 8ff4 9b3d
00000120: 2d36 9d3d ef1f 13bd 4b28 41be 4f01 a6bc
00000130: fd01 b7bc 0c16 243e 2853 d1bd 4147 6e3d
00000140: df14 f3ba bdc2 36bd 1f3d 13bd 4be0 8d3d
00000150: 5fd1 17be 0408 60bc 37da e13d f636 113d
00000160: ad6f e43d 3de1 0ebe 8217 8a3d 5eae c0bd
00000170: 3771 333d 838b c23c 1d6b 143d d42f cb3c
00000180: c0ad cd3c 39e3 553d 1e52 49bc 2c6d 803d
00000190: bc18 68bc b17b c6bd d65d 65bd a2f5 d03d
000001a0: d9dc bcbc 70db 80bc 41fa 15bd f56b 4b3e
000001b0: 775e c2bb 01bb ed3c 4aab e8bb fb07 c43d
000001c0: 6f00 683d 015f 08be f194 de3d 8ab2 a3bd
000001d0: 2bba b3bd 7a83 1ebc 8520 273c ee80 6ebe
000001e0: 1d09 963c a661 6a3c 1e6f f0bd 6dbc f9bd
000001f0: 671e 2b3c 360b 523d ea77 3e3e b702 bf3c
00000200: ca22 89bd 7dc0 6f3d ba1f 39bd 4a6a a93c
00000210: dd3a 1abb 5456 d4ba 3ec5 f7bc 77ab 823d
00000220: f41c 93bd 871e af3b d11b 05bd a73f c43d
00000230: 200a 05be c841 1dbd 68d2 773d b1b1 d93c
00000240: c7c0 133d c05e 84bc 01df 01bd b569 ae3d
00000250: 4370 063c 9180 0fbd e61b d9bd 4893 b8bc
00000260: ddef d6b9 5ea3 ac3d 7f08 be3d a544 a13d
00000270: ab59 94bb 1937 113c 6e34 b63d 6a2b 993d
00000280: 8593 bfbd b8da 9e3d a848 96bd b299 1f3e
00000290: 3c33 323d 3bba 7d3b 991b b63a abc6 be3d
000002a0: 8905 04bd c728 cdbd 132f 35bd d67e 29bd
000002b0: 09cc 4dbd 9f0e 473d 143c fa3d 30f7 bfbd
000002c0: e4e8 00be 0079 f3bd 377f 55bc 3e21 44bd
000002d0: 90d8 b4bc 125c 6d3b 1359 bebe 2fbe b93d
000002e0: 0738 ebbd b469 3fbe e9da e4bd ef4f a5be
000002f0: 6c59 4fbb 9931 3d3d f02f 9cbd 7734 76bd
00000300: a7f8 08be 8306 ef3d 0343 6c3c a6b8 8bbd
00000310: a3e1 d3bc 08b9 363d 5830 82be e4a4 a2bd
00000320: 3b52 cc3c ee95 30bd 5738 df3d 8956 30bd
00000330: 35e7 743d 2ba3 0cbe 84bd ca3d a21e a5bc
00000340: 2a40 82bd a871 a9bd 87c8 7b3d f272 893d
00000350: 1c46 24bd 1008 4b3d 8954 93bd 1927 e93c
00000360: 16be 16bd b63d 963c 4dc0 7dbe 59c9 6b3d
00000370: 79e0 fd3c 1762 263e 9654 8d3b df12 953c
00000380: e6a4 163e 9348 f7bd 5723 07be 73d5 7cbd
00000390: ae31 70bc 41c2 a63d 5b72 873d d0c3 40be
000003a0: 4393 83bd 19a6 8ebd ffdd 77bc 5e82 fabd
000003b0: bcdf e3bc 5824 18bd 8e77 28be 7b82 1dbd
000003c0: 72ac b4bd 865e f63d 67bb 54bd 133e 58be
000003d0: ba8d 0d3c 58fc 913b deb8 80bd 8a1a 85bc
000003e0: 1182 8dbd d3a4 64bd 2f62 c0bd 0733 02bd
000003f0: 77f4 c63d a034 833d 57d0 1dbd 401a 183d

fc2.bias f4 [128]
0.27889866 0.27670884 0.1807708 -0.15626863 0.10203703 -0.17432895 0.21437913 0.06277467
0.40435332 -0.11975409 -0.13567497 -0.13861828 -0.1427955 -0.16730961 -0.23708412 -0.14493442
0.19713296 -0.28059304 0.1557116 0.20523784 0.5886783 0.24851489 -0.17073461 -0.1208695
-0.15951596 -0.13499093 0.37243435 -0.09512818 -0.17871769 -0.11295224 0.38526133 -0.15169252
-0.1595162 -0.14851388 0.19310626 -0.1413469 -0.16060369 0.093729354 -0.033628177 -0.11205447
-0.16473785 -0.11201225 0.2720707 -0.16668575 0.1937043 0.2764568 0.23207429 0.2759389
-0.017478708 -0.19191146 -0.19135033 -0.17297737 -0.19035307 -0.20359078 0.043525096 -0.33030427
-0.029036878 -0.15291396 0.067921355 -0.068448685 -0.19423136 0.10013105 -0.12942873 0.17150171
-0.16363421 0.3594558 0.12441567 0.20690018 0.046022683 0.1465594 0.35586175 -2.2714118e-24
0.16693388 0.2760963 -0.1510047 0.4141877 0.2771365 0.05443777 0.10877029 -0.103964716
0.36412194 0.24933043 -0.25023222 0.2505407 -0.23493339 0.5586084 -0.14912362 0.30773297
0.20141639 0.3014174 -0.08341295 0.111632355 0.018134715 -0.02494738 0.43214893 0.14784919
-0.23873486 0.25825372 0.2973526 -0.08729949 -0.2203626 -0.068850294 -0.18587327 0.28586403
0.17866768 0.107089706 -0.11141388 -0.1760347 0.12234777 0.33452985 0.21790522 -0.05789634
0.040613357 0.29823846 0.2989391 0.11832222 -0.05855467 0.20105128 0.19750994 -0.24590798
0.046605565 -0.18657215 0.22481954 0.33960116 0.26654103 -0.23473503 0.29474473 0.041082323
00000000: cecb 8e3e c8ac 8d3e fb1b 393e e204 20be
00000010: caf8 d03d 4a83 32be 3486 5b3e 0290 803d
00000020: 6607 cf3e a241 f5bd 61ee 0abe f3f1 0dbe
00000030: fc38 12be 3653 2bbe 2ec6 72be b069 14be
00000040: 39dd 493e e4a9 8fbe dd72 1f3e de29 523e
00000050: 9fb3 163f b07a 7e3e 0ed5 2ebe 6e8a f7bd
00000060: 2758 23be 103b 0abe b7af be3e 90d2 c2bd
00000070: c501 37be 8153 e7bd f940 c53e 4955 1bbe
00000080: 3758 23be 0614 18be a6bd 453e 3ebd 10be
00000090: 4b75 24be 2df5 bf3d b3bd 09bd d07c e5bd
000000a0: 0ab1 28be ae66 e5bd da4c 8b3e abaf 2abe
000000b0: 6c5a 463e bf8b 8d3e e2a4 6d3e dd47 8d3e
000000c0: 822f 8fbc 7084 44be 57f1 43be fb20 31be
000000d0: eaeb 42be 1a7a 50be 5f47 323d a41d a9be
000000e0: bfde edbc 7a95 1cbe 5a1a 8b3d d32e 8cbd
000000f0: 96e4 46be 8211 cd3d f788 04be 259e 2f3e
00000100: ba8f 27be 970a b83e a5cd fe3d a4dd 533e
00000110: 4882 3c3d ab13 163e 8333 b63e f2bd 2f98
00000120: b7f0 2a3e 7f5c 8d3e faa0 1abe 6910 d43e
00000130: d6e4 8d3e 24fa 5e3d f5c2 de3d 74eb d4bd
00000140: 316e ba3e 7a50 7f3e 701e 80be df46 803e
00000150: 6192 70be f600 0f3f ddb3 18be 2d8f 9d3e
00000160: 1940 4e3e 6253 9a3e 69d4 aabd 819f e43d
00000170: 418f 943c 735e ccbc a042 dd3e c765 173e
00000180: e976 74be d539 843e 9a3e 983e 13ca b2bd
00000190: bca6 61be 6201 8dbd 9055 3ebe c55c 923e
000001a0: a9f4 363e d951 db3d f62c e4bd 7142 34be
000001b0: 7891 fa3d 7f47 ab3e 8c22 5f3e b624 6dbd
000001c0: 315a 263d b6b2 983e 8c0e 993e ec52 f23d
000001d0: 06d7 6fbd 63e0 4d3e 0c40 4a3e 4dcf 7bbe
000001e0: 7ae5 3e3d c50c 3fbe 1837 663e 34e0 ad3e
000001f0: 1178 883e 615e 70be c8e8 963e f045 283d

fc3.weight f4 [1, 128]
0.035748485 0.04784651 0.026019758 -0.06387293 0.030788362 -0.06992493 0.006808679 0.089404136
0.044012383 -0.11521976 -0.114909045 -0.008927575 -0.026163 -0.030413369 -0.12059158 -0.029454783
0.018338107 -0.024091065 0.020004043 0.008633239 0.08815208 0.026395189 -0.07572299 -0.06793947
-0.05524019 -0.14300446 0.013065752 -0.2521321 -0.1579251 -0.10639003 0.042257488 -0.11830205
-0.024171118 -0.03896587 0.0135004185 -0.15849926 -0.02605571 0.017357154 -0.25246826 -0.024370791
-0.09159697 -0.07419709 0.06638771 -0.017904483 0.03870717 0.018207408 0.030058935 0.07048768
0.14780946 -0.061175864 -0.19510293 -0.23907821 -0.1209292 -0.11649746 0.089553624 -0.12068025
-0.031810887 -0.18556038 0.11693609 -0.24668708 -0.03911534 0.016008036 -0.24405903 0.015173664
-0.02569283 0.018085547 0.030930642 0.023788834 0.036333874 0.020657836 0.042149745 1.12899094e-35
0.015722204 0.029125305 -0.09578201 0.040962934 0.08062984 0.024217445 0.025377944 -0.054381266
0.07567068 0.0073524555 -0.0223669 0.05753087 -0.089624114 0.074184 -0.10169212 0.086364314
0.017801538 0.049711898 -0.022908775 0.06758223 0.054436892 -0.2499443 0.05059968 0.01371979
-0.16025819 0.19742835 0.029671764 -0.19305941 -0.10543468 -0.014125919 -0.014599085 0.036698975
0.014975463 0.02264918 -0.14071603 -0.20861922 0.016895747 0.012515846 0.05984401 -0.2291375
0.068036474 0.0571477 0.058289513 0.016633328 -0.07210989 0.11922565 0.16584331 -0.014500359
0.074195206 -0.03690626 0.016456295 0.087515466 0.033422753 -0.021543918 0.032485012 0.11029039
00000000: 016d 123d b4fa 433d 6327 d53c d0cf 82bd
00000010: e037 fc3c cd34 8fbd 571b df3b 8419 b73d
00000020: 5446 343d 56f8 ebbd 6f55 ebbd f744 12bc
00000030: ca53 d6bc 7525 f9bc b8f8 f6bd 284b f1bc
00000040: cc39 963c a05a c5bc 85df a33c 6e72 0d3c
00000050: 1489 b43d b93a d83c a814 9bbd d923 8bbd
00000060: 8a43 62bd c36f 12be bc11 563c 7517 81be
00000070: 1eb7 21be 04e3 d9bd 3016 2d3d 5848 f2bd
00000080: 8202 c6bc ad9a 1fbd dc30 5d3c a14d 22be
00000090: c972 d5bc 9730 8e3c 8543 81be 41a5 c7bc
000000a0: 3197 bbbd a5f4 97bd 48f6 873d 6cac 92bc
000000b0: 698b 1e3d b427 953c 283e f63c d85b 903d
000000c0: 5d5b 173e 8b93 7abd 10c9 47be ebd0 74be
000000d0: baa9 f7bd 3896 eebd e467 b73d 3527 f7bd
000000e0: 224c 02bd 8a03 3ebe 307c ef3d 8a9b 7cbe
000000f0: 6837 20bd 4923 833c 9cea 79be f69a 783c
00000100: c579 d2bc 2428 943c 4262 fd3c cde0 c23c
00000110: d4d2 143d 9f3a a93c 36a5 2c3d 1d1c 7005
00000120: dacb 803c 3198 ee3c 5c29 c4bd c0c8 273d
00000130: 4221 a53d aa63 c63c 68e5 cf3c e4be 5ebd
00000140: 3bf9 9a3d deec f03b ca3a b7bc 7da5 6b3d
00000150: d98c b7bd c8ed 973d f543 d0bd c6df b03d
00000160: 88d4 913c b49e 4b3d 2fab bbbc 8d68 8a3d
00000170: 38f9 5e3d 66f1 7fbe 9c41 4f3d f8c8 603c
00000180: b91a 24be a82a 4a3e 3312 f33c 5eb1 45be
00000190: 23ee d7bd 6670 67bc 0031 6fbc aa51 163d
000001a0: a55b 753c c68a b93c dd17 10be 47a0 55be
000001b0: f368 8a3c 430f 4d3c fe1e 753d 05a3 6abe
000001c0: b556 8b3d b513 6a3d fcc0 6e3d 9e42 883c
000001d0: 5aae 93bd 942c f43d d4d2 293e ea92 6dbc
000001e0: a8f3 973d 052b 17bd 5acf 863c 4f3b b33d
000001f0: 4ce6 083d df7c b0bc 010f 053d eedf e13d
