checkpoint_actor.pth (torch_old, 541471 bytes, 6 tensors)

fc1.weight f4 [400, 33]
0	0xbde5c0de	-0.11218427
1	0x3dc7ed0d	0.09762011
2	0xbd4fabe5	-0.05070104
3	0x3d575874	0.05257459
4	0xbe835505	-0.25650802
5	0x3e6b9528	0.23006117
6	0xbd8bd5eb	-0.06827911
7	0xbd04e9ec	-0.032449648
8	0xbe3474c4	-0.17622668
9	0xbd8edc2c	-0.06975588
10	0xbc289199	-0.010288619
11	0x3d8ddcaf	0.06926858
12	0xbd6d4d7e	-0.05793523
13	0x3d727f43	0.059203397
14	0x3e69dc43	0.2283793
15	0xbd80f36c	-0.06296429
16	0x3cd96d61	0.026541414
17	0x3dbc873e	0.09205483
18	0x3dde61f2	0.10858525
19	0x3bc8f123	0.0061322614
20	0x3d82a20d	0.06378565
21	0x3dbdfec2	0.09277107
22	0xbe739c76	-0.23790154
23	0x3cf1ffb6	0.029540878
24	0x3d967166	0.07345848
25	0xbd5c4e2e	-0.053785495
26	0x3dd8eb3d	0.10591743
27	0x3d4bc146	0.049744867
28	0x3e293604	0.16524512
29	0x3d4b65c9	0.049657617
30	0xbd5ac8e9	-0.05341426
31	0xbcea4fb7	-0.028602464
32	0x3e7856bc	0.24251837
33	0xbe530f37	-0.20611273
34	0x3d6f5094	0.058426455
35	0xbd0bca11	-0.034128252
36	0xbe793b7c	-0.24339098
37	0x3d47e31d	0.048800576
38	0xbe82443a	-0.25442678
39	0x3e26d1ba	0.16290942
40	0x3e6dd368	0.23225176
41	0xbb26484a	-0.0025372677
42	0x3d6c56ab	0.05769984
43	0x3d6bd032	0.057571597
44	0x3d7247cd	0.059150506
45	0x3bf3482f	0.0074243764
46	0xbc589f0e	-0.013221515
47	0x3d89a7cb	0.06721457
48	0xbd9f92a3	-0.077916406
49	0xbec7d1ef	-0.39027354
50	0xbde51a51	-0.1118666
51	0xbda338e6	-0.07969837
52	0x3d25a636	0.040441714
53	0xbe321df5	-0.1739424
54	0xbd960eb5	-0.07327024
55	0x3c11d387	0.00890053
56	0x3bc88b85	0.0061201476
57	0x3d8219d3	0.06352582
58	0xbdd07a8a	-0.101796225
59	0x3e22f5e1	0.15914108
60	0xbc878d91	-0.016546996
61	0x3dfbce59	0.12295217
62	0xbd28afc3	-0.041183244
63	0x3d6bc711	0.05756289
64	0xbc3b03ec	-0.011414509
65	0x3e101df7	0.1407393
66	0x3b2798e4	0.0025573308
67	0x3ce4ddde	0.027937826
68	0xbd569e4f	-0.05239707
69	0xbe273b66	-0.16331252
70	0xbd3922d6	-0.045199238
71	0xbdc4f132	-0.09616317
72	0xbe22256f	-0.15834592
73	0x3ccf13a4	0.02527792
74	0x3e0b1832	0.13583449
75	0xbd290176	-0.04126116
76	0xbbbeee51	-0.0058267494
77	0x3d2b416a	0.04181043
78	0xbb876ac3	-0.0041326
79	0xbd9095c3	-0.07059815
80	0x3df6d96a	0.12053187
81	0xbe1b73c8	-0.15180886
82	0xbda6c87a	-0.081437066
83	0x3d824ff3	0.06362905
84	0x3d17dc00	0.037075043
85	0xbd24d732	-0.04024429
86	0xbde3c4b5	-0.11121503
87	0x3e2b6bfb	0.1674041
88	0xbdf37f66	-0.11889534
89	0xbd4b9200	-0.049699783
90	0x3ce0ade7	0.027426673
91	0xbd2adae0	-0.04171264
92	0xbd0b922e	-0.034074955
93	0x3aed187a	0.001808896
94	0x3e24778b	0.16061227
95	0xbd0bd4ec	-0.034138605
96	0xbd81a30f	-0.06329929
97	0x3d3cb22b	0.04606835
98	0x3f238bcb	0.6388518
99	0x3e27f4ba	0.1640195
100	0x3e1c18c2	0.1524382
101	0xbd8e85f2	-0.06959142
102	0xbe49c6b2	-0.19704702
103	0x3dfa4d8e	0.12221824
104	0x3e23afc4	0.15985018
105	0xbee51866	-0.44745177
106	0x3eb574cf	0.3544068
107	0xbbcbc450	-0.0062184706
108	0xbb8f10f2	-0.0043660337
109	0x3d697786	0.056998752
110	0x3dc95549	0.0983072
111	0xbd6a6b5d	-0.057231296
112	0x3c47a6c6	0.012185758
113	0x3da2353a	0.079203084
114	0xbd9cdd5d	-0.07659409
115	0xbd834dff	-0.06411361
116	0x3da986f6	0.08277695
117	0xbe13f41e	-0.14448592
118	0xbe102e57	-0.14080177
119	0x3dbf3620	0.093364954
120	0xbd3b9c39	-0.045803282
121	0x3e077da4	0.13231522
122	0xbd246b1b	-0.040141206
123	0xbc2c0d61	-0.010501237
124	0xbde52759	-0.111891456
125	0x3c6f39ea	0.01460121
126	0x3d93e94c	0.07222232
127	0x3dae1025	0.08499173
128	0xb8545800	-5.0626695e-05
129	0xbde375ad	-0.11106429
130	0xba080380	-0.000518851
131	0xbe664605	-0.22487648
132	0xbe1de782	-0.15420344
133	0xbd4748b1	-0.04865331
134	0x3c9ca3de	0.019121107
135	0xbec38c25	-0.3819286
136	0xbdc2579e	-0.09489368
137	0x3ed226fb	0.41045365
138	0x3ee02a2c	0.43782175
139	0xbd8bb11f	-0.068208925
140	0x3dcd36a4	0.100201875
141	0x3cc98221	0.024598183
142	0xbd7947e8	-0.06085959
143	0xbda9bf49	-0.08288438
144	0xbdba977b	-0.09110924
145	0xbd15fd44	-0.036618486
146	0xbc500fa8	-0.012699045
147	0xbcd7cc35	-0.02634249
148	0x3dfb8085	0.122803725
149	0xbef5b0b6	-0.47986382
150	0x3e3cb830	0.18429637
151	0x3e6f37ab	0.2336108
152	0x3d43750f	0.047719058
153	0xbdbb593d	-0.0914788
154	0x3a4830b1	0.000763665
155	0xbd3c67eb	-0.04599754
156	0xbdabc5f0	-0.08387363
157	0xbc10cbf9	-0.008837693
158	0xbc0a8ea3	-0.008456859
159	0x3b682351	0.003542144
160	0xbe10a7df	-0.14126538
161	0xbd1b80e0	-0.0379647
162	0xbced6deb	-0.028983077
163	0xbc19c468	-0.009385206
164	0xbd167e64	-0.03674163
165	0x3d3ae6fc	0.04563044
166	0xbd86909a	-0.06570549
167	0x3e06a3dc	0.13148445
168	0xbca01a71	-0.019543858
169	0x3d4251d7	0.04744133
170	0x3dce1534	0.10062638
171	0x3d610fe3	0.05494679
172	0xbd4123b8	-0.047153205
173	0xbd91fc43	-0.07128193
174	0xbd5143ee	-0.051090173
175	0xbc00f97e	-0.007871984
176	0xbd41972c	-0.04726331
177	0x3d6041a6	0.054750107
178	0xbddc30fb	-0.1075153
179	0x3d65def3	0.056120824
180	0x3dda2944	0.10652402
181	0x3dbad234	0.09122124
182	0x3db2900f	0.08718883
183	0xbebbb6ae	-0.3666281
184	0x3daaf9ce	0.08348428
185	0x3d13a720	0.036048055
186	0xbd0f7ef6	-0.03503319
187	0x3d0c36a4	0.034231797
188	0xbbba37fd	-0.005682944
189	0x3c7696a4	0.015050564
190	0x3e0f64d8	0.14003313
191	0xbd1ebf33	-0.03875656
192	0xbccc7733	-0.024959182
193	0x3bc9a3f5	0.0061535784
194	0x3d402789	0.046912704
195	0x3d90c7f2	0.070693865
196	0x3a713ec0	0.0009202771
197	0x3d444a3f	0.04792237
198	0x3e1a3a7e	0.15061375
199	0x3d9a1cd7	0.07525032
200	0xbe4c4c01	-0.19950868
201	0x3d988b6c	0.074484676
202	0x3df14bd1	0.11782039
203	0x3deb74b2	0.11496867
204	0xbde29af3	-0.110647105
205	0x3d7a0a00	0.061044693
206	0xbda37595	-0.07981411
207	0xbdd3344b	-0.103127085
208	0x3c28c397	0.0103005385
209	0x3e19dfb3	0.1502674
210	0x3cb00455	0.02148644
211	0x3d0f5943	0.034997236
212	0xbdc0f0d1	-0.09420932
213	0xbe1757a2	-0.14779523
214	0x3daab24f	0.08334791
215	0xbdd9b269	-0.10629732
216	0xbd68a0a8	-0.05679384
217	0xbe3009bf	-0.17191218
218	0x3dc859f0	0.09782779
219	0xbdc63820	-0.09678674
220	0xbd28c8d0	-0.041207135
221	0x3e126c93	0.1429923
222	0x3caeaadb	0.021321705
223	0xbd535fe4	-0.05160512
224	0xbcef0d07	-0.029181017
225	0x3e0df629	0.13863434
226	0x3d89fe49	0.06737954
227	0xbd2f707f	-0.042831894
228	0xbe2358c8	-0.15951836
229	0x3c2ce8ac	0.01055352
230	0xbe3e3af7	-0.18577181
231	0xbe041ee6	-0.12902412
232	0x3d8baf6a	0.06820567
233	0xbcab0ffa	-0.020881642
234	0x3e10a3b0	0.14124942
235	0xbe55111f	-0.20807312
236	0x3daf9547	0.08573394
237	0xbd1b471c	-0.037909612
238	0xbd375998	-0.044763178
239	0xbdec2108	-0.11529738
240	0xbda1e319	-0.079046436
241	0xbdb91cd4	-0.09038702
242	0x3d2ca9a8	0.042153984
243	0x3d7262f3	0.059176397
244	0xbd8e87fe	-0.06959532
245	0x3db3f056	0.08786075
246	0x3cd77e9f	0.026305495
247	0x3e459769	0.1929604
248	0xbca44113	-0.020050561
249	0xbbfe766f	-0.007765583
250	0xbd8b85ec	-0.06812653
251	0x3db282e0	0.08716369
252	0xbd1a13ce	-0.037616543
253	0xbdc220b0	-0.09478891
254	0xbe470117	-0.1943401
255	0x3dd0ca01	0.10194779

fc1.bias f4 [400]
0	0xbe184f38	-0.1487397
1	0xbd0b6cd4	-0.034039333
2	0x3e088da3	0.1333528
3	0xbd8c57ec	-0.06852707
4	0xbe0d8d52	-0.1382344
5	0xbdde2cb0	-0.10848367
6	0xbe8755f5	-0.26432768
7	0xbe1ac532	-0.15114287
8	0xbd6a1018	-0.057144254
9	0xbe0010d7	-0.12506424
10	0x3e16d6f0	0.1473043
11	0xbe174e9c	-0.14776081
12	0x3dbf167f	0.09330463
13	0xbdf8f2bf	-0.12155675
14	0xbe2fb893	-0.17160253
15	0x3cb2f46d	0.021845067
16	0xbcc82ab7	-0.02443443
17	0x3ca7adc2	0.020468596
18	0xbe10feb5	-0.14159663
19	0xbd85c3e9	-0.065315075
20	0xbe02d8b0	-0.12777972
21	0x3d997aab	0.074941
22	0xbd1a6fb1	-0.037704173
23	0xbe3c975b	-0.18417113
24	0xbdb1f354	-0.08688989
25	0xbe993fce	-0.29931492
26	0xbe053437	-0.130082
27	0x3dd67ef1	0.10473431
28	0x3dd27e3c	0.102779835
29	0x3d01f022	0.03172315
30	0xbc2f8d3b	-0.010714824
31	0x3e45c099	0.19311751
32	0x3e484704	0.1955834
33	0xbdfb6a2d	-0.12276111
34	0x3cc20656	0.023684662
35	0xbb7977ad	-0.0038065717
36	0xbd8c1d2d	-0.06841502
37	0x3dc0347b	0.0938501
38	0x3da10f81	0.07864285
39	0x3e08c8e7	0.13357888
40	0x3e3e09ff	0.185585
41	0xbd508263	-0.050905596
42	0x3c2d6738	0.010583691
43	0xbce2cfaa	-0.027686913
44	0x3e0bb4d4	0.13643199
45	0x3d2763a5	0.040866513
46	0x3e054f7f	0.13018607
47	0x3e3566b5	0.17714961
48	0x3ddff163	0.10934713
49	0xbdf36ee9	-0.11886389
50	0x3bbb28d6	0.005711655
51	0x3e0f364f	0.13985561
52	0x3dca004f	0.0986334
53	0x3e231310	0.1592524
54	0xbd89118f	-0.06692802
55	0x3e3626b1	0.17788197
56	0x3da46bd2	0.080283776
57	0xbd7dbe20	-0.061948895
58	0x3b999e97	0.004688095
59	0x3dda3f47	0.106566004
60	0xbe417e97	-0.18895946
61	0xbd7fa8bd	-0.06241678
62	0x3df2af71	0.11849869
63	0xbb920a26	-0.004456776
64	0xbddeca36	-0.108784124
65	0x3a72b522	0.0009258558
66	0x3d556ecc	0.052107617
67	0xbdc11ee3	-0.09429719
68	0x3ba49da7	0.0050236764
69	0x3d741bd7	0.059596863
70	0x3d84d7df	0.06486487
71	0xbd7a19d2	-0.06105978
72	0xbdb06a4c	-0.086140245
73	0xbe655a56	-0.22397742
74	0x3d59e60f	0.053197917
75	0x3d93dbf2	0.072196856
76	0xbe377dee	-0.17919132
77	0xbd4d7fff	-0.050170895
78	0x3e0a41f9	0.13501729
79	0xbd8c0e02	-0.06838609
80	0xbd434583	-0.047673713
81	0xbdd9b22b	-0.10629686
82	0xbd97ee4d	-0.07418499
83	0xbe11ce03	-0.14238743
84	0x3dda6b31	0.106649764
85	0x3e0e2c9c	0.13884205
86	0xbcaed421	-0.021341385
87	0x3d86a028	0.06573516
88	0x3e2b4f89	0.16729559
89	0xbe252f8d	-0.1613142
90	0xbb6d8f1b	-0.0036248628
91	0xbca316d2	-0.019908343
92	0x3d0802b5	0.033205707
93	0x3cd97941	0.026547076
94	0xbe2ba069	-0.1676041
95	0xbe8d2d68	-0.27573705
96	0x3d83ded5	0.06438986
97	0x3db164b3	0.08661785
98	0x3d7ef4a4	0.062245026
99	0x3dc839e5	0.097766675
100	0xbdd21b9d	-0.10259173
101	0x3e6461e8	0.22302973
102	0xbde4f09c	-0.11178705
103	0x3e668306	0.22510919
104	0xbdbf5454	-0.09342256
105	0x3e65cab3	0.22440605
106	0x3dffbc8b	0.124871336
107	0xbdf60131	-0.12011946
108	0xbcfdb2c8	-0.030969039
109	0xbd1f13c6	-0.038837217
110	0x3d0c4eca	0.034254827
111	0xbdc6c5f5	-0.09705726
112	0xbe0ba374	-0.13636571
113	0xbd8b53e8	-0.06803113
114	0x3e02e0a8	0.12781012
115	0x3e0fb51a	0.14033929
116	0xbca36805	-0.019947061
117	0x3b8ba48a	0.004261558
118	0xbe707f76	-0.23486122
119	0xbde2a292	-0.11066164
120	0xbe06181a	-0.13095132
121	0xbde63eb6	-0.1124243
122	0xbbbeeb94	-0.005826423
123	0x3dbe2029	0.09283478
124	0xbe32e05c	-0.17468399
125	0x3dbb8838	0.09156841
126	0x3da2c617	0.07947939
127	0x3b90f2d4	0.0044234786
128	0x3e09ffe2	0.13476518
129	0x3e443e74	0.19164449
130	0xbdc74197	-0.09729307
131	0x3dc14d59	0.09438581
132	0x3de96762	0.11396672
133	0x3e7b97ab	0.24569575
134	0xbe1c378b	-0.15255563
135	0x3dec5728	0.11540061
136	0xbe321842	-0.17392066
137	0x3d9f1230	0.07767141
138	0x3e3f3be2	0.18675187
139	0xbc7eb2d4	-0.015545566
140	0x3dba7a2f	0.09105336
141	0xbca932de	-0.020654138
142	0xbdade33d	-0.08490608
143	0x3d69f860	0.057121634
144	0xbde4ea32	-0.11177482
145	0x3d423d5b	0.047421794
146	0xbd42e46c	-0.04758112
147	0xbd68b393	-0.05681188
148	0xbe97362b	-0.29533514
149	0xbce2dead	-0.02769407
150	0xbdb15eb9	-0.08660645
151	0xbce3ad1c	-0.027792506
152	0x3dcc8980	0.099871635
153	0xbe066b32	-0.1312683
154	0xbcae8256	-0.021302383
155	0xbdfdc935	-0.12391893
156	0x3d603b12	0.054743834
157	0xbdcb49da	-0.099261954
158	0xbc0c9c66	-0.00858221
159	0xbe0aed2d	-0.13567038
160	0xbe1c58ba	-0.15268221
161	0x3e8e28e0	0.2776556
162	0xbd2df35a	-0.042468406
163	0x3d90df8c	0.07073888
164	0x3e069fb0	0.13146853
165	0xbe1ce91f	-0.15323304
166	0x3a3df014	0.0007245552
167	0x3d9fcab7	0.07802337
168	0xbdbf5921	-0.09343172
169	0xbd0a1e56	-0.033720337
170	0xbd58f99a	-0.052972414
171	0xbe3c63e8	-0.18397486
172	0xbdb9e48b	-0.09076794
173	0x3dca3d57	0.09874981
174	0xbe1e6439	-0.1546792
175	0x3e4a21bf	0.19739436
176	0xbe5552c0	-0.20832348
177	0xbe1c4d72	-0.15263918
178	0x3e16612c	0.14685506
179	0xbbf726a6	-0.007542449
180	0x3dbed1eb	0.093173824
181	0xbc195141	-0.009357751
182	0xbe68401b	-0.22680704
183	0xbe5004c7	-0.20314322
184	0xbdfb322c	-0.12265429
185	0xbe643df1	-0.22289254
186	0xbe688423	-0.22706656
187	0xbd89dde3	-0.06731775
188	0x3d0bdca4	0.034145966
189	0x3dd346b8	0.10316223
190	0x3c926095	0.01786832
191	0xbdfed398	-0.12442702
192	0xbdefc260	-0.11706996
193	0x3e303c42	0.17210487
194	0x3d0aacbe	0.033856146
195	0xbc2cc490	-0.010544911
196	0xbd2b4f15	-0.041823465
197	0xbddd1784	-0.10795501
198	0x3da064e8	0.07831746
199	0x3d320b90	0.043468058
200	0xbb9fec17	-0.004880439
201	0xbdbb66c6	-0.09150462
202	0xbe156d82	-0.14592555
203	0xbdbff3a8	-0.093726456
204	0xbe6fb7c4	-0.23409945
205	0x3df8f070	0.12155235
206	0x3d01d03d	0.031692732
207	0x39aef6a7	0.00033371637
208	0x3e1f3d87	0.15550815
209	0x3de28074	0.11059657
210	0xbdcc20d2	-0.099671975
211	0x3d0dff93	0.034667563
212	0x3dd0f4e6	0.10202961
213	0xbe2b8a23	-0.16751914
214	0x3e574800	0.2102356
215	0xbcb1ff44	-0.021728165
216	0xbdabf4b6	-0.08396284
217	0x3d4cfaae	0.050043754
218	0x3c1006db	0.008790697
219	0x3de9e244	0.1142011
220	0xbe6b31bd	-0.22968192
221	0xbe6f3622	-0.23360494
222	0xbdbe52cf	-0.09293138
223	0xbe399dee	-0.18126652
224	0x3e66182f	0.22470163
225	0xbbd0ce11	-0.0063722213
226	0x3da6c253	0.08142533
227	0x3e06732d	0.13129874
228	0xbcd77aac	-0.026303612
229	0xbe17a572	-0.14809206
230	0x3e0b8751	0.13625838
231	0x3e2be9a8	0.16788352
232	0x3e376373	0.1790903
233	0xbdfaff75	-0.12255756
234	0xbe0876e2	-0.133266
235	0x3df446ca	0.119275644
236	0xbcd204be	-0.025637027
237	0xbe2a795f	-0.16647862
238	0xbe2b9160	-0.16754675
239	0xbcfe5506	-0.031046402
240	0x3cfdf3d5	0.031000057
241	0xbd14709f	-0.036240216
242	0x3db1a0b5	0.086732306
243	0x3dab4789	0.083632536
244	0xbe9cdd08	-0.30637383
245	0x3d250e83	0.040297043
246	0x3e21aa82	0.157877
247	0x3cca77b8	0.02471529
248	0xbd8bd724	-0.06828144
249	0xbcd68d59	-0.026190447
250	0x3d814df2	0.06313695
251	0x3d56c211	0.05243117
252	0xbc9b8087	-0.018982185
253	0xbe416396	-0.18885645
254	0x3df4cbad	0.119529106
255	0xbca191ea	-0.019722898

fc2.weight f4 [300, 400]
0	0x3e27e041	0.1639414
1	0x3d5a0496	0.05322703
2	0x3de96f23	0.11398151
3	0xbe4e34e6	-0.20137367
4	0xbe006dea	-0.12541929
5	0xbd4e2d8f	-0.050336417
6	0x3cf07396	0.02935199
7	0x3d7789a7	0.06043401
8	0x3d408ee1	0.04701126
9	0xbe181e0b	-0.1485521
10	0xbd0e6b1d	-0.03477012
11	0xbe1fae2c	-0.15593785
12	0x3d66b126	0.056321286
13	0xbde8196b	-0.11332973
14	0x3b960e4d	0.0045793415
15	0x3dbdb338	0.09262699
16	0x3d2b9a02	0.04189492
17	0xbdb807bb	-0.089858495
18	0xbb093c3b	-0.0020940441
19	0x3e899d62	0.26877886
20	0xbd25006e	-0.040283613
21	0xbcffff38	-0.031249627
22	0xbd59572c	-0.05306165
23	0xbdd9b888	-0.106309
24	0x3e4aaf46	0.19793424
25	0x3cc4b723	0.024013108
26	0x390851c0	0.00013000425
27	0xbe11f6e7	-0.14254342
28	0xbdcb8b57	-0.09938686
29	0x3da259f5	0.07927314
30	0x3cbefd14	0.023314036
31	0xbd9d62bd	-0.076848485
32	0xbd42c4c6	-0.04755094
33	0xbdb04094	-0.08606067
34	0x3cf230ca	0.02956428
35	0x3cadfd20	0.021238863
36	0x3d29ae17	0.04142579
37	0x3de8dc19	0.11370105
38	0xbe56a530	-0.20961452
39	0x3d54346d	0.05180781
40	0x3dd622a0	0.10455823
41	0x3e425219	0.1897663
42	0xbc6b0a34	-0.014345694
43	0xbd1596b5	-0.03652068
44	0x3ccd7a58	0.025082752
45	0x3d8ce479	0.06879515
46	0xbd1f5da5	-0.038907666
47	0x3b5cbe79	0.0033682866
48	0xbd5c32f3	-0.053759526
49	0xbb75d508	-0.003751101
50	0x3c5c8cc5	0.013461296
51	0x3dd7f191	0.10544122
52	0x3c74bde1	0.014937849
53	0xbda1c5d8	-0.07899064
54	0xbe73c95d	-0.23807283
55	0x3cb4409c	0.022003464
56	0xbd865694	-0.06559482
57	0x3dc4c382	0.09607603
58	0xbcc0ce5d	-0.023535902
59	0x3d368ee5	0.04456987
60	0x3d518cff	0.051159855
61	0x3dcdc25f	0.10046839
62	0x3d0d30e0	0.03447044
63	0x3e6a53d2	0.22883537
64	0xbe01f662	-0.12691644
65	0xbdcc0339	-0.09961552
66	0x3d4d5366	0.050128363
67	0x3dbc0c34	0.09182015
68	0x3c87ab0b	0.016561052
69	0x3e038b14	0.12846023
70	0xbcf39025	-0.02973182
71	0x3d6e4d25	0.05817904
72	0xbe07de9b	-0.13268511
73	0xbeb8d06a	-0.36096507
74	0xbbebe3be	-0.00719878
75	0xbd3117b2	-0.04323549
76	0xbd17f547	-0.03709915
77	0xbd2aab8a	-0.0416675
78	0x3e0fb71e	0.14034697
79	0x3e1afe3a	0.15136042
80	0x3d533f92	0.051574297
81	0x3c8ac007	0.016937269
82	0xbe0a5f47	-0.13512908
83	0x3d1182a0	0.035524964
84	0xbd34ad0b	-0.04411034
85	0xbe065170	-0.13117003
86	0xbdcc972a	-0.0998977
87	0x3e0fbe31	0.14037396
88	0x3d86d895	0.065842785
89	0x3c8b133f	0.01697695
90	0x3d8b08b8	0.06788772
91	0x3e22373d	0.15841384
92	0xb9a540f8	-0.00031519658
93	0xbd110fed	-0.03541558
94	0xbd425363	-0.047442805
95	0xbdc2bf9f	-0.09509205
96	0xbdb99c41	-0.09063006
97	0x3d950435	0.07276193
98	0x3dd3c6e0	0.10340667
99	0x3d969afe	0.07353781
100	0xbe4e43f4	-0.2014311
101	0x3d3a1785	0.045432586
102	0xbde9117b	-0.11380287
103	0x3d79202e	0.060821705
104	0xbd195225	-0.037431855
105	0x3c408397	0.011750123
106	0xbc9b65e9	-0.018969493
107	0x3e3349d1	0.17508627
108	0xbc1024ca	-0.008797834
109	0xbe2438a8	-0.16037238
110	0xbd08929f	-0.033342954
111	0x3ce3681e	0.027759608
112	0xbd8e3136	-0.0694298
113	0xbbe8194e	-0.0070830947
114	0xbd1e48d0	-0.03864366
115	0xbdd5184b	-0.10405024
116	0xbde04e28	-0.10952407
117	0x3cd02572	0.02540848
118	0x3ccfaf0c	0.025352024
119	0xbcb2be1b	-0.021819165
120	0xbda640c3	-0.08117821
121	0xbd8f2629	-0.069897
122	0x3def49cc	0.116839975
123	0x3e1d91e9	0.15387692
124	0xbde78c02	-0.11306001
125	0x3e24e76f	0.1610391
126	0xbccc00f2	-0.024902795
127	0x3ce87a3e	0.028378602
128	0x3d8c0836	0.068375036
129	0x3de0e92c	0.10981974
130	0xbe1a4511	-0.15065409
131	0xbc0f1325	-0.008732592
132	0xbbcbe72f	-0.0062226276
133	0x3daae6b3	0.08344784
134	0x3d85c846	0.0653234
135	0xbdf8ed47	-0.12154632
136	0xbe86b5ef	-0.2631068
137	0x3de18cb8	0.11013168
138	0x3d860423	0.06543758
139	0xbd89540b	-0.06705483
140	0x3d0cdfd2	0.03439314
141	0xbd5b0221	-0.053468827
142	0xbd4a5c42	-0.04940439
143	0xbc93838c	-0.018007062
144	0xbe7545c2	-0.23952392
145	0xbd9fd68c	-0.078045934
146	0x3d8fccb1	0.07021464
147	0xbd5ca895	-0.05387171
148	0x3d50e252	0.050997086
149	0x3c83f164	0.016106315
150	0xbd8f5f8e	-0.070006475
151	0x3d4ec413	0.05047996
152	0xbcbfee16	-0.023428958
153	0x3d994ee5	0.07485751
154	0x3c9b2abe	0.01894128
155	0xbc8cd304	-0.017190464
156	0xbd946468	-0.072457135
157	0x3d374cf6	0.04475113
158	0x3dbf116d	0.093294956
159	0x3d41c972	0.047311254
160	0xbec3b3a1	-0.38222983
161	0x3dadd7c1	0.084884174
162	0xbc30834f	-0.010773494
163	0x3cf17932	0.029476736
164	0x3d2f6bcd	0.042827416
165	0xbe732faf	-0.23748659
166	0x3ccfe3f3	0.02537725
167	0x3d362d01	0.044476513
168	0x3e0cb9be	0.1374273
169	0xbd63aef9	-0.05558679
170	0xbd5afe34	-0.053465083
171	0x3ddc3079	0.10751433
172	0xbcd0bc8b	-0.02548053
173	0x3d2288fe	0.039681427
174	0xbdfe1b53	-0.124075554
175	0xbe04a2f2	-0.12952784
176	0xbe0f2b0b	-0.13981263
177	0x3c463163	0.012096736
178	0xbde96889	-0.113968916
179	0xbd512ddc	-0.051069126
180	0x3cb90c32	0.022588823
181	0x3c8ec736	0.017428976
182	0x3aebcb2a	0.0017989625
183	0x3e014800	0.12625122
184	0x3d0990aa	0.033585228
185	0xbd0b7236	-0.034044467
186	0xbd0db9d6	-0.034601055
187	0x3d1c0b66	0.038096808
188	0xbe091117	-0.13385426
189	0x3d600e7f	0.054701325
190	0x3d7b9d41	0.061429266
191	0x3d908e7a	0.07058425
192	0x3db1d165	0.08682517
193	0xbe00c982	-0.12576869
194	0xbe76dd9f	-0.24107979
195	0xbcd592d8	-0.026070997
196	0x3db1dc4c	0.086845964
197	0x3d1058e0	0.035241008
198	0x3de7985a	0.11308356
199	0x3e036008	0.12829602
200	0xbcd67d9b	-0.02618294
201	0xbe127402	-0.14302066
202	0xbe5f53a9	-0.21809258
203	0xbd2bde34	-0.041959956
204	0xbd42f61f	-0.047598
205	0x3c3293ae	0.010899467
206	0x3ce759ae	0.028241005
207	0x3d3e3ad7	0.046442833
208	0x3e128687	0.1430913
209	0xbc27cfbb	-0.010242398
210	0xba0c1299	-0.00053433474
211	0xbe5abdf7	-0.21361528
212	0x3d71f0f8	0.059067696
213	0xbc075d9e	-0.008262066
214	0x3ddc7178	0.1076383
215	0x3bcfd765	0.0063428157
216	0x3d59a853	0.053139042
217	0xbd0d6551	-0.03452045
218	0x3e0dfdc7	0.1386634
219	0x3d0152ec	0.03157322
220	0xbd4b7ffa	-0.049682595
221	0xbd9fd217	-0.07803743
222	0xbd02a308	-0.03189376
223	0x3d7140ab	0.058899563
224	0x3e4dc06d	0.20092936
225	0xbce15480	-0.027506113
226	0x3d4bebe8	0.049785525
227	0x3df64759	0.12025327
228	0xbcb8db3f	-0.022565482
229	0x3e361593	0.17781667
230	0x3d52f52a	0.051503338
231	0xbd2b090f	-0.041756686
232	0x3d1d29aa	0.038369812
233	0xbd8aeda2	-0.06783606
234	0x3e3e4200	0.18579865
235	0x3b006651	0.0019592235
236	0xbd70a843	-0.058754217
237	0x3ce50161	0.02795476
238	0xbe24c628	-0.16091216
239	0x3c96efe5	0.018424938
240	0x3d90a1f1	0.07062138
241	0xbe240005	-0.16015632
242	0xbd98d42c	-0.074623436
243	0xbe0e8f74	-0.1392191
244	0xbd833a5b	-0.06407615
245	0xbdc72296	-0.097233936
246	0xbcac354f	-0.021021513
247	0x3e1e47d0	0.15457082
248	0x3dee3890	0.11631882
249	0x3d74e629	0.05978981
250	0x3e2c9cc6	0.1685668
251	0x3da2f052	0.07955994
252	0x3d36619d	0.044526685
253	0xbe337072	-0.17523363
254	0x3d2d2b67	0.04227772
255	0x3d4ea2fd	0.050448406

fc2.bias f4 [300]
0	0x3db1d86a	0.08683856
1	0xbcbb612e	-0.022873487
2	0xbc72ecc4	-0.014826957
3	0x3ba642ea	0.0050738947
4	0xbda9c054	-0.08288637
5	0x3c4f736e	0.012661798
6	0xbcb9b149	-0.022667544
7	0x3d73f4fe	0.059559815
8	0x3d7c597c	0.061608776
9	0x3cc742bd	0.024323815
10	0xbcfceb70	-0.030873984
11	0xbd8b4b0c	-0.068014234
12	0xbd95f57c	-0.07322213
13	0x3ccf4984	0.02530361
14	0xbcdd2eda	-0.02699988
15	0xbce6da86	-0.028180372
16	0x3c141c44	0.009039942
17	0xbac5e6fa	-0.0015098744
18	0x3d5a52a5	0.053301472
19	0xbd0b21df	-0.03396785
20	0xbd65198b	-0.055932563
21	0xbb29c503	-0.0025904782
22	0xbcc8492e	-0.024448957
23	0x3c037302	0.0080230255
24	0x3b246d0c	0.002508941
25	0xbca3a5d4	-0.019976534
26	0xbc5e7557	-0.013577781
27	0xbcb985d7	-0.022646828
28	0x3d64238e	0.05569797
29	0xbd95b9d8	-0.073108375
30	0x3d3910fb	0.04518221
31	0x3cadc479	0.02121185
32	0x3db240ae	0.08703743
33	0x3cbc202f	0.022964565
34	0xbd49a8ce	-0.04923325
35	0x3baca805	0.005269053
36	0x3d86836e	0.06568037
37	0x3ca887b3	0.020572519
38	0xbc914dfe	-0.017737385
39	0x3d105352	0.03523571
40	0xbc447764	-0.011991356
41	0x3c48cf30	0.012256429
42	0xbd798f08	-0.06092742
43	0x3d12f6aa	0.03587977
44	0x3cb1d09c	0.021705918
45	0x3bb4d414	0.0055184457
46	0xbd64889a	-0.055794336
47	0xbc76473f	-0.015031635
48	0xbb1e505a	-0.002415678
49	0xbd3066d3	-0.04306681
50	0xbd424e4a	-0.047437944
51	0x3d106ec9	0.035261903
52	0xbdc0f071	-0.094208606
53	0x3acbb909	0.0015542816
54	0xbced65b9	-0.02897917
55	0xbd8b4209	-0.067997046
56	0xbd933164	-0.07187155
57	0xbd8f1d1d	-0.06987975
58	0xbc85bee6	-0.016326379
59	0xbcfed534	-0.031107523
60	0x3d7d0288	0.061769992
61	0xbce89492	-0.028391156
62	0xbb50b830	-0.0031848066
63	0xbd8785f6	-0.06617348
64	0x3d83874c	0.0642229
65	0x3d13d1c2	0.036088713
66	0x3a7255b7	0.000924434
67	0xbb099247	-0.002099173
68	0xbcd022fe	-0.02540731
69	0xbd7b937f	-0.06141996
70	0x3c213f13	0.009841698
71	0xbc50852d	-0.012727064
72	0x3c57976d	0.013158661
73	0xbd944fb9	-0.072417684
74	0x3c45f2a8	0.01208178
75	0xbd308402	-0.043094642
76	0xbd6891e0	-0.056779742
77	0x3cd8d970	0.02647087
78	0xbd9f9ad6	-0.077932045
79	0xbca2c739	-0.019870387
80	0xbd0beb28	-0.03415981
81	0xbc961321	-0.018319668
82	0x3bb9fec2	0.0056761215
83	0x3b10f3d3	0.0022117987
84	0xbcd48736	-0.02594338
85	0xbc73cf52	-0.014880972
86	0xba152504	-0.00056894147
87	0xbdaae164	-0.08343771
88	0xbd62d87e	-0.055382244
89	0x3dc6df5c	0.09710571
90	0x3c322072	0.010871993
91	0xbd1b23c8	-0.03787592
92	0x3d4478d2	0.047966786
93	0xbd3fdc4c	-0.04684095
94	0x3d9e1925	0.0771964
95	0x3caa3203	0.0207758
96	0xbd0d7eb4	-0.03454466
97	0xbc8d0b61	-0.01721734
98	0xbcb4d317	-0.022073312
99	0x3d1943bd	0.037418116
100	0xbcb96993	-0.02263335
101	0xbcb905d4	-0.022585787
102	0xbc21d97c	-0.0098785125
103	0xbd91e6a9	-0.07124073
104	0x3cd37309	0.025811689
105	0x3aeef75f	0.0018231681
106	0x3d2448c6	0.040108465
107	0x3ccb3ec8	0.02481021
108	0xbb80eac5	-0.0039342367
109	0x3cd1daef	0.025617091
110	0xbbdfd9f6	-0.006831403
111	0x3d1b863e	0.03796982
112	0x3c344404	0.011002544
113	0xbc96bed4	-0.01840154
114	0xbda6502d	-0.08120761
115	0x3d9770f8	0.07394594
116	0x3c937487	0.0179999
117	0x3d13e952	0.036111183
118	0x3d6b1e8d	0.057402182
119	0x3cf4cc1f	0.029882489
120	0x3c78656b	0.015160899
121	0xbd48fab3	-0.04906721
122	0x3c9d0937	0.019169433
123	0x3d21048a	0.03931097
124	0x3c22ccfc	0.009936567
125	0xbcd52601	-0.026019098
126	0x3d94c399	0.0726387
127	0x3c4eb633	0.012616682
128	0x3b106dc2	0.0022038077
129	0x3d118213	0.03552444
130	0x3ba1aa89	0.0049336595
131	0xbd3cc15a	-0.046082832
132	0x3d072c8c	0.033001468
133	0xbdb27999	-0.08714599
134	0x3d2c7b58	0.042109817
135	0x3d8264f5	0.06366912
136	0xbb2c481a	-0.0026288093
137	0x3cc3fedf	0.023925243
138	0x3c1b9b52	0.0094974805
139	0xbcee76e0	-0.029109418
140	0xbcbe9b79	-0.023267495
141	0xbd662567	-0.056188013
142	0xbd53b58f	-0.05168682
143	0xbd00a7e5	-0.031410117
144	0xbbd72d77	-0.006566699
145	0x3be3cb4d	0.0069517256
146	0xbcdcad7b	-0.02693819
147	0xbd14c86e	-0.036323957
148	0xbd51e097	-0.051239576
149	0x3c5cbbd7	0.013472519
150	0xbd52ea62	-0.051493056
151	0x3cf68126	0.03009088
152	0x3cc02b89	0.02345826
153	0xbbdca3ea	-0.0067334073
154	0xbc803fd9	-0.015655445
155	0xbcc8645d	-0.02446192
156	0x3b32ad4b	0.0027263935
157	0x3d933b52	0.07189049
158	0xbd724aca	-0.059153356
159	0x3d5a3563	0.05327357
160	0xbca8628b	-0.020554801
161	0x3d332355	0.043734867
162	0xbd04bf2e	-0.032408886
163	0xbcb6d9d8	-0.022320673
164	0xbc2a7883	-0.010404709
165	0xbce124e3	-0.02748341
166	0x3c6b5476	0.014363399
167	0x3ceeaeb1	0.029136034
168	0xbc1eac75	-0.009684672
169	0xbd1521b3	-0.03640909
170	0xbd064b90	-0.032786906
171	0xbd7db7a6	-0.06194272
172	0xbd09fe0a	-0.033689536
173	0x3d16db4a	0.036830224
174	0x3d2d12bc	0.042254195
175	0xbd6bdd84	-0.0575843
176	0xbd6e41f7	-0.058168378
177	0xbd01deb4	-0.031706527
178	0xbd6ab3f3	-0.05730052
179	0x3cec9205	0.028878221
180	0xbd3b13e6	-0.045673274
181	0x3c70d77a	0.014699811
182	0x3cbe90e5	0.02326245
183	0xbd7c9bf1	-0.061672155
184	0x3c828f65	0.015937516
185	0xbbfe7d8a	-0.0077664303
186	0xbd59f32a	-0.053210415
187	0xbd67b558	-0.056569427
188	0x3ced1daf	0.028944818
189	0x3b8dd4c0	0.0043283403
190	0xbcdc7639	-0.026911842
191	0x3d7d044f	0.061771687
192	0xbcaa4437	-0.02078448
193	0x3d2c34da	0.04204259
194	0x3d6d1792	0.057883807
195	0x3c059838	0.008153968
196	0xbc8ccfb4	-0.017188884
197	0xbd965172	-0.07339753
198	0x3c92e0bb	0.017929425
199	0x3d15d691	0.03658158
200	0x3ce0694c	0.02739396
201	0xbcbc1794	-0.022960462
202	0xbde855d7	-0.11344498
203	0xbbcdc599	-0.006279659
204	0xbd705d67	-0.058682825
205	0x3b306795	0.0026917208
206	0x3d779b29	0.060450707
207	0x3cbff5bb	0.023432603
208	0xbd5943b0	-0.053043067
209	0xbc7a8fb0	-0.015293047
210	0xbd802a64	-0.06258085
211	0xbb037485	-0.0020058465
212	0xbd817278	-0.06320661
213	0xba354271	-0.00069145026
214	0xbcb51a6b	-0.022107324
215	0x3c8ee7d9	0.017444538
216	0x3c77969f	0.015111594
217	0xbc5aabaf	-0.013346597
218	0x3cb574b4	0.022150375
219	0x3ceac9f9	0.028660761
220	0xbdfad165	-0.1224697
221	0x3d3778ce	0.044792943
222	0x3c4e16a3	0.012578639
223	0xbcd5b9f0	-0.026089638
224	0xbd8a8be9	-0.06764967
225	0xbcf25e8e	-0.029586103
226	0x3d4d6812	0.050148077
227	0x3c6c3b60	0.014418453
228	0xbd84255b	-0.064524375
229	0xbc2c872c	-0.010530274
230	0x3cb7628d	0.02238586
231	0xbc32e3f8	-0.01091861
232	0xbc961cb6	-0.018324237
233	0xbb549bb9	-0.003244145
234	0x3dbf3930	0.093370795
235	0xbc93a6f0	-0.018023938
236	0xbd2347cf	-0.039863404
237	0x3b9bb664	0.0047519673
238	0xbd53e5c4	-0.051732793
239	0xbd5fa433	-0.054599952
240	0xbdaaf829	-0.08348114
241	0x3c767402	0.015042307
242	0xbda9865c	-0.0827758
243	0xbdbc8822	-0.09205653
244	0x3cac0578	0.020998701
245	0xbcb3f25b	-0.02196615
246	0x3cba7e6a	0.022765357
247	0xbbe7f857	-0.007079165
248	0x3d61a95e	0.05509316
249	0xbd07ec87	-0.033184554
250	0xbcf0532d	-0.029336536
251	0xbd6532f8	-0.05595681
252	0x3b9250dd	0.004465206
253	0x3c360234	0.011108924
254	0xbd0d209e	-0.034454934
255	0xbc0ca59d	-0.008584407

fc3.weight f4 [4, 300]
0	0x3ba64c86	0.0050750403
1	0x3e8b5b91	0.27218297
2	0xbc6054b5	-0.013692071
3	0x3ec4348e	0.38321346
4	0x3e150824	0.14553887
5	0x3e0b3e87	0.13598071
6	0x3d9610fb	0.073274575
7	0xbd985be8	-0.07439405
8	0x3e88d8a8	0.26727796
9	0x3eff6195	0.49879137
10	0xbe137a3e	-0.144021
11	0xbde294cf	-0.11063539
12	0xbe7e6436	-0.24842915
13	0x3db81589	0.089884825
14	0x3cf73acd	0.030179406
15	0xbec1eb66	-0.37874907
16	0xbe82908b	-0.25500903
17	0x3eda5d66	0.42649382
18	0xbf2d6523	-0.6773245
19	0x3e9efc80	0.31052017
20	0x3e8d164a	0.27556068
21	0xbd0d92e7	-0.034563925
22	0xbb9e3ff4	-0.004829401
23	0x3ed87288	0.4227488
24	0xbe4e51b6	-0.20148358
25	0x3df2d4bf	0.11856984
26	0x3e2949d8	0.16532075
27	0xbe2a5bda	-0.16636601
28	0xbe65f652	-0.22457245
29	0x3d922b4b	0.07137164
30	0xbe0cc934	-0.13748628
31	0x3dc9cfd6	0.09854095
32	0xbd031230	-0.031999767
33	0xbd865e0d	-0.065609075
34	0xbbf2fd11	-0.007415422
35	0xbd3921cf	-0.045198258
36	0xbe0fc866	-0.1404129
37	0x3d609037	0.054825034
38	0xbe825397	-0.254544
39	0xbea96716	-0.3308646
40	0xbc87e1af	-0.016587107
41	0x3e75e704	0.24013907
42	0x3f1fd546	0.62434804
43	0xbc308160	-0.010773033
44	0xbd750693	-0.059820723
45	0x3e7a3ddb	0.24437658
46	0x3ebdc59a	0.3706482
47	0xbd7ff5ec	-0.06249039
48	0xbc64f7ee	-0.013975127
49	0xbe75a688	-0.23989308
50	0x3eadf03c	0.33972347
51	0xbcee90e8	-0.029121831
52	0xbdbabb92	-0.091178074
53	0xbe5d6c5e	-0.2162337
54	0xbca19d4f	-0.01972833
55	0xbd8db68d	-0.069195844
56	0xbedb622a	-0.4284833
57	0xbed55588	-0.41666818
58	0x3d4f07c5	0.05054452
59	0xbe5c6450	-0.21522641
60	0xbe433eb4	-0.19066888
61	0x3f1d1c81	0.6137162
62	0x3cfe1869	0.031017499
63	0xbd4eaf3a	-0.050460078
64	0x3cbca160	0.023026168
65	0x3d713c8a	0.058895625
66	0x3f2145f2	0.62997353
67	0x3dc18fef	0.09451281
68	0x3edfba39	0.43696764
69	0xbc84922b	-0.01618298
70	0x3eaca653	0.33720645
71	0xbe94f5b0	-0.29093695
72	0xbe9e0c1b	-0.3086861
73	0x3ec80427	0.39065668
74	0x3e3a8781	0.18215753
75	0x3df61393	0.12015452
76	0x3e91514b	0.28382334
77	0xbd56f93c	-0.052483782
78	0x3f1983ab	0.59966534
79	0xbe4f7323	-0.20258765
80	0xbd7f54b4	-0.06233664
81	0xbb701266	-0.003663206
82	0x3ba6dd36	0.0050922884
83	0xbdfec705	-0.12440304
84	0xbd350f1c	-0.044203863
85	0x3ca48b26	0.020085882
86	0x3eb794d2	0.35855728
87	0x3d0ac7ca	0.03388194
88	0x3dc063d2	0.09394039
89	0xbde9297d	-0.113848664
90	0xbd1bb503	-0.038014423
91	0x3d360eaf	0.044447597
92	0xbe427104	-0.18988425
93	0xbea5d526	-0.32389182
94	0xbdc8712a	-0.09787209
95	0x3e23778b	0.15963571
96	0x3da1cdfa	0.07900615
97	0xbd83917d	-0.06424234
98	0xbe07e6b4	-0.132716
99	0x3e56e548	0.20985901
100	0xbe46de02	-0.19420627
101	0xbe6ead71	-0.2330835
102	0x3d0deb01	0.034647945
103	0xbe4c2841	-0.1993723
104	0xbd89d626	-0.06730299
105	0x3e2c769e	0.16842124
106	0xbd47b5b7	-0.04875728
107	0x3e1f65c2	0.15566161
108	0x3dbf226b	0.093327366
109	0xbe2d3ad5	-0.16916974
110	0xbd9c66c6	-0.0763679
111	0x3e010c89	0.12602438
112	0x3eb99894	0.3624922
113	0xbd2a84fc	-0.04163073
114	0x3da3387a	0.079697564
115	0xbda87029	-0.08224518
116	0x3ee7bca1	0.452611
117	0xbdfc2d3f	-0.123133175
118	0x3d3fbd58	0.04681143
119	0xbd1adb95	-0.037807066
120	0xbd27de43	-0.04098345
121	0x3eb8bece	0.36083072
122	0x3e4b2e68	0.19841921
123	0x3d8d4db0	0.06899583
124	0xbe541cbf	-0.20714091
125	0x3e625518	0.22102773
126	0xbd86ec0c	-0.06587991
127	0xbe4a4d01	-0.19755937
128	0x3dd398a4	0.10331848
129	0x3eeed93d	0.46650115
130	0xbd063da3	-0.032773625
131	0xbe48b264	-0.195993
132	0x3e4240e8	0.18970072
133	0xbe6577a2	-0.22408918
134	0xbe3cefc1	-0.18450834
135	0xbe079a62	-0.13242486
136	0xbe366dc9	-0.17815317
137	0xbea2ba63	-0.31782827
138	0xbda67392	-0.08127512
139	0xbd9869ae	-0.07442032
140	0xbd1aa29f	-0.037752744
141	0x3e83e512	0.25760704
142	0x3d31bb54	0.04339154
143	0x3dd29c2d	0.102836944
144	0xbd880bc5	-0.0664287
145	0xbdf3817d	-0.11889932
146	0x3e858e29	0.26085022
147	0x3e24d364	0.16096264
148	0x3eb0c0dd	0.34522143
149	0xbdbb3c6f	-0.09142386
150	0x3d8f27e5	0.06990031
151	0x3ecdb5a4	0.40177643
152	0xbdea2e72	-0.1143464
153	0xbdf80757	-0.12110775
154	0xbed5a1c0	-0.41724968
155	0x3e83e819	0.25763014
156	0xbe26355a	-0.1623129
157	0xbdac723a	-0.084202245
158	0xbe3c6d25	-0.1840101
159	0x3ba0b711	0.0049046357
160	0x3da42660	0.08015132
161	0x3d863667	0.06553345
162	0xbb05a4e4	-0.0020392472
163	0x3ebed715	0.3727347
164	0x3ebcbedc	0.36864364
165	0x3e75948d	0.23982449
166	0x3d4a468f	0.049383696
167	0x3ed2ec2b	0.41195807
168	0x3e1975f1	0.14986397
169	0xbe427713	-0.18990736
170	0x3ed26394	0.41091597
171	0xba81502f	-0.0009865816
172	0xbe6bbf63	-0.23022227
173	0x3e15f4af	0.1464412
174	0xbd801bc3	-0.06255295
175	0xbccc9f00	-0.02497816
176	0xbe80b3fe	-0.25137323
177	0x3dc01ce4	0.093805104
178	0xbe093aaa	-0.13401285
179	0xbdae1b7f	-0.08501338
180	0x3d97a5e8	0.07404691
181	0x3e56b734	0.20968324
182	0x3ddb9e79	0.10723586
183	0x3e2c27a1	0.16811992
184	0xbd83efda	-0.064422324
185	0xbe6fcc44	-0.23417765
186	0x3dcccd39	0.100000806
187	0x3d89fb58	0.06737393
188	0xbd0682e1	-0.03283966
189	0xbc886cc5	-0.016653428
190	0xbd882f74	-0.06649676
191	0xbe0633c6	-0.13105687
192	0x3c7fcd4c	0.015612911
193	0x3e650f70	0.2236917
194	0x3e23af73	0.15984897
195	0x3d741f25	0.059600014
196	0xbcec329e	-0.02883273
197	0xbe2a21ed	-0.16614504
198	0xbe91d37e	-0.28481668
199	0xbe146fa4	-0.14495713
200	0x3eeb6fda	0.45983773
201	0x3e8806c3	0.2656766
202	0x3e865d9f	0.26243302
203	0xbdef4c55	-0.11684481
204	0x3ea572bd	0.323141
205	0x3d906f92	0.0705253
206	0xbdf8b979	-0.12144751
207	0xbd15f050	-0.036606133
208	0x3db1785e	0.08665536
209	0xbe51a1fa	-0.20471945
210	0x3ecd04de	0.40042776
211	0x3e4a0fce	0.19732592
212	0x3e9b8eee	0.30382484
213	0x3e68e1bc	0.22742361
214	0xbda40c4f	-0.0801016
215	0x3e47810a	0.19482818
216	0xbd8ecb3e	-0.06972359
217	0xbea753b1	-0.3268104
218	0x3d9bbe67	0.07604676
219	0xbd101e30	-0.03518504
220	0xbdf5a1ec	-0.11993775
221	0xbdb3139a	-0.08743973
222	0x3dbd2ee0	0.09237456
223	0x3e1fcc2f	0.15605234
224	0xbf032d2f	-0.5124082
225	0x3ea26619	0.3171852
226	0x3da4db6d	0.08049665
227	0xbe1d0907	-0.15335475
228	0x3e361ed2	0.17785195
229	0xbda5b181	-0.08090497
230	0xbdfe9c45	-0.1243215
231	0xbe3d1866	-0.18466339
232	0x3d196a40	0.037454844
233	0x3ed85cf0	0.42258406
234	0xbdaf43ea	-0.085578755
235	0xbe3b14e7	-0.18269692
236	0x3f0cf3c1	0.5505944
237	0x3e9cbbe6	0.30612105
238	0x3e06b9c9	0.13156809
239	0x3f16a67a	0.58847773
240	0xbdb99a4d	-0.09062634
241	0x3e0cf5f7	0.13765703
242	0x3edd09ea	0.43171626
243	0x3d7ac2da	0.06122098
244	0xbe6d1ed6	-0.23156294
245	0xbd6aa8a4	-0.057289734
246	0xbc4d5e19	-0.012534642
247	0x3e0620c3	0.13098435
248	0x3e24e0fa	0.16101447
249	0xbc518998	-0.012789153
250	0xbe201c05	-0.15635689
251	0xbdb31345	-0.0874391
252	0x3ea71aef	0.32637736
253	0x3ee55e0b	0.44798312
254	0xbdf4c5e9	-0.11951811
255	0x3f0b7f7b	0.54491395

fc3.bias f4 [4]
0	0xbd67d30e	-0.05659776
1	0x3d14a27e	0.036287777
2	0x3da5453f	0.08069848
3	0x3ccd3e27	0.02505405
